tests/results/over-squashing-spec/2025-05-06/14-54-13-822944-over-squashing-spec/19/ckpt/198.ckpt (torch, 237202 bytes, 31 tensors)

model.encoder.node_encoder.encoder.weight f4 [16, 5]
0	0x3f296615	0.6617139
1	0xbf672f88	-0.903069
2	0x3f4d7f46	0.8027233
3	0x3f75b8ac	0.9598491
4	0xbf579230	-0.8420744
5	0xbf879984	-1.0593724
6	0x3ebd3eeb	0.36962065
7	0xbf72c318	-0.9482894
8	0x3f5d8c64	0.86542344
9	0x3f89d368	1.0767641
10	0x3e45b6d4	0.19308025
11	0x3ec86434	0.3913895
12	0xbf8bed8f	-1.0931872
13	0xbf3d6103	-0.73976153
14	0x3f239687	0.6390156
15	0xbfb556ec	-1.4167151
16	0x3f5af988	0.85537004
17	0xbfa6c60b	-1.3029188
18	0x3e97149b	0.29507908
19	0x3f5af6d4	0.8553288
20	0x3ed07ea2	0.40721613
21	0x3ecd7f74	0.40136302
22	0x3e3df09a	0.18548813
23	0xbf8f63dd	-1.1202351
24	0x3f14d891	0.58142954
25	0xbf936b3c	-1.15171
26	0x3f959e0c	1.1688857
27	0xbf1b771e	-0.60728633
28	0xbf04cac1	-0.5187188
29	0x3f80df16	1.006808
30	0x3f32364e	0.6961411
31	0x3ee383d6	0.4443652
32	0x3f7c7e5b	0.98630303
33	0x3ed43700	0.41448212
34	0xbf7ac58c	-0.9795768
35	0x3e96321b	0.29335102
36	0xbfad2c81	-1.3529207
37	0x3f1fe727	0.62462085
38	0xbf937236	-1.151923
39	0x3fa6dd74	1.3036332
40	0x3ea96e63	0.3309203
41	0x3f869f4f	1.0517367
42	0xbf8cf668	-1.1012697
43	0x3eb25cb7	0.3483636
44	0xbf3e8fae	-0.7443799
45	0xbf16c730	-0.58897686
46	0x3f6373ed	0.88848764
47	0xbf9acde9	-1.2094089
48	0x3f14d47e	0.5813674
49	0x3f8cb5c6	1.0992973
50	0x3eedcd97	0.46445915
51	0xbe6bafc1	-0.23016264
52	0x3f119af7	0.5687708
53	0x3e41db7d	0.18931384
54	0xbf8f69cb	-1.120416
55	0xbf880432	-1.062628
56	0xbe91183f	-0.2833881
57	0xbbdfe760	-0.006833002
58	0x3f1c8cc4	0.6115229
59	0xbed9a019	-0.42504957
60	0xbf36fa8c	-0.71476054
61	0x3f27e2fc	0.65580726
62	0x3f1d8b06	0.6154026
63	0x3eae1ac5	0.340048
64	0xbf74d3fb	-0.95635957
65	0xbf86d3a5	-1.0533339
66	0x3f6418bc	0.8910024
67	0x3ed7a302	0.42116553
68	0x3f1a29e9	0.602202
69	0x3e7e465c	0.24831527
70	0xbf99e182	-1.2021945
71	0xbf697cc8	-0.91206026
72	0x3ea64d48	0.32480836
73	0x3f55bbdd	0.8348978
74	0x3ec5bb3a	0.38619405
75	0x3eed2c02	0.46322638
76	0x3f365add	0.71232396
77	0xbf242f47	-0.6413464
78	0xbfa3f605	-1.2809454
79	0xbe4e1a38	-0.20127189

model.encoder.node_encoder.encoder.bias f4 [16]
0	0xbf1676e8	-0.58775187
1	0xbf953520	-1.1656837
2	0x3f6a6caf	0.9157209
3	0x3f2d3ea2	0.67673695
4	0x3fb2b240	1.3960648
5	0x3fb112dc	1.383388
6	0x3f00ba5d	0.5028437
7	0x3f56338d	0.8367241
8	0xbf101da2	-0.56295216
9	0xbf739a3d	-0.95157224
10	0xbf9244f1	-1.1427289
11	0xbef6e095	-0.48218217
12	0xbeae91c9	-0.340956
13	0xbcb43d1b	-0.022001794
14	0xbf846657	-1.0343732
15	0x3fb38b9c	1.402698

model.gnn_layers.0.factor_split f4 [16, 2]
0	0x3f800000	1.0
1	0x3f800000	1.0
2	0x3f800000	1.0
3	0x3f800000	1.0
4	0x3f800000	1.0
5	0x3f800000	1.0
6	0x3f800000	1.0
7	0x3f800000	1.0
8	0x3f800000	1.0
9	0x3f800000	1.0
10	0x3f800000	1.0
11	0x3f800000	1.0
12	0x3f800000	1.0
13	0x3f800000	1.0
14	0x3f800000	1.0
15	0x3f800000	1.0
16	0x3f800000	1.0
17	0x3f800000	1.0
18	0x3f800000	1.0
19	0x3f800000	1.0
20	0x3f800000	1.0
21	0x3f800000	1.0
22	0x3f800000	1.0
23	0x3f800000	1.0
24	0x3f800000	1.0
25	0x3f800000	1.0
26	0x3f800000	1.0
27	0x3f800000	1.0
28	0x3f800000	1.0
29	0x3f800000	1.0
30	0x3f800000	1.0
31	0x3f800000	1.0

model.gnn_layers.0.filter.filter.distance_expansion.offset f4 [20]
0	0x00000000	0.0
1	0x3f86bca2	1.0526316
2	0x4006bca2	2.1052632
3	0x404a1af3	3.1578948
4	0x4086bca2	4.2105265
5	0x40a86bca	5.263158
6	0x40ca1af3	6.3157897
7	0x40ebca1c	7.3684216
8	0x4106bca2	8.421053
9	0x41179436	9.473684
10	0x41286bca	10.526316
11	0x4139435e	11.578947
12	0x414a1af2	12.631578
13	0x415af286	13.68421
14	0x416bca1b	14.736842
15	0x417ca1af	15.789474
16	0x4186bca2	16.842106
17	0x418f286c	17.894737
18	0x41979436	18.947369
19	0x41a00000	20.0

model.gnn_layers.0.filter.filter.linear.0.weight f4 [3, 20]
0	0xbee81648	-0.453295
1	0x3f82789f	1.0193061
2	0x3f3f374c	0.7469375
3	0xbfbd7d22	-1.4803813
4	0x3df2c988	0.11854845
5	0x3f49c7c0	0.7882042
6	0x3deedb16	0.11662881
7	0xbee47642	-0.44621474
8	0xbe5271e2	-0.20551255
9	0x3f1cd8e2	0.61268437
10	0x3e8ed2be	0.2789516
11	0xbea884a8	-0.3291371
12	0x3eaf7952	0.34272248
13	0x3f0352e4	0.51298356
14	0xbe4f6684	-0.2025395
15	0x3dfdcfe3	0.12393167
16	0x3f084d8b	0.5324332
17	0x3f0487f2	0.51769936
18	0x3ebd5a84	0.3698312
19	0x3f690ca8	0.91034937
20	0x3f0aaf46	0.54173696
21	0xbf7c6a0b	-0.9859931
22	0xbf7ab3d6	-0.9793066
23	0x3fbf9da3	1.4969982
24	0x3eb0cac8	0.3452971
25	0xbe084a90	-0.13309693
26	0x3e02d29a	0.1277565
27	0x3e5e1120	0.2168622
28	0x3e551442	0.20808509
29	0x3a9c9be6	0.0011948317
30	0x3e59f196	0.21283564
31	0x3d27fe8c	0.04101424
32	0x3e54de08	0.20787823
33	0xbeb0a9e5	-0.3450462
34	0x3e2b78a6	0.16745242
35	0x3eb9e7b7	0.36309597
36	0xbf08d015	-0.5344251
37	0xbf4d367e	-0.80161273
38	0xbf470521	-0.777422
39	0xbfcbb490	-1.5914478
40	0xbf494cd6	-0.7863287
41	0x3fb39f5b	1.4033006
42	0x3f86d7fe	1.0534666
43	0xbfc769f2	-1.5579207
44	0xbcfaa475	-0.030595997
45	0x3f768200	0.96292114
46	0x3e58dff0	0.21179175
47	0xbf27da11	-0.6556712
48	0xbeb1aaad	-0.34700528
49	0x3f395976	0.7240213
50	0x3ebc605f	0.36792275
51	0xbf15a292	-0.5845119
52	0xbe6fa797	-0.23403774
53	0x3e3fafa7	0.1871935
54	0x3e6aea40	0.22940922
55	0xbf1e042e	-0.6172513
56	0xbee8dd46	-0.45481318
57	0x3c5d695d	0.01351389
58	0x3e690e42	0.22759345
59	0xbd6dd692	-0.05806596

model.gnn_layers.0.filter.filter.linear.1.weight f4 [16, 3]
0	0xbfbbd969	-1.4675723
1	0x3ef1734a	0.4715827
2	0xbf83aba0	-1.0286751
3	0x3fc586ed	1.5431801
4	0xbfc710e6	-1.5552032
5	0x3fbbf747	1.4684838
6	0x3fea65a8	1.8312273
7	0xbfde49a2	-1.7366221
8	0x3fca40ef	1.5801066
9	0x3f71abd8	0.9440284
10	0xbfada5e1	-1.3566247
11	0x3fc1b743	1.5134052
12	0x3ff915cc	1.9459777
13	0xbfa87483	-1.3160557
14	0x3ff199d7	1.8875073
15	0xbfaf306d	-1.3686653
16	0x40007d9b	2.0076663
17	0xbfea1175	-1.8286577
18	0xbe02cba6	-0.12772998
19	0x3f6e1f47	0.93016475
20	0x3ea234ff	0.31681058
21	0x3ef0a0b8	0.4699762
22	0xbf40bc8a	-0.7528769
23	0x3f9b4ab8	1.2132177
24	0x3fb5456e	1.4161813
25	0xbfd87d27	-1.6913193
26	0x3fb6ce1d	1.4281651
27	0x3fc009b2	1.5002959
28	0xc02004a3	-2.500283
29	0x3feb6058	1.8388777
30	0xbfae1ac6	-1.3601921
31	0x3fa7e8c0	1.3117905
32	0xbfbc3723	-1.4704326
33	0xbf599a4a	-0.8500105
34	0x3f5518c7	0.8324093
35	0xbf3b4905	-0.73158294
36	0x3f61b4be	0.88166416
37	0xbf6b1049	-0.91821724
38	0x3f9e43ef	1.2364482
39	0xbf51f8be	-0.82020175
40	0x3f016ece	0.505597
41	0xbf0f6e35	-0.5602754
42	0xbfe2ef9f	-1.7729377
43	0x3eb82f7e	0.35973734
44	0xbf9defc4	-1.2338796
45	0xbfdc5794	-1.7214227
46	0x3f9bf966	1.2185485
47	0xc0085c5d	-2.1306374

model.gnn_layers.0.filter.filter.linear.1.bias f4 [16]
0	0x3e201f77	0.15637003
1	0x3d18a9c3	0.037271272
2	0xbdf29da0	-0.11846471
3	0x3c68e1d0	0.014213994
4	0xbdde8bb1	-0.10866488
5	0xbd29057f	-0.041265007
6	0xbd92c1e0	-0.07165885
7	0x3f108303	0.5644991
8	0xbb94c7db	-0.004540426
9	0xbe2bd0e3	-0.16778903
10	0xbcdbb08a	-0.026817579
11	0xbef6e348	-0.48220277
12	0xbd7fc12e	-0.06244009
13	0x3ddb5aa7	0.1071065
14	0x3d82c8a7	0.06385928
15	0x3cd7b37a	0.026330698

model.gnn_layers.0.feature_transform.layer_real.lin1.weight f4 [16, 16]
0	0xbf0a3e78	-0.5400157
1	0xbee6c3c4	-0.45071232
2	0xbc1f9d99	-0.009742164
3	0x3f718de7	0.9435715
4	0x3ea469ed	0.32112065
5	0x3f2ae7b8	0.66759825
6	0x3f3b399d	0.73134786
7	0xbf98d102	-1.1938784
8	0x3f2b6c64	0.66962266
9	0x3f60fecb	0.87888783
10	0xbf39fe2d	-0.72653466
11	0xbef3f7d5	-0.47650018
12	0x3f985f36	1.1904056
13	0x3f85fa2a	1.0466969
14	0xbf491d43	-0.78560275
15	0x3e063879	0.1310748
16	0x3f54e32e	0.8315915
17	0xbf908fb6	-1.1293857
18	0xbea9434f	-0.33059165
19	0xbfbfc317	-1.4981412
20	0x3f235d50	0.6381426
21	0xbfcc1134	-1.594275
22	0x3f1a92e3	0.6038038
23	0x3f80c2e0	1.0059471
24	0xbf84848e	-1.0352952
25	0xbfb00480	-1.3751373
26	0x3e475521	0.19466068
27	0xbf4bd7fd	-0.79626447
28	0xbf210bff	-0.6290893
29	0xbf492143	-0.7856638
30	0xbf689553	-0.9085285
31	0x3f0eda7d	0.55802137
32	0x3ead62b5	0.3386437
33	0xbf10b8cf	-0.56531996
34	0x3e8f9863	0.2804595
35	0xbf36e411	-0.7144175
36	0xbc3b5327	-0.011433399
37	0xbf4f3288	-0.8093648
38	0x3f078d89	0.5295034
39	0x3e9ac717	0.30230018
40	0x3e9e8b28	0.30965543
41	0xbf2f1d95	-0.68404514
42	0x3e8f4b48	0.27987123
43	0xbf70ae78	-0.9401622
44	0xbf52e64a	-0.82382643
45	0xbffa7f24	-1.957005
46	0xbf225adc	-0.6341989
47	0x3f444bba	0.7667805
48	0xbf01a5f0	-0.50643826
49	0x3f60faac	0.87882495
50	0x3f60622b	0.8764979
51	0xbcd1b718	-0.025600001
52	0x3ed97f54	0.42479956
53	0xbf6ac72d	-0.9171017
54	0xbf84cd71	-1.0375196
55	0x3fa08978	1.2541952
56	0xbf4ebd32	-0.8075744
57	0x3f455928	0.77089167
58	0xbf532ff2	-0.82495034
59	0xbef1115b	-0.47083554
60	0xbfb2cbd6	-1.3968456
61	0xbf9b2aea	-1.2122471
62	0xbe878571	-0.26468995
63	0x3f030409	0.5117803
64	0x3eb00938	0.34382033
65	0xbf2870ea	-0.65797293
66	0x3f81b62d	1.0133721
67	0xbf59d08e	-0.85083854
68	0xbdc5fe20	-0.09667611
69	0xbf88772b	-1.0661367
70	0x3e0b22f4	0.13587552
71	0x3e7250e0	0.23663664
72	0x3f7ca876	0.9869455
73	0xbe883d6b	-0.26609358
74	0x3dc90d75	0.0981702
75	0xbf59757e	-0.84944904
76	0xbf91f1f7	-1.1401967
77	0xbfa6a747	-1.3019799
78	0xbf52e3b4	-0.823787
79	0x3f3e03e6	0.742247
80	0xbf6220c5	-0.8833125
81	0x3fa5d75b	1.2956346
82	0x3f2664fc	0.6499784
83	0x3e9575db	0.2919148
84	0x3f32ae37	0.6979708
85	0x3d556013	0.052093577
86	0xbfb16224	-1.3858075
87	0x3fa24d45	1.2679831
88	0xbfc3029a	-1.5235169
89	0x3f8a17e9	1.0788547
90	0xbf807f76	-1.0038898
91	0xbe9c2df6	-0.30503815
92	0xbfae89ed	-1.3635842
93	0xbe7a0969	-0.24417652
94	0x3e889c1f	0.2668161
95	0xbf3ec932	-0.7452575
96	0x3ee2cbd3	0.4429613
97	0xbf111245	-0.566685
98	0x3d312380	0.043246746
99	0xbf2e5976	-0.68105257
100	0x3ebf34ed	0.37345067
101	0xbe5ec660	-0.21755362
102	0x3efcf9bf	0.4940929
103	0x3ea89598	0.3292663
104	0xbd9b3898	-0.07579154
105	0x3d1f261f	0.038854714
106	0xbe308871	-0.17239548
107	0xbf14b2f0	-0.58085537
108	0x3defbaf4	0.1170558
109	0x3ee2437d	0.44192114
110	0xbf0e28e6	-0.55531156
111	0xbe8be8d4	-0.2732607
112	0x3e70075e	0.2344031
113	0x3e74f7cc	0.23922652
114	0x3e86e099	0.2634323
115	0xbe35a12f	-0.17737268
116	0x3dbacb89	0.091208525
117	0xbd29d7d4	-0.041465595
118	0xbed57c63	-0.41696462
119	0xbe92ca6b	-0.28670058
120	0x3d320b27	0.043467667
121	0xbe97b689	-0.2963145
122	0x3e28e880	0.16494942
123	0x3b813732	0.0039433474
124	0x3bc553cb	0.006021952
125	0xbdfe6d44	-0.124231845
126	0x3e3c3937	0.183812
127	0x3e22131f	0.15827607
128	0xbe957eda	-0.29198343
129	0xbfb62b8a	-1.4232037
130	0x3eadd96e	0.33954948
131	0x3e108399	0.141127
132	0x3f5c40ab	0.86036175
133	0x3f83fa31	1.0310727
134	0x3e8ce1ae	0.2751593
135	0x3fa06539	1.2530891
136	0xbf575311	-0.84111124
137	0xbfca4495	-1.580218
138	0xbe8fa8c3	-0.28058442
139	0x3cdba8f4	0.026813962
140	0xbeca2fb1	-0.3948951
141	0x3e321ce6	0.17393836
142	0xbe375334	-0.17902833
143	0x3f84b25f	1.0366935
144	0x3fac53ad	1.3463036
145	0xbf2d01c1	-0.675808
146	0xbfc83e92	-1.5644095
147	0xbf831930	-1.0242062
148	0x3ef091b2	0.46986157
149	0xbed60496	-0.41800374
150	0x3ea18493	0.3154646
151	0x3f9ef219	1.2417632
152	0xbfab1380	-1.3365326
153	0xbfedef4c	-1.8588653
154	0x3e7dc941	0.24783804
155	0x3f06686d	0.5250309
156	0x3f92415c	1.1426196
157	0x3f5c364a	0.8602034
158	0x3f41cf9b	0.75707406
159	0xbeb83f7c	-0.35985935
160	0xbf96c5b1	-1.1779081
161	0x3f6e687f	0.931282
162	0x3f91ecf1	1.1400434
163	0x3f4581a0	0.7715092
164	0x3f2fab27	0.6862053
165	0x3f533f57	0.82518524
166	0xbf11b9fc	-0.56924415
167	0x3f8b4548	1.0880518
168	0xbea30f68	-0.31847692
169	0x3f945a2f	1.1590022
170	0xbf6a3f86	-0.9150318
171	0xbf0b4f4c	-0.5441787
172	0xbf6b0e02	-0.9181825
173	0x3e82cb32	0.2554565
174	0xbe9c78b8	-0.3056085
175	0x3f16dd58	0.58931494
176	0xbd1a52b0	-0.037676513
177	0x3e59d37e	0.21272084
178	0x3f063d69	0.52437454
179	0xbd42394d	-0.047417928
180	0xbec716cb	-0.38884577
181	0xbdd487d1	-0.103774674
182	0x3cd0228a	0.025407095
183	0xbe0eb7f4	-0.1393736
184	0x3e4c8e27	0.19976102
185	0x3e3c68b5	0.18399318
186	0x3e8fa34d	0.28054276
187	0xbd7f4091	-0.062317435
188	0xbed013f0	-0.4064021
189	0x3d8ece36	0.06972925
190	0x3e41f470	0.18940902
191	0x3e8b23fe	0.27175897
192	0xbf27492b	-0.6534602
193	0xbf78f19c	-0.97243667
194	0x3f851e85	1.0399939
195	0x3eca8701	0.39556125
196	0x3f75a57d	0.9595564
197	0x3d563609	0.052297626
198	0xbdc73e0d	-0.09728632
199	0x3f869a4c	1.0515838
200	0xbf8d974a	-1.1061795
201	0x3e2abcc8	0.16673577
202	0xbf73f1d1	-0.9529086
203	0xbf4f6393	-0.81011313
204	0xbf8e03ec	-1.1094947
205	0xbeddeee7	-0.4334633
206	0xbf691f32	-0.91063225
207	0x3ed99e44	0.4250356
208	0xbe1288d8	-0.14310014
209	0xbe452276	-0.19251427
210	0x3f4dbaf6	0.80363405
211	0x3f2b1416	0.66827524
212	0x3e23d2d0	0.15998387
213	0x3ef38f69	0.4757035
214	0x3ea0f742	0.31438643
215	0xbe47f778	-0.19527996
216	0xbe23da89	-0.16001333
217	0x3eb854b7	0.36002132
218	0xbf123ce2	-0.5712415
219	0xbe0cfcf1	-0.13768364
220	0xbe8957b2	-0.2682472
221	0xbdcbbdfd	-0.09948347
222	0xbe44f88f	-0.19235443
223	0x3ec89482	0.39175802
224	0xbf30411e	-0.6884936
225	0xbf380e7f	-0.7189712
226	0x3faccecd	1.350061
227	0x3f022763	0.5084135
228	0x3f43f417	0.76544327
229	0x3f1ea8a5	0.6197608
230	0x3da648be	0.08119343
231	0xbf808edd	-1.0043598
232	0x3f912c30	1.134161
233	0xbf32d7ee	-0.6986073
234	0xbd679342	-0.05653692
235	0xbe98a7e2	-0.29815584
236	0xbee9f95e	-0.45698065
237	0xbf4994bc	-0.78742576
238	0xbf651885	-0.8949054
239	0x3fbdc12b	1.4824575
240	0xbfc7d747	-1.5612572
241	0x3ea4c202	0.32179266
242	0x3f385d4f	0.7201738
243	0x3f84f3fe	1.038696
244	0x3f4801a8	0.7812753
245	0x3fb79da1	1.434498
246	0x3e3b1086	0.18268022
247	0xbf539cab	-0.8266093
248	0x3f855915	1.0417811
249	0x3fc73007	1.5561532
250	0xbeeb8667	-0.46000978
251	0xbe5a400a	-0.21313491
252	0x3ea5a452	0.3235193
253	0x3faf80e6	1.3711212
254	0xbed50e1d	-0.4161233
255	0x3f398001	0.72460943

model.gnn_layers.0.feature_transform.layer_real.lin1.bias f4 [16]
0	0x3f5893dc	0.84600616
1	0x3f469c25	0.7758201
2	0x3e976c83	0.29574975
3	0x3e94a4fd	0.29032126
4	0xbe18d921	-0.14926578
5	0x3da1c3ea	0.07898696
6	0x3ebce390	0.36892366
7	0xbeb8d9c2	-0.36103636
8	0x3f9af563	1.2106136
9	0x3e2eee47	0.17083083
10	0x3eb91a7f	0.36153027
11	0xbe939f8e	-0.28832668
12	0x3f7a023c	0.9765966
13	0x3f1d01d5	0.6133092
14	0x3f05367e	0.52036273
15	0xbe09eb4e	-0.13468668

model.post_mp.mlp.1.weight f4 [5, 16]
0	0xbd49183d	-0.04909538
1	0x3f9a7405	1.2066656
2	0xbff22ba4	-1.8919568
3	0x3fb3b703	1.4040226
4	0xc0098866	-2.14895
5	0xbf07cddf	-0.5304851
6	0x3f2cc0d6	0.67481744
7	0x3db59ba1	0.088675745
8	0xbf667f06	-0.9003757
9	0xbfd35203	-1.6509403
10	0x3f7da8ba	0.9908558
11	0x3f5b2ed7	0.85618347
12	0x3f68da6b	0.9095828
13	0xbee97219	-0.45594862
14	0xbf819d8f	-1.0126208
15	0xbfb6b936	-1.4275272
16	0xbf91dd09	-1.139558
17	0xbf6c906c	-0.9240787
18	0x3f5dc0ca	0.866223
19	0x3f959e61	1.1688958
20	0x3fa2d85d	1.2722279
21	0xbf9f14f5	-1.242827
22	0x3dcb9770	0.09940994
23	0xbf554810	-0.83313084
24	0xbf9796aa	-1.1842854
25	0xbe8853f0	-0.2662654
26	0xbe29f2d2	-0.16596535
27	0x3eb64d7f	0.35606
28	0xbf5afa8c	-0.85538554
29	0x3ef7dd02	0.48410803
30	0xbfb6ddc8	-1.4286432
31	0x3fc13274	1.5093522
32	0xbea37bef	-0.3193049
33	0x3fa087ef	1.2541484
34	0x3ca90bd3	0.020635521
35	0xbea32c1a	-0.31869584
36	0x3fa319f9	1.2742301
37	0xbf193baa	-0.59856665
38	0x3e34828b	0.17627923
39	0x3f65d07b	0.8977124
40	0x3fbe8881	1.4885408
41	0x3fc600b6	1.5468967
42	0x3f7d9886	0.9906086
43	0xbf12e480	-0.57379913
44	0xbf63dbca	-0.89007246
45	0xbec06546	-0.37577266
46	0x3f22eda2	0.6364385
47	0xbf61d13f	-0.8820991
48	0x3f5878e9	0.84559494
49	0xbf4f4a61	-0.8097287
50	0xbe8c9e91	-0.27464727
51	0x3edc8467	0.43069765
52	0xbeda37e5	-0.4262077
53	0xbf4ff951	-0.812398
54	0xbeca9cd6	-0.3957278
55	0xbf7f9810	-0.99841404
56	0xbe7dc3f5	-0.24781783
57	0xc00a2d81	-2.1590273
58	0x3f280e94	0.65647244
59	0xbf02281b	-0.50842446
60	0xbf02dd8d	-0.5111931
61	0x3e0eace3	0.13933139
62	0x3f5685aa	0.83797705
63	0xbee46dce	-0.44615024
64	0x3eecc4e2	0.4624396
65	0xbf167e81	-0.5878678
66	0x3f81c1e4	1.0137296
67	0xbf973891	-1.1814138
68	0x3fab0be4	1.3363004
69	0x3fd589e0	1.6682701
70	0x3e9fc3a6	0.31203955
71	0x3f638fbb	0.8889119
72	0x3e9ed5ac	0.31022394
73	0xbf2ca1cc	-0.6743438
74	0xbf81ec5a	-1.0150254
75	0x3f10b0ee	0.56519973
76	0x3f6c7726	0.92369306
77	0x3ea5aafb	0.3235701
78	0x3f99c2ea	1.2012608
79	0x3cfc63fe	0.030809399

model.post_mp.mlp.1.bias f4 [5]
0	0xbe27531d	-0.16340299
1	0x3d81d199	0.06338806
2	0xbd806d80	-0.062708855
3	0x3ea49401	0.32144168
4	0xbde7c950	-0.11317694

exp_avg f4 [16, 5]
0	0xbb29e78d	-0.0025925369
1	0x3b2540ea	0.0025215694
2	0xbb4cb989	-0.0031238517
3	0xbb6f8981	-0.0036550465
4	0xba986ec9	-0.0011629696
5	0xb8d51c43	-0.000101618956
6	0xbb9ac8ea	-0.004723658
7	0xbb083cef	-0.0020788272
8	0xbba3ab72	-0.004994803
9	0xbbc810f0	-0.0061055347
10	0xbb3ed8e2	-0.0029120971
11	0xba0134b0	-0.00049288105
12	0x3b08266c	0.0020774854
13	0x3a33e48d	0.0006862365
14	0x3648ced5	2.9922714e-06
15	0x3a7f6a41	0.0009743311
16	0xbb2ca08a	-0.0026340806
17	0x392325b3	0.00015558935
18	0xba8a8b53	-0.0010570086
19	0xbb2b4b04	-0.0026137242
20	0xbaf08db3	-0.0018352777
21	0xb7e0e30b	-2.6808606e-05
22	0x3a6b31e2	0.00089719717
23	0x3aeb508c	0.0017953082
24	0x3a1f0738	0.00060664443
25	0x3aa2d15d	0.0012422014
26	0xbb2d4c41	-0.0026443156
27	0x38b6d436	8.717964e-05
28	0xb9dfa884	-0.00042659428
29	0xbb643521	-0.0034821706
30	0x388ce889	6.719033e-05
31	0x39538081	0.000201704
32	0x393dab0f	0.00018088169
33	0x3a168abf	0.00057427207
34	0x3af3bdac	0.0018595955
35	0xba098616	-0.00052461156
36	0x3ac7347f	0.001519814
37	0xbaacc137	-0.0013180141
38	0x3a2729cc	0.00063767727
39	0xbad0758a	-0.001590417
40	0xbb17178d	-0.002305481
41	0xbb7750cf	-0.0037737375
42	0x3b4d23c4	0.0031301836
43	0xba0c56cc	-0.000535351
44	0x3ab7ddd9	0.0014027908
45	0xbb71e099	-0.0036907552
46	0xbbcc86ad	-0.0062416405
47	0xb9e7dcb6	-0.00044224196
48	0xbbc62cd8	-0.0060478263
49	0xbbca27dd	-0.006169303
50	0xb99153e1	-0.0002771905
51	0x3b038da3	0.0020073436
52	0xb96336d4	-0.00021668832
53	0xb8fc4cd3	-0.00012030606
54	0x3b62cb48	0.0034606028
55	0x3a339e44	0.00068518915
56	0xb9864d97	-0.0002561628
57	0xba5f51be	-0.00085189554
58	0xba1b3f89	-0.0005922248
59	0xb96ed214	-0.00022775709
60	0x3b35f072	0.0027761725
61	0xbad1032b	-0.0015946379
62	0xbaad053b	-0.0013200411
63	0xba667811	-0.0008791695
64	0x3b1d0c41	0.0023963603
65	0x3a3a9cdc	0.0007118711
66	0xbb5397d1	-0.0032286535
67	0xbb01c09c	-0.0019798642
68	0xbacb3987	-0.0015504815
69	0xbabc13a0	-0.001434911
70	0xbab0f9ac	-0.0013502142
71	0x39995ed7	0.00029253095
72	0xbbae98be	-0.005328267
73	0xbbb4148a	-0.0054956125
74	0xbbb48275	-0.0055087158
75	0xbad112ab	-0.0015950998
76	0xbbfe43f7	-0.007759567
77	0xb935d64b	-0.00017341335
78	0xb949e267	-0.00019253195
79	0xb93b5f6b	-0.00017869256

exp_avg_sq f4 [16, 5]
0	0x38890958	6.5344095e-05
1	0x389e6696	7.553135e-05
2	0x3889cb12	6.570494e-05
3	0x388dd56a	6.7631554e-05
4	0x388c838b	6.700222e-05
5	0x391fcdc4	0.00015240075
6	0x3920f0d3	0.00015348503
7	0x3911edc2	0.0001391685
8	0x392816b4	0.00016030186
9	0x3930b816	0.00016853245
10	0x37f0e196	2.8715276e-05
11	0x37da8c9a	2.6053098e-05
12	0x37f778c3	2.9500929e-05
13	0x37e93710	2.7801405e-05
14	0x37e46c10	2.7230039e-05
15	0x379f7b03	1.9011559e-05
16	0x3791f397	1.7398777e-05
17	0x378cecf7	1.6799646e-05
18	0x37872eac	1.6114987e-05
19	0x37b812b1	2.1943213e-05
20	0x376f73fe	1.4272517e-05
21	0x37405694	1.146425e-05
22	0x37443e0a	1.1696955e-05
23	0x37807950	1.531528e-05
24	0x3748406f	1.1935931e-05
25	0x37c6fe1b	2.3721766e-05
26	0x37cb0578	2.4202032e-05
27	0x37bb72ba	2.234556e-05
28	0x37b4bf61	2.154679e-05
29	0x37fe1d9a	3.0292944e-05
30	0x36442af6	2.9231282e-06
31	0x364f2860	3.0868905e-06
32	0x3650a3d4	3.1089776e-06
33	0x364c2f93	3.042606e-06
34	0x36d298bf	6.2762697e-06
35	0x37942467	1.7659926e-05
36	0x37a46ba5	1.960045e-05
37	0x379b5d41	1.8520865e-05
38	0x37a16d46	1.924358e-05
39	0x37b38d71	2.1404327e-05
40	0x393210a9	0.00016981609
41	0x3932ca48	0.00017050758
42	0x393bc26d	0.00017906139
43	0x392234c0	0.00015469175
44	0x392bcf15	0.00016384975
45	0x37f6db08	2.942748e-05
46	0x38056f12	3.1813113e-05
47	0x3820bd4d	3.8323273e-05
48	0x37fff328	3.0511597e-05
49	0x38142347	3.5318804e-05
50	0x38fe4e6c	0.00012126271
51	0x38f3cce4	0.00011625307
52	0x39068f4b	0.00012832617
53	0x39053c71	0.00012706385
54	0x39225d31	0.0001548424
55	0x375655bd	1.27753565e-05
56	0x37310757	1.0551731e-05
57	0x373ed284	1.1373897e-05
58	0x3739fa35	1.1085115e-05
59	0x37337029	1.0695346e-05
60	0x39292973	0.00016132537
61	0x38eaeff7	0.000112026864
62	0x38f597e0	0.00011710799
63	0x38e66cc9	0.000109875175
64	0x3916cb55	0.00014380862
65	0x38157395	3.5632012e-05
66	0x380b5b09	3.3224966e-05
67	0x38033df9	3.129055e-05
68	0x38001266	3.0534713e-05
69	0x380487d6	3.159776e-05
70	0x389b8ecf	7.417576e-05
71	0x38953996	7.1156e-05
72	0x388eff79	6.818673e-05
73	0x388e12aa	6.774564e-05
74	0x388ffc6b	6.865788e-05
75	0x382a9074	4.066569e-05
76	0x383cf36a	4.504939e-05
77	0x38291d19	4.031984e-05
78	0x381b174f	3.6976588e-05
79	0x3827d723	4.0016264e-05

exp_avg f4 [16]
0	0xbb2eabe4	-0.0026652748
1	0xbb2cf6c6	-0.0026392206
2	0x39d53841	0.00040668438
3	0xbaf33966	-0.0018556535
4	0xba56e146	-0.00081970205
5	0xbb5201b8	-0.0032044481
6	0x3a818498	0.0009881435
7	0xbac0b0ce	-0.0014701129
8	0x3bd843ba	0.0065998705
9	0xbac6a677	-0.0015155812
10	0x3ac4e217	0.0015020993
11	0xbac1ae87	-0.0014776745
12	0xbb2cac61	-0.0026347863
13	0xbb17947d	-0.0023129277
14	0xbbf9e6c1	-0.007626385
15	0xbac0c552	-0.0014707244

exp_avg_sq f4 [16]
0	0x38011417	3.0774707e-05
1	0x38a8adcd	8.043237e-05
2	0x3766a6ff	1.374795e-05
3	0x37914195	1.7315886e-05
4	0x371c0058	9.298405e-06
5	0x37a21b02	1.9324481e-05
6	0x3662251b	3.3698223e-06
7	0x372e2ca1	1.0381599e-05
8	0x381c3e03	3.725105e-05
9	0x3742d9ad	1.1613983e-05
10	0x381ccf14	3.7386155e-05
11	0x370d0e1b	8.407539e-06
12	0x385cc1d1	5.2632593e-05
13	0x37c28dc4	2.3192617e-05
14	0x3823ff54	3.910002e-05
15	0x37a979a0	2.0203006e-05

exp_avg f4 [3, 20]
0	0x3c8300d8	0.015991613
1	0xbb9ef576	-0.0048510386
2	0x3b095c61	0.0020959603
3	0x3b88c330	0.004173659
4	0xbb15844f	-0.0022814458
5	0x3ac1e141	0.0014791862
6	0x3a49cbd0	0.0007697912
7	0xba88f670	-0.0010449421
8	0x3a520e22	0.000801297
9	0xb8d6c143	-0.00010240313
10	0xb9bc6aee	-0.00035937823
11	0x3a57cb26	0.00082318706
12	0x3a72e3b5	0.00092654984
13	0x3b04d29f	0.0020267142
14	0x3aafaa15	0.0013402129
15	0xba16115b	-0.0005724632
16	0x38d81360	0.000103032915
17	0x3aaab582	0.0013024064
18	0x3a80d3dd	0.0009828765
19	0x3982bb1f	0.00024934948
20	0x3bf57f38	0.0074919723
21	0x3c78cd86	0.015185719
22	0xb9f01105	-0.00045789048
23	0xbb770a71	-0.0037695433
24	0x3acc8446	0.0015603385
25	0xbad16033	-0.0015974104
26	0xba58669c	-0.0008255036
27	0x3a2f52fe	0.0006688087
28	0xba640912	-0.00086988613
29	0xb91ba827	-0.00014844594
30	0x38ba7146	8.89027e-05
31	0xba198983	-0.00058569777
32	0x39044387	0.00012613657
33	0x3952a5b6	0.00020088893
34	0xb8bf67e3	-9.12694e-05
35	0x38911da6	6.919661e-05
36	0xba14ed21	-0.0005681087
37	0xbab0a04c	-0.0013475507
38	0xba519702	-0.0007995219
39	0xb80d0dce	-3.3629876e-05
40	0x3c73c15b	0.0148776425
41	0xbbead00e	-0.0071659153
42	0x3a644ea8	0.00087092305
43	0x3b6ec346	0.003643231
44	0xbb286a91	-0.0025698284
45	0x3abf135a	0.0014577911
46	0x3a3caf17	0.0007197721
47	0xba90d471	-0.0011049641
48	0x3a495ef8	0.0007681693
49	0xb90ca4d4	-0.00013412844
50	0xb9cbd305	-0.000388764
51	0x3a3118f5	0.0006755733
52	0x3a6ac994	0.0008956429
53	0x3b14ba1a	0.0022693933
54	0x3a9e9193	0.0012097828
55	0xba8f3bf8	-0.0010927906
56	0xb9768c15	-0.00023512573
57	0x3a98b6eb	0.0011651193
58	0x3a8608f3	0.0010226056
59	0x39ba5c6f	0.00035545553

exp_avg_sq f4 [3, 20]
0	0x3b1fa0dc	0.0024357354
1	0x3a290ad3	0.00064484513
2	0x38013c58	3.0812196e-05
3	0x37afa7fa	2.0939846e-05
4	0x37087759	8.1340195e-06
5	0x36bc23ac	5.6069894e-06
6	0x3700a851	7.668584e-06
7	0x3637c783	2.7385256e-06
8	0x36bd6160	5.643975e-06
9	0x3682ae24	3.8945745e-06
10	0x36c6704f	5.9139343e-06
11	0x36a47d82	4.902192e-06
12	0x3671c1b8	3.6024558e-06
13	0x369dd9cf	4.704321e-06
14	0x3691efb3	4.3492414e-06
15	0x362d3c02	2.5813938e-06
16	0x35adaf1b	1.2940467e-06
17	0x3581e388	9.677469e-07
18	0x34ffc665	4.7641802e-07
19	0x33228bcf	3.784572e-08
20	0x3af5993c	0.0018737684
21	0x39f51af6	0.0004675013
22	0x377cc922	1.50672e-05
23	0x3783dd90	1.571959e-05
24	0x36b0bd33	5.2672344e-06
25	0x35cad008	1.5110718e-06
26	0x3684bd81	3.9559677e-06
27	0x35822a28	9.698024e-07
28	0x3634d31e	2.6944977e-06
29	0x35c1d9e7	1.4443038e-06
30	0x35f76b1c	1.8434107e-06
31	0x36612ca7	3.3553604e-06
32	0x35fcb967	1.8829422e-06
33	0x35f128ac	1.7967736e-06
34	0x35efee9b	1.7876331e-06
35	0x36366fe2	2.7185238e-06
36	0x35c50a15	1.4680578e-06
37	0x35947d68	1.1063357e-06
38	0x34cd7822	3.8271634e-07
39	0x3330d262	4.1169535e-08
40	0x3b004991	0.00195751
41	0x3a1342a5	0.0005617536
42	0x385483df	5.0667553e-05
43	0x37b65b74	2.1738677e-05
44	0x3724a689	9.813936e-06
45	0x37163498	8.952942e-06
46	0x371b84db	9.269653e-06
47	0x3616a003	2.244488e-06
48	0x36a18bc1	4.8144434e-06
49	0x367f3791	3.8030305e-06
50	0x368f1b33	4.2648985e-06
51	0x36bd9e72	5.6510844e-06
52	0x36bcaf79	5.6232643e-06
53	0x36b4f3b1	5.3927874e-06
54	0x3704ea90	7.922426e-06
55	0x36aef4d2	5.214105e-06
56	0x35fb4b29	1.8722832e-06
57	0x358bb722	1.0409606e-06
58	0x351d390d	5.857008e-07
59	0x334d8c4a	4.7857874e-08

exp_avg f4 [16, 3]
0	0x3a9dc4a3	0.0012036752
1	0xbabd0901	-0.0014422239
2	0x3ad6ce6d	0.0016388424
3	0xbad58302	-0.0016289654
4	0x3a4e09be	0.0007859728
5	0xba10672a	-0.00055085367
6	0xb948026a	-0.00019074386
7	0xb81cbe6b	-3.737064e-05
8	0xba886a0e	-0.0010407583
9	0xba5dc5e6	-0.000845997
10	0x3a203114	0.0006110829
11	0xba29c5b7	-0.00064763
12	0xba46b34d	-0.00075798185
13	0x3a0ac328	0.0005293363
14	0xba816fc2	-0.0009875225
15	0x3ab0c22c	0.0013485602
16	0xba89628b	-0.0010481639
17	0x3acf01da	0.0015793398
18	0xb9b58049	-0.0003461859
19	0x39873477	0.00025788296
20	0xbabaca5d	-0.0014250983
21	0xb83a1f86	-4.4375214e-05
22	0x3759b699	1.2976722e-05
23	0xb7e78421	-2.7598873e-05
24	0xbb0b7afd	-0.0021283024
25	0x3a9e3842	0.001207121
26	0xbaac7c45	-0.0013159594
27	0xba5a4fbd	-0.0008327922
28	0x3a3cc533	0.0007201016
29	0xbaa2c2c3	-0.0012417663
30	0xb7221658	-9.661155e-06
31	0xba84f017	-0.0010142353
32	0x3b0124c6	0.0019705757
33	0xb7953032	-1.7784627e-05
34	0xb7d606a2	-2.5513877e-05
35	0xb8131830	-3.5070057e-05
36	0xba372000	-0.00069856644
37	0x3a514fdb	0.00079846167
38	0xba88eeb6	-0.0010447118
39	0xb81e52b4	-3.774716e-05
40	0x37f32264	2.8983872e-05
41	0x3a580f83	0.00082420575
42	0xba7cdab6	-0.00096456276
43	0x39462eed	0.00018900233
44	0xb8a24fa8	-7.739599e-05
45	0x3a47d799	0.0007623374
46	0xbad468b5	-0.0016205522
47	0x3aff9e12	0.0019502065

exp_avg_sq f4 [16, 3]
0	0x36225fcf	2.419565e-06
1	0x35c363db	1.4557694e-06
2	0x3715cd30	8.928866e-06
3	0x374e226d	1.2286572e-05
4	0x3795d41e	1.7860959e-05
5	0x37fb0370	2.9923132e-05
6	0x341c3c3d	1.4550547e-07
7	0x34100181	1.3411592e-07
8	0x3444fe91	1.8346533e-07
9	0x35af65c3	1.3068133e-06
10	0x3580bd98	9.591922e-07
11	0x36247654	2.450678e-06
12	0x354c8a17	7.619687e-07
13	0x35201319	5.9632436e-07
14	0x35a49b47	1.2264144e-06
15	0x35b9f5d8	1.3855124e-06
16	0x358e8d34	1.062092e-06
17	0x3659d00d	3.2456621e-06
18	0x35e9a34b	1.7407377e-06
19	0x36246eb5	2.4502344e-06
20	0x36b92615	5.517863e-06
21	0x34083192	1.268402e-07
22	0x341146c1	1.3529917e-07
23	0x350f39df	5.3355865e-07
24	0x3638c8ba	2.7534975e-06
25	0x362120ac	2.4009887e-06
26	0x369f8fd0	4.7553112e-06
27	0x349c4c20	2.9112653e-07
28	0x34873152	2.5181595e-07
29	0x35252209	6.151682e-07
30	0x36cdfd84	6.138989e-06
31	0x37152fdc	8.892235e-06
32	0x37bc58b1	2.2452647e-05
33	0x33c72860	9.274004e-08
34	0x33d46e90	9.8921305e-08
35	0x34a1efe9	3.0163145e-07
36	0x36a5a6ea	4.9368145e-06
37	0x364ee7a3	3.0831222e-06
38	0x37654b50	1.3666999e-05
39	0x359cc18e	1.1679238e-06
40	0x35913f11	1.0821697e-06
41	0x36a72e63	4.982388e-06
42	0x37569b5d	1.2791567e-05
43	0x3724b091	9.816272e-06
44	0x37d6afc8	2.5592642e-05
45	0x3608c650	2.0381012e-06
46	0x35ac2413	1.2825498e-06
47	0x362b7738	2.555038e-06

exp_avg f4 [16]
0	0xb94d1fdf	-0.00019562196
1	0xbbf8736b	-0.0075821183
2	0xb9c6d711	-0.0003792574
3	0xb9da5fe7	-0.00041651653
4	0xbaf63459	-0.0018783911
5	0x39d1373d	0.00039904742
6	0x3a888a46	0.0010417185
7	0xb9148be8	-0.00014166499
8	0xbc11200f	-0.008857741
9	0xba107454	-0.00055104983
10	0xbc39a213	-0.011330145
11	0xb9bad582	-0.0003563576
12	0x3ab82c05	0.0014051205
13	0xbb306298	-0.0026914235
14	0xbc2de18e	-0.010612858
15	0xbbcfabf4	-0.006337637

exp_avg_sq f4 [16]
0	0x3727b3cc	9.995838e-06
1	0x3926b423	0.000158981
2	0x35765b2d	9.177482e-07
3	0x3627ce41	2.5004995e-06
4	0x377fe099	1.5251478e-05
5	0x35a46d05	1.2250681e-06
6	0x3825ca3a	3.9527404e-05
7	0x34c9a255	3.755728e-07
8	0x3904c59e	0.00012662119
9	0x34577d2f	2.0068977e-07
10	0x39796f08	0.00023787853
11	0x352897e1	6.280589e-07
12	0x3894cec6	7.0957045e-05
13	0x375247a7	1.2533658e-05
14	0x39a3db9e	0.0003125341
15	0x37d85db8	2.5792848e-05

exp_avg f4 [16, 16]
0	0x39b0e146	0.00033737178
1	0x3920fed5	0.00015353721
2	0xb9a04a78	-0.00030573062
3	0xba0b0a83	-0.00053039956
4	0xb9e4b266	-0.00043620466
5	0xba4656da	-0.00075660425
6	0xb9dd86a8	-0.00042252732
7	0x39c451ab	0.0003744488
8	0xb96f5a0a	-0.00022826358
9	0xb86cb3a4	-5.6434088e-05
10	0x39db6b62	0.00041850941
11	0x3940001c	0.00018310588
12	0xb935c353	-0.00017334269
13	0xb9cf605a	-0.00039553904
14	0x3a1292a8	0.00055913115
15	0xba049bf3	-0.00050586386
16	0xba233d2e	-0.0006227073
17	0x39a530b1	0.0003150753
18	0x3a04718c	0.000505232
19	0x3a9ddfcd	0.0012044847
20	0x3a3ac3fa	0.00071245397
21	0x3ac3085e	0.0014879813
22	0x39a5f30b	0.00031652334
23	0xb60a9f0f	-2.0656187e-06
24	0xb942598d	-0.00018534642
25	0x39fabf8b	0.00047826426
26	0xba92ee0e	-0.0011209862
27	0xb97b6681	-0.00023975411
28	0xb8809293	-6.130817e-05
29	0x3a626408	0.00086361216
30	0xb9ae6365	-0.0003326192
31	0x39b15104	0.00033820432
32	0xb9f5da69	-0.0004689277
33	0xb75a369c	-1.3006527e-05
34	0x39a95e9f	0.0003230469
35	0x3a33bea2	0.00068567146
36	0x39e53e52	0.00043724716
37	0x3a6ac180	0.00089552253
38	0xb5319496	-6.615386e-07
39	0x39482e63	0.00019090767
40	0xb9825023	-0.0002485524
41	0xb7c569e1	-2.3533534e-05
42	0xba1a7097	-0.0005891411
43	0x381fe079	3.811761e-05
44	0x3842b26e	4.641938e-05
45	0x39bc0e7f	0.00035868955
46	0xb8a6d593	-7.955278e-05
47	0x39b49380	0.0003444217
48	0x398cbf83	0.00026845568
49	0x39753b41	0.00023387095
50	0xb9da92da	-0.00041689613
51	0xb95c9fc5	-0.00021040354
52	0xba13a828	-0.0005632662
53	0xb9f4a670	-0.00046663312
54	0x37dfee9b	2.669478e-05
55	0xba2338d6	-0.0006226426
56	0x39b279cc	0.0003404155
57	0x391abfa4	0.00014757976
58	0x3a08f834	0.00052249734
59	0x39a88be1	0.00032147675
60	0x39d2fe2c	0.00040243694
61	0x38d266e7	0.000100327474
62	0x399e5446	0.00030198897
63	0xb9d1756e	-0.00039951078
64	0xba26ee26	-0.00063678843
65	0xb8a031fc	-7.638705e-05
66	0x398dec77	0.00027069796
67	0x3a6b8b51	0.00089852983
68	0x3a2a6c40	0.0006501116
69	0x3aaef079	0.0013346813
70	0x39586e34	0.00020640419
71	0x390b694a	0.00013295296
72	0xb9d73eb2	-0.00041054707
73	0xb8d66a30	-0.00010224094
74	0xba44aec6	-0.000750285
75	0x38c37c4e	9.321478e-05
76	0x39b9c561	0.00035433008
77	0x3a4b642e	0.00077587634
78	0xb892c548	-6.998569e-05
79	0x39db5b07	0.00041838756
80	0x3a079897	0.0005172579
81	0xb9ddbfc4	-0.0004229528
82	0xb9f421b8	-0.0004656443
83	0xba095a16	-0.0005239559
84	0xba316ea0	-0.00067684986
85	0xba591a2b	-0.00082817924
86	0x39842c87	0.00025210177
87	0xba66f0fd	-0.0008809714
88	0x3a125023	0.00055813993
89	0xba095760	-0.0005239155
90	0x3a6a4f38	0.0008938196
91	0x3a025a01	0.0004972518
92	0x3a2519d5	0.00062981
93	0xb9922e56	-0.00027881813
94	0x38adf889	8.295576e-05
95	0xb81612b8	-3.578022e-05
96	0xb6bccd76	-5.6267554e-06
97	0x37b14d9f	2.113619e-05
98	0x3731fc05	1.06087e-05
99	0x3893844c	7.0341484e-05
100	0xb8406dc7	-4.5878605e-05
101	0x37b7cee8	2.1911648e-05
102	0xb853801f	-5.0425642e-05
103	0xb6556d01	-3.1802922e-06
104	0xb7108119	-8.613127e-06
105	0xb7874303	-1.6124459e-05
106	0xb7606056	-1.337387e-05
107	0x38aee0e6	8.338857e-05
108	0x37199c94	9.155967e-06
109	0xb733cff4	-1.0717649e-05
110	0x38a8384f	8.0213526e-05
111	0xb712d476	-8.751746e-06
112	0x35cd08a5	1.5276206e-06
113	0xb8117461	-3.467908e-05
114	0x378bcfaf	1.6666801e-05
115	0x365ea4ed	3.3176577e-06
116	0x37c51fcb	2.3499035e-05
117	0x3754aeae	1.26768555e-05
118	0x37a1d6e2	1.9292758e-05
119	0x3747a2b0	1.1899203e-05
120	0xb6be2073	-5.666219e-06
121	0xb7f97c3c	-2.9740964e-05
122	0xb78dece7	-1.6918826e-05
123	0xb73f9308	-1.14187205e-05
124	0xb730af14	-1.0531181e-05
125	0xb73d8cf6	-1.1298098e-05
126	0xb7e8e464	-2.7762908e-05
127	0x37f322c6	2.898405e-05
128	0x39a0702d	0.00030601156
129	0x3a4a8ec2	0.0007726961
130	0xb9a846f0	-0.0003209631
131	0xb98daa49	-0.00027020488
132	0xba4ff6bb	-0.0007933189
133	0xba4c1d2c	-0.00077863294
134	0xb9bb58a1	-0.00035733453
135	0xba13a318	-0.0005631908
136	0x3a09d0bc	0.0005257239
137	0x3a44ef50	0.0007512467
138	0x3a125f4a	0.0005583657
139	0x39235f00	0.00015580282
140	0xb67e0b28	-3.7855443e-06
141	0xb8f5c7aa	-0.00011719701
142	0x39eb7a4a	0.00044913805
143	0xba31a813	-0.0006777059
144	0x3820a823	3.8303562e-05
145	0x3a2df210	0.00066354964
146	0x3987a509	0.00025872167
147	0x3a1ef2ea	0.00060634187
148	0x38430979	4.6500445e-05
149	0x39d05361	0.00039734974
150	0x39da870c	0.00041680818
151	0xba283d1e	-0.00064177986
152	0x3a085e9d	0.0005202087
153	0x3a77eec3	0.00094578805
154	0xba0e9ba4	-0.00054400624
155	0xb9df59cf	-0.00042600787
156	0xb9a52654	-0.0003149981
157	0x39f052d3	0.00045838076
158	0xb9d3e811	-0.0004041796
159	0xb9467bb5	-0.00018928836
160	0x3a07e1b7	0.00051834754
161	0xba0b303a	-0.00053096155
162	0xb9961383	-0.00028624767
163	0xb9e6528b	-0.00043930518
164	0xb8dfb2d2	-0.000106667765
165	0xb9e97c4f	-0.0004453384
166	0x3a04d811	0.0005067597
167	0xb93f5c4f	-0.00018249567
168	0xb63125fd	-2.6397167e-06
169	0xba125236	-0.00055817084
170	0x3990b045	0.0002759715
171	0x3804238e	3.1504365e-05
172	0x3932c2be	0.0001704795
173	0xb8f5fbc7	-0.000117294076
174	0xb9156b6b	-0.00014249764
175	0xb7863c7a	-1.6002206e-05
176	0xb6719641	-3.5999258e-06
177	0xb8188c75	-3.6370435e-05
178	0x37b20208	2.12202e-05
179	0x363cc1da	2.812702e-06
180	0x388bf27a	6.673201e-05
181	0x38480dff	4.769675e-05
182	0x388eba3a	6.805775e-05
183	0x37923ccb	1.7432865e-05
184	0xb77b2aad	-1.4970702e-05
185	0xb75309cb	-1.257886e-05
186	0xb8393895	-4.4160133e-05
187	0xb86c659b	-5.6361412e-05
188	0xb790baef	-1.7253185e-05
189	0x37e4501b	2.721702e-05
190	0xb883dd9b	-6.287844e-05
191	0x37dcbb4e	2.6313264e-05
192	0x3904da77	0.00012669885
193	0x395f3f9b	0.00021290632
194	0xb982f267	-0.00024976136
195	0xb808493f	-3.2493142e-05
196	0xb9bed3d6	-0.00036397454
197	0xb95c3491	-0.00021000417
198	0xb8965471	-7.168286e-05
199	0xb9a4be8e	-0.00031422492
200	0x3908e198	0.00013054011
201	0x38d55801	0.000101730235
202	0x398aa338	0.0002644302
203	0x3991d53d	0.0002781543
204	0x398143f5	0.0002465543
205	0x38cb1852	9.684324e-05
206	0x39a51024	0.00031483278
207	0xb99b1c4d	-0.0002958499
208	0x37aed9d7	2.0843856e-05
209	0x392f7a7a	0.00016734927
210	0xb8e0d8c3	-0.00010721527
211	0xb82b24c2	-4.080381e-05
212	0xb98df11e	-0.00027073262
213	0xb957284d	-0.00020519011
214	0xb98c692f	-0.0002678125
215	0xb87cdadf	-6.028532e-05
216	0x385a798a	5.2088442e-05
217	0x3891a937	6.9456575e-05
218	0x394d8723	0.00019600666
219	0x39618ddf	0.00021510523
220	0x38942818	7.064658e-05
221	0xb8c38e77	-9.324861e-05
222	0x398e141c	0.00027099333
223	0xb91e190b	-0.00015077383
224	0x39c59cf1	0.00037691699
225	0xba578ac4	-0.0008222277
226	0x38290156	4.0293984e-05
227	0x38bc4b0b	8.9785164e-05
228	0x3af970eb	0.0019030845
229	0x3ab894a0	0.001408238
230	0x3b08df19	0.002088493
231	0x3ab1723b	0.0013538072
232	0xbad61328	-0.0016332613
233	0xba10306d	-0.000550038
234	0xbae13055	-0.0017180542
235	0xbabd659d	-0.0014449839
236	0xba21e219	-0.0006175354
237	0x3aac6180	0.0013151616
238	0xba84dbcc	-0.0010136305
239	0xb9270aca	-0.0001593038
240	0x39c5e1fc	0.0003774314
241	0xba8bee50	-0.0010675881
242	0x396d0281	0.00022603014
243	0xb9af4054	-0.0003342653
244	0x39aa6391	0.0003249911
245	0xb9aba2af	-0.0003273687
246	0xb9a6de92	-0.00031827815
247	0x3ad4ab8d	0.0016225443
248	0xba96ec3c	-0.0011514495
249	0xbab9e5e3	-0.0014182891
250	0xb9b13e71	-0.00033806593
251	0x39153f95	0.00014233433
252	0xba3c1cd9	-0.00071759295
253	0xba81e015	-0.0009908701
254	0x3976778b	0.00023504921
255	0x39ce811c	0.00039387576

exp_avg_sq f4 [16, 16]
0	0x33fba550	1.17181685e-07
1	0x353fcc43	7.1450285e-07
2	0x3470fd36	2.244386e-07
3	0x34fbfa07	4.6934312e-07
4	0x3549eec8	7.522581e-07
5	0x35502ce9	7.755139e-07
6	0x356dc431	8.8574876e-07
7	0x354197c0	7.211893e-07
8	0x34daf1d6	4.0781623e-07
9	0x33e67c04	1.0732768e-07
10	0x3593c522	1.1009727e-06
11	0x354299cf	7.249445e-07
12	0x34913729	2.704849e-07
13	0x34938b12	2.748207e-07
14	0x35c12ed0	1.4393245e-06
15	0x349acd85	2.883427e-07
16	0x3622dcb9	2.4268359e-06
17	0x376be13a	1.4059531e-05
18	0x35a35e0e	1.217182e-06
19	0x36529bf4	3.1383215e-06
20	0x35b8a554	1.3757185e-06
21	0x358d7d23	1.0541738e-06
22	0x36b74c48	5.4627053e-06
23	0x37141b4f	8.827846e-06
24	0x35f63aec	1.8345577e-06
25	0x36eedfe0	7.119015e-06
26	0x35a2194c	1.2077303e-06
27	0x36a85fbc	5.017935e-06
28	0x3653a2b1	3.153615e-06
29	0x36c764a0	5.9423764e-06
30	0x36c0fd07	5.751502e-06
31	0x36d1ef13	6.2565173e-06
32	0x346c6e21	2.2019277e-07
33	0x35290c05	6.2974897e-07
34	0x34c6e538	3.7047153e-07
35	0x34951ba2	2.7773518e-07
36	0x355ee82b	8.3039293e-07
37	0x355ecbbf	8.2997934e-07
38	0x345b6023	2.0430939e-07
39	0x34b4872d	3.3625966e-07
40	0x342eb162	1.6269544e-07
41	0x34d93322	4.0456604e-07
42	0x3526d503	6.214979e-07
43	0x3437030b	1.704431e-07
44	0x337c06ff	5.8679685e-08
45	0x338f8ea3	6.684902e-08
46	0x351512f8	5.553443e-07
47	0x357e19c7	9.4659885e-07
48	0x348b3982	2.593261e-07
49	0x357a91f1	9.334463e-07
50	0x35005cbf	4.781868e-07
51	0x34b1bcb8	3.310613e-07
52	0x357a8680	9.332798e-07
53	0x355b47e4	8.168847e-07
54	0x348f45c2	2.668658e-07
55	0x35971dfa	1.1259101e-06
56	0x34cffd30	3.8740973e-07
57	0x34770316	2.300479e-07
58	0x35a7ec10	1.2511173e-06
59	0x34c09fc4	3.5879032e-07
60	0x3524bdea	6.137112e-07
61	0x33ac5d02	8.026292e-08
62	0x358f872f	1.0693674e-06
63	0x355652b8	7.9841584e-07
64	0x3603206d	1.9539395e-06
65	0x368ddc17	4.2277493e-06
66	0x360ad2b4	2.0686248e-06
67	0x3611824a	2.1682522e-06
68	0x3775b3ac	1.4644971e-05
69	0x36ebfa69	7.0326973e-06
70	0x37a73400	1.9932166e-05
71	0x3612c661	2.1871167e-06
72	0x36473118	2.9681887e-06
73	0x361b9564	2.3183757e-06
74	0x3701b7e9	7.731819e-06
75	0x3778ec60	1.4836987e-05
76	0x3543f4fa	7.299965e-07
77	0x370e0add	8.466389e-06
78	0x374c2937	1.2168944e-05
79	0x36b784da	5.469291e-06
80	0x353d89a9	7.060831e-07
81	0x35c1447f	1.4399556e-06
82	0x3542ad6d	7.2523e-07
83	0x3539fcfc	6.928601e-07
84	0x355c21fe	8.200585e-07
85	0x35637d4a	8.474641e-07
86	0x35332be4	6.6746566e-07
87	0x35cdcea5	1.5333832e-06
88	0x34ecf7be	4.4138682e-07
89	0x352f5245	6.53123e-07
90	0x35b88b68	1.3749641e-06
91	0x34f8e6ae	4.636144e-07
92	0x355b651b	8.1730985e-07
93	0x34c11c30	3.596956e-07
94	0x35779b2c	9.2240475e-07
95	0x3595f279	1.1171934e-06
96	0x329079fe	1.6819282e-08
97	0x33a1c53b	7.533023e-08
98	0x32cefef2	2.4097492e-08
99	0x32958097	1.7404359e-08
100	0x344495d6	1.8308432e-07
101	0x3382b8c9	6.087209e-08
102	0x34f76888	4.6083392e-07
103	0x32b1abdf	2.068367e-08
104	0x33959753	6.965879e-08
105	0x31a80029	4.8894617e-09
106	0x340fba66	1.3385724e-07
107	0x3488db41	2.5491502e-07
108	0x32d903c1	2.5263832e-08
109	0x3411c5d6	1.357615e-07
110	0x34894e25	2.5575096e-07
111	0x33472421	4.6366157e-08
112	0x31b458ac	5.2487703e-09
113	0x32b2bb76	2.0807175e-08
114	0x31e32df9	6.611796e-09
115	0x319515a8	4.3389328e-09
116	0x32ecf29b	2.758434e-08
117	0x32820b6e	1.513919e-08
118	0x32f9205d	2.9002132e-08
119	0x32829cd1	1.5205304e-08
120	0x324145ff	1.1249994e-08
121	0x31cc1b2d	5.940271e-09
122	0x331145e4	3.382401e-08
123	0x32f9b782	2.9070865e-08
124	0x31aee882	5.0904996e-09
125	0x3221b19a	9.411815e-09
126	0x332dac59	4.043645e-08
127	0x324f6517	1.2071971e-08
128	0x35104981	5.375114e-07
129	0x35a0ac81	1.1971134e-06
130	0x34216325	1.5030362e-07
131	0x34b2959e	3.3263944e-07
132	0x36181033	2.2659194e-06
133	0x35175513	5.637568e-07
134	0x36ae71e3	5.1988623e-06
135	0x355132a5	7.7932265e-07
136	0x35a60a2d	1.2370925e-06
137	0x35442c05	7.3079747e-07
138	0x35ddebd6	1.653442e-06
139	0x36907823	4.30552e-06
140	0x33a20b07	7.545719e-08
141	0x3615ae26	2.2304098e-06
142	0x3656aafb	3.1988009e-06
143	0x34d3b981	3.9436785e-07
144	0x3443fed1	1.8253492e-07
145	0x34ddc047	4.1304358e-07
146	0x34ad849f	3.2320256e-07
147	0x34cf5a75	3.862257e-07
148	0x34de98b0	4.1461817e-07
149	0x34d5e5e3	3.9841606e-07
150	0x349d0c4c	2.9252476e-07
151	0x349f6b35	2.969406e-07
152	0x346b1bbe	2.1896173e-07
153	0x3490b998	2.6957127e-07
154	0x35068c8b	5.0123407e-07
155	0x349089c0	2.6922316e-07
156	0x3407842c	1.2620939e-07
157	0x3406c878	1.2552653e-07
158	0x34ff37ed	4.7538143e-07
159	0x35088a5d	5.0865293e-07
160	0x370fd239	8.5724105e-06
161	0x360755cc	2.0166508e-06
162	0x361a67ad	2.3008135e-06
163	0x3641332f	2.8789034e-06
164	0x36db7e9b	6.5414474e-06
165	0x36004048	1.9110903e-06
166	0x37d58650	2.5454123e-05
167	0x362cf683	2.5773486e-06
168	0x36916608	4.3332147e-06
169	0x3673bf92	3.632133e-06
170	0x37001ebb	7.6365495e-06
171	0x37aabdb9	2.0353926e-05
172	0x35bcba6b	1.4061346e-06
173	0x374ab8dd	1.208318e-05
174	0x3783e50c	1.5723075e-05
175	0x3683aa10	3.923902e-06
176	0x317eef6d	3.7097962e-09
177	0x328920b0	1.5963764e-08
178	0x30c52862	1.4345114e-09
179	0x30a987b3	1.2334936e-09
180	0x33226320	3.7808718e-08
181	0x326ff6d0	1.396775e-08
182	0x338e25df	6.619279e-08
183	0x31bd668f	5.5122835e-09
184	0x326269d5	1.3178995e-08
185	0x31124ca1	2.1289355e-09
186	0x330dd0cb	3.3019017e-08
187	0x33723436	5.63925e-08
188	0x31701990	3.4939127e-09
189	0x32d03433	2.4238124e-08
190	0x3381c7bd	6.043363e-08
191	0x31ccdf9f	5.962604e-09
192	0x35033c6b	4.888922e-07
193	0x3562ed39	8.4536765e-07
194	0x350a771f	5.158235e-07
195	0x34cb317e	3.7847707e-07
196	0x34b26de9	3.3235054e-07
197	0x34780fcd	2.3102548e-07
198	0x355e963a	8.2920053e-07
199	0x3592bee7	1.0933408e-06
200	0x3427f326	1.5641544e-07
201	0x3497161e	2.8142034e-07
202	0x3510ed34	5.3989356e-07
203	0x355d4aa7	8.243755e-07
204	0x358ce206	1.0496594e-06
205	0x356dc087	8.8569544e-07
206	0x35970090	1.125054e-06
207	0x35aa4988	1.2687387e-06
208	0x3411746f	1.3546536e-07
209	0x35231182	6.074771e-07
210	0x330d0665	3.2834937e-08
211	0x3325be8e	3.8590365e-08
212	0x355939ff	8.0923195e-07
213	0x34755c1c	2.2850912e-07
214	0x36059e66	1.9910744e-06
215	0x34267f2f	1.5506224e-07
216	0x34ff20d3	4.7521334e-07
217	0x3334f9da	4.2136755e-08
218	0x3589d14b	1.0268208e-06
219	0x35e7a887	1.7259889e-06
220	0x33714312	5.6173185e-08
221	0x352a5eee	6.3468076e-07
222	0x36059866	1.9907252e-06
223	0x3388e133	6.373957e-08
224	0x36697fc0	3.4794066e-06
225	0x36a344c9	4.865786e-06
226	0x3592276f	1.0889324e-06
227	0x35cc5ad6	1.5225621e-06
228	0x37477028	1.1887438e-05
229	0x3651c6af	3.1259076e-06
230	0x380443ca	3.1534386e-05
231	0x35a07a36	1.1956497e-06
232	0x36ca53ef	6.0298403e-06
233	0x360b5041	2.0759328e-06
234	0x372aa086	1.0170164e-05
235	0x37e551bd	2.733699e-05
236	0x3516d9ab	5.6196103e-07
237	0x376e0418	1.4186859e-05
238	0x37bb6c4f	2.2342572e-05
239	0x368c17dd	4.175103e-06
240	0x356b4ecd	8.765899e-07
241	0x35d7da20	1.6082231e-06
242	0x358d3aa1	1.0522382e-06
243	0x358178db	9.646423e-07
244	0x35e65e18	1.716372e-06
245	0x35e823b3	1.7295737e-06
246	0x3556e7d3	8.005856e-07
247	0x35aa81ef	1.2703803e-06
248	0x34f5443e	4.568446e-07
249	0x357005a2	8.9415164e-07
250	0x35eec3dd	1.7789386e-06
251	0x3559fedf	8.1209686e-07
252	0x3501361a	4.8134973e-07
253	0x3507dacd	5.0609816e-07
254	0x35e278d4	1.6873478e-06
255	0x3602b022	1.9474032e-06

exp_avg f4 [16]
0	0xb9b09aff	-0.00033684817
1	0x3a15462b	0.0005694355
2	0x39afb198	0.0003351092
3	0xb998ca24	-0.00029142306
4	0x39f16841	0.00046044777
5	0xb9553032	-0.00020331217
6	0x37708951	1.4337086e-05
7	0x37c48e04	2.3431152e-05
8	0xba1123bf	-0.00055366376
9	0x395c555f	0.00021012638
10	0x390d4866	0.00013473778
11	0x381a9559	3.6855552e-05
12	0xb9305f04	-0.00016820064
13	0xb932ca6b	-0.0001705081
14	0x3aab28d0	0.0013058428
15	0x3a091875	0.00052297796

exp_avg_sq f4 [16]
0	0x3581b65a	9.66432e-07
1	0x36c37029	5.82451e-06
2	0x34f9dfde	4.654275e-07
3	0x3584fd28	9.908445e-07
4	0x3694dd7c	4.436528e-06
5	0x359a1b94	1.148192e-06
6	0x33e138d0	1.0487713e-07
7	0x32c8250d	2.3299913e-08
8	0x356f3334	8.910895e-07
9	0x34ac7ec4	3.212973e-07
10	0x363302d8	2.6674734e-06
11	0x32a2ca31	1.8951228e-08
12	0x354a540b	7.537316e-07
13	0x3541e23d	7.222732e-07
14	0x3694028d	4.4110407e-06
15	0x35c3aabc	1.4578322e-06

exp_avg f4 [5, 16]
0	0xb8f2a2d4	-0.00011569788
1	0xba64767c	-0.00087151653
2	0x3a479e5f	0.00076148467
3	0xba1c4fbd	-0.00059628097
4	0x3ac97bde	0.0015371998
5	0x3a2b9428	0.00065452093
6	0xba7120e4	-0.00091983215
7	0xb5e02ae2	-1.6701781e-06
8	0x3b0c35bb	0.002139433
9	0x3965ecee	0.00021927405
10	0xbb214e58	-0.0024613347
11	0xb7d187f1	-2.4978044e-05
12	0xb91632e9	-0.0001432408
13	0x3a05b5e6	0.00051006523
14	0xbac367a1	-0.0014908203
15	0x3af0d12a	0.0018372883
16	0x3aff4c66	0.0019477725
17	0x3b0477ee	0.0020213085
18	0xb94600b1	-0.00018883009
19	0xb9c60877	-0.0003777181
20	0xb9daf628	-0.000417636
21	0x3a286fe1	0.00064253627
22	0x3aa8c096	0.0012874778
23	0x38baa235	8.8993846e-05
24	0x3b323c57	0.002719661
25	0x3a2d51bc	0.00066116056
26	0xba8eb64c	-0.0010888069
27	0x39067b14	0.00012825086
28	0x3a8b9191	0.001064824
29	0xb9142a75	-0.00014130196
30	0x3a28ffcb	0.00064468075
31	0xbb5571d1	-0.003256906
32	0x39afd26d	0.0003353538
33	0xbabbb418	-0.001432064
34	0x38c6f7b0	9.487511e-05
35	0x39213bad	0.00015376387
36	0xb8f1995c	-0.00011520341
37	0xb6470194	-2.965423e-06
38	0xb90e4088	-0.00013566215
39	0xb8c785fc	-9.514016e-05
40	0xbac45ed0	-0.001498187
41	0xbaf7d9b7	-0.0018909489
42	0xb9314033	-0.00016903951
43	0xb9283009	-0.00016039623
44	0x3a475279	0.0007603537
45	0x3a06ab9b	0.00051372655
46	0xb93639ad	-0.00017378358
47	0xbaae776a	-0.0013310735
48	0xbb0d1728	-0.0021528695
49	0xb9ec55ce	-0.00045077357
50	0xb9b50609	-0.00034527507
51	0xb95750e2	-0.00020534129
52	0xba57792f	-0.0008219657
53	0x3abe1bdc	0.0014504152
54	0xba05da8d	-0.0005106114
55	0xb687b727	-4.0446353e-06
56	0xbb23a8ca	-0.0024972432
57	0x3a46ec23	0.00075882877
58	0x3ab86a6c	0.0014069802
59	0xb814626d	-3.5377616e-05
60	0xb9c385f4	-0.000372931
61	0xba23c2cc	-0.00062469835
62	0x3aaa87b1	0.001301041
63	0x3b31e481	0.0027144256
64	0xb7743cc0	-1.4557678e-05
65	0x3a40298b	0.0007330409
66	0xb9a8f41c	-0.00032225333
67	0x3a866ca9	0.0010255772
68	0xb93f410a	-0.00018239408
69	0xbb33dd2d	-0.0027445063
70	0x39921471	0.0002786252
71	0x3746fde1	1.186083e-05
72	0xba6267d8	-0.000863669
73	0x3983f4af	0.0002516857
74	0x3b178861	0.002312206
75	0x38c1fced	9.250068e-05
76	0xbaab92f9	-0.0013090066
77	0xb9872819	-0.00025779082
78	0xb993624d	-0.00028111265
79	0x381817f2	3.6261925e-05

exp_avg_sq f4 [5, 16]
0	0x368eb744	4.2532647e-06
1	0x38499f9e	4.807079e-05
2	0x350df89d	5.2888373e-07
3	0x35dba240	1.6363992e-06
4	0x35e951a8	1.7383618e-06
5	0x35c18a95	1.4419953e-06
6	0x3615daf7	2.2330184e-06
7	0x3341f9cf	4.5163514e-08
8	0x370c09e8	8.346957e-06
9	0x343c43e5	1.7533564e-07
10	0x37ecdd02	2.8236307e-05
11	0x34945b27	2.763347e-07
12	0x36d093c5	6.2160857e-06
13	0x368a74dd	4.126325e-06
14	0x37024908	7.765608e-06
15	0x3705c67a	7.973629e-06
16	0x37100f5b	8.586644e-06
17	0x37b44190	2.1488202e-05
18	0x348e6af8	2.652739e-07
19	0x358dd6e4	1.056786e-06
20	0x35882074	1.0142235e-06
21	0x3623b3a4	2.4393457e-06
22	0x35e12fb4	1.677769e-06
23	0x34139bd4	1.3747132e-07
24	0x3747e543	1.19147035e-05
25	0x341b6c30	1.4474858e-07
26	0x3772c70a	1.4470666e-05
27	0x341c142f	1.4535975e-07
28	0x36fcd0ad	7.5344783e-06
29	0x36dc10ef	6.5584823e-06
30	0x3770aa49	1.4344762e-05
31	0x37041df5	7.874788e-06
32	0x37096634	8.189632e-06
33	0x37c928c8	2.3980057e-05
34	0x3509bbb4	5.130962e-07
35	0x35507bb4	7.766605e-07
36	0x34beb562	3.552223e-07
37	0x358d634c	1.0534218e-06
38	0x366cffe4	3.5315688e-06
39	0x345976c0	2.0252901e-07
40	0x36fee709	7.596686e-06
41	0x35ed5cfb	1.7684937e-06
42	0x37a81e3a	2.0041236e-05
43	0x34710b28	2.2448933e-07
44	0x36a5c366	4.9401306e-06
45	0x36d9d5fd	6.4920155e-06
46	0x3725e9cc	9.8892015e-06
47	0x360d8df4	2.1093265e-06
48	0x3750a831	1.2436926e-05
49	0x388ff488	6.864319e-05
50	0x350e8ded	5.310565e-07
51	0x35b54d20	1.3507997e-06
52	0x35dcdb65	1.645513e-06
53	0x35e87e97	1.732219e-06
54	0x367e068d	3.7852762e-06
55	0x3488cb66	2.5479966e-07
56	0x3788b73e	1.6297792e-05
57	0x3483418d	2.4448346e-07
58	0x37f0047b	2.8612316e-05
59	0x34ba4863	3.4697868e-07
60	0x36b4619c	5.3757813e-06
61	0x370a6509	8.248965e-06
62	0x37473f02	1.18759945e-05
63	0x3724aa65	9.814835e-06
64	0x377c633f	1.5043478e-05
65	0x37a84400	2.0058826e-05
66	0x3362391e	5.2671673e-08
67	0x3658ef7c	3.2325906e-06
68	0x348ca75b	2.61988e-07
69	0x3708a680	8.144998e-06
70	0x35a1e29d	1.2061388e-06
71	0x34266ac2	1.5498793e-07
72	0x365e6981	3.314199e-06
73	0x33ee3a34	1.1093326e-07
74	0x385ba8bf	5.2370826e-05
75	0x348ad437	2.585891e-07
76	0x371179ea	8.671059e-06
77	0x372e6dc2	1.0396763e-05
78	0x36848176	3.948978e-06
79	0x35883e6e	1.0150959e-06

exp_avg f4 [5]
0	0x3943d7fc	0.0001867711
1	0xb9ea24c5	-0.00044659353
2	0x3a80d4f9	0.0009829096
3	0xb9627734	-0.00021597446
4	0xba04ef94	-0.00050711003

exp_avg_sq f4 [5]
0	0x374a19ca	1.2046143e-05
1	0x37beb91f	2.2735969e-05
2	0x36913507	4.32751e-06
3	0x37129576	8.737077e-06
4	0x37124660	8.718664e-06
