tests/results/over-squashing-spec/2025-05-06/14-36-31-619127-over-squashing-spec/11/ckpt/331.ckpt (torch, 237202 bytes, 31 tensors)

model.encoder.node_encoder.encoder.weight f4 [16, 5]
000000 3c c6 88 bf f3 3c 57 3e cf 1d 8d 3f 55 10 08 bf
       -1.0685496 0.21019344 1.1024722 -0.5314992
000010 09 06 c4 3e e4 3e ef be 8c 0c af 3d 68 79 54 bf
       0.38285854 -0.4672767 0.08547315 -0.8299775
000020 be b2 f5 3e a5 d6 98 3e 6f b3 6a bf e4 1e dc be
       0.47987932 0.2985126 -0.91680044 -0.42992318
000030 9c 62 55 bf cc 6f 21 3e 5d 0c 54 3f f2 d0 ea be
       -0.8335359 0.15765303 0.82831365 -0.45862538
000040 f7 28 ac bf df d8 12 3f e8 90 ad 3f 76 4d 6a 3e
       -1.3450001 0.5736217 1.3559847 0.22881112
000050 47 da 3f 3f 44 3d 20 3f fe a8 8c 3f 50 be 0b bf
       0.7494244 0.62593484 1.0989072 -0.5458727
000060 0c 53 4e 3f a8 bb e1 be 4d 19 45 3e b1 71 94 be
       0.8059547 -0.44088483 0.19247933 -0.2899299
000070 86 8f 69 bf 39 ef 68 3f 8e 1f 40 3f 94 ff 1c bf
       -0.91234624 0.90990025 0.7504815 -0.6132748
000080 08 da 45 bf 86 c4 28 bf 6f f0 87 3f 9f 99 9b bf
       -0.77285814 -0.6592487 1.062025 -1.2156256
000090 32 22 84 3f a1 42 90 bf 3e 81 01 3f 07 43 45 bf
       1.0322936 -1.1270334 0.5058783 -0.770554
0000a0 c5 e7 7b bf e6 3b eb 3e 67 0e 0a bc 18 9c 65 be
       -0.9840053 0.45944136 -0.008426285 -0.22422826
0000b0 bb 93 46 bf 29 0c e9 bd 53 b5 13 3d 61 a2 02 bf
       -0.7756917 -0.113792725 0.036061596 -0.5102902
0000c0 9b f1 f0 3e b1 1a 92 bf 83 e9 20 bf 62 74 70 3f
       0.4705933 -1.1414396 -0.6285631 0.93927586
0000d0 b8 c4 d3 be cd e1 17 3f 68 51 0a be 2b d7 7b 3f
       -0.41361022 0.5932892 -0.13507617 0.98375195
0000e0 61 91 e8 be d5 32 8e 3e 3d 4a 83 3f 42 d9 47 be
       -0.45423415 0.27773157 1.0257031 -0.19516471
0000f0 4d a1 0a 3f f9 d1 62 be 76 03 48 bf e1 67 16 bf
       0.54152375 -0.2215041 -0.7813028 -0.58752257
000100 49 ca a7 3f 8e ca 3d 3f 07 4e 5b bf bd 70 64 3f
       1.3108608 0.741372 -0.85665935 0.89234525
000110 b8 ae dc be 58 f0 04 bf d0 45 3e 3f 3d de 30 bf
       -0.4310205 -0.51929235 0.74325275 -0.6908911
000120 ca 5b 89 3f af 64 66 3d f9 da 22 3f fa c7 19 3e
       1.0731137 0.056248363 0.63615376 0.15017691
000130 41 82 bc 3e eb d6 c8 be d9 c4 b6 3d 79 c3 8c 3f
       0.36818126 -0.3922647 0.089242645 1.0997154

model.encoder.node_encoder.encoder.bias f4 [16]
000000 91 af 13 be 97 cd 99 bf f2 33 e6 bf 9e 88 63 bf
       -0.14422442 -1.2015866 -1.7984602 -0.88880336
000010 67 a8 e8 3f e5 76 9a 3f bf 33 6f 3e 1c 78 8b bf
       1.8176392 1.2067534 0.23359583 -1.089603
000020 e6 66 e6 bf a3 91 a3 bf be 11 01 bf 3a d9 a3 3f
       -1.8000152 -1.277882 -0.504177 1.2800667
000030 15 81 aa bf b9 69 83 3e 99 a5 d0 3f 67 56 fb 3f
       -1.3320643 0.25666597 1.6300536 1.9635743

model.gnn_layers.0.factor_split f4 [16, 2]
000000 00 00 80 3f 00 00 80 3f 00 00 80 3f 00 00 80 3f
       1.0 1.0 1.0 1.0
000010 00 00 80 3f 00 00 80 3f 00 00 80 3f 00 00 80 3f
       1.0 1.0 1.0 1.0
000020 00 00 80 3f 00 00 80 3f 00 00 80 3f 00 00 80 3f
       1.0 1.0 1.0 1.0
000030 00 00 80 3f 00 00 80 3f 00 00 80 3f 00 00 80 3f
       1.0 1.0 1.0 1.0
000040 00 00 80 3f 00 00 80 3f 00 00 80 3f 00 00 80 3f
       1.0 1.0 1.0 1.0
000050 00 00 80 3f 00 00 80 3f 00 00 80 3f 00 00 80 3f
       1.0 1.0 1.0 1.0
000060 00 00 80 3f 00 00 80 3f 00 00 80 3f 00 00 80 3f
       1.0 1.0 1.0 1.0
000070 00 00 80 3f 00 00 80 3f 00 00 80 3f 00 00 80 3f
       1.0 1.0 1.0 1.0

model.gnn_layers.0.filter.filter.distance_expansion.offset f4 [20]
000000 00 00 00 00 a2 bc 86 3f a2 bc 06 40 f3 1a 4a 40
       0.0 1.0526316 2.1052632 3.1578948
000010 a2 bc 86 40 ca 6b a8 40 f3 1a ca 40 1c ca eb 40
       4.2105265 5.263158 6.3157897 7.3684216
000020 a2 bc 06 41 36 94 17 41 ca 6b 28 41 5e 43 39 41
       8.421053 9.473684 10.526316 11.578947
000030 f2 1a 4a 41 86 f2 5a 41 1b ca 6b 41 af a1 7c 41
       12.631578 13.68421 14.736842 15.789474
000040 a2 bc 86 41 6c 28 8f 41 36 94 97 41 00 00 a0 41
       16.842106 17.894737 18.947369 20.0

model.gnn_layers.0.filter.filter.linear.0.weight f4 [3, 20]
000000 e7 19 f3 be 0c 74 76 3f 0c cf af 3f db 60 a3 bf
       -0.474807 0.96270823 1.3735061 -1.2763933
000010 ed eb 1c 3e a6 6d 72 3f a6 11 bd 3d cd 47 9c be
       0.15324374 0.9469856 0.09231882 -0.3052353
000020 05 eb 6c be 45 3a cc 3e 8d cd e2 3d c7 57 a2 be
       -0.23136528 0.39888206 0.11074362 -0.31707594
000030 6c 15 43 3e 6c 28 33 bd 2d fd f9 3c a4 67 ca 3e
       0.1905114 -0.04373972 0.030516231 0.39532197
000040 c7 25 80 be 86 90 da be 9d a0 48 bf ee b9 df be
       -0.25028822 -0.42688388 -0.78370076 -0.4369654
000050 e0 25 14 bf 6a 81 8b 3f bb 5d 79 3f f2 21 98 bf
       -0.5787029 1.0898869 0.97408646 -1.1885359
000060 63 e9 a1 be 42 b9 75 3f 60 44 b9 3e be e7 fd be
       -0.31623372 0.95985806 0.36184978 -0.49590868
000070 7b dd 90 be 5b c1 cc 3e 43 76 e3 3d 2f 08 9f be
       -0.28293976 0.3999127 0.11106541 -0.3106093
000080 3e 81 77 3e fe a3 7b 3e 3d ca 57 be 0a ea 9d 3d
       0.24170396 0.24574277 -0.21073242 0.07710655
000090 38 c3 16 3b ac e3 70 3f 13 a6 73 3f b5 98 9e 3f
       0.0023004543 0.940974 0.95175284 1.2390352
0000a0 bb 16 1f 3f f6 ae a7 bf c5 75 ad bf 5a a7 79 3f
       0.6214406 -1.3100269 -1.3551565 0.97520983
0000b0 98 e4 3a 3e 00 69 ad be bf 6a 44 3e d8 c2 9d 3e
       0.18251264 -0.3386917 0.19181345 0.30812716
0000c0 99 0a 91 3d 3b e7 ba be db 2f cc 3d 99 93 0c 3e
       0.070820995 -0.3650454 0.09970065 0.13728179
0000d0 15 e0 ea 3a d9 92 4c be f7 f7 98 bb 53 ed 0f 3e
       0.0017919565 -0.19977893 -0.0046682316 0.14055376
0000e0 30 82 16 be 11 cb aa bd 33 8a 59 bd 26 11 d9 3e
       -0.146981 -0.08339513 -0.053110313 0.42395896

model.gnn_layers.0.filter.filter.linear.1.weight f4 [16, 3]
000000 e6 fc fe 3f db e8 df 3f b7 39 cd bf 3b 20 9b bd
       1.9920928 1.7492937 -1.6033238 -0.07574507
000010 7b bb 8f 3f ba 5c f1 be f2 00 01 40 6b 85 0c 40
       1.122909 -0.47141057 2.0156827 2.1956432
000020 f0 7d 11 c0 cc 2b 5e bf 40 f2 c3 bf d4 e0 6d 3f
       -2.2733116 -0.8678558 -1.5308304 0.92921185
000030 c1 ef 57 3e 76 1d 28 3f 19 12 87 bf f9 b0 98 bf
       0.21087553 0.65669954 -1.0552398 -1.1929008
000040 31 87 c4 bf b6 a3 a8 3f 65 04 f1 bf 48 99 90 bf
       -1.5353757 1.3174961 -1.8829466 -1.1296778
000050 48 00 07 40 90 2d 59 bf 14 61 9a bf f6 c2 58 3f
       2.1093922 -0.8483515 -1.2060876 0.84672487
000060 68 f8 83 3f 5a d5 89 3f 53 1b a4 bf c8 b6 8d 3f
       1.0310183 1.0768235 -1.2820839 1.1071405
000070 b4 60 32 3f 27 a3 95 bf c0 84 83 bf 8f 4c 83 bf
       0.6967881 -1.1690415 -1.0274887 -1.0257739
000080 3d e5 7f 3f db 1e 96 be 0f 92 5c bf 17 95 8e bd
       0.99959165 -0.29320416 -0.8616037 -0.069620304
000090 3f 19 9a bf 46 d5 a1 bf 0a e3 b7 3f eb f6 bc 3f
       -1.2038954 -1.2643211 1.4366162 1.4762853
0000a0 95 38 b1 3f 2d d3 d5 bf 0c 12 9d bf 71 9b b0 bf
       1.3845392 -1.6705071 -1.2271132 -1.3797437
0000b0 bd 46 46 3f 51 e6 b2 bc c8 fa 06 3f a2 56 25 3e
       0.7745169 -0.021838339 0.5272641 0.16146329

model.gnn_layers.0.filter.filter.linear.1.bias f4 [16]
000000 58 0c 84 bd b7 25 95 3d ea 92 82 bd ae 20 99 3d
       -0.06447667 0.07282584 -0.06375678 0.07476936
000010 eb ac 2d bb 5f bd d8 3d 63 45 35 3d d6 30 28 3d
       -0.0026500772 0.10582995 0.044255625 0.0410622
000020 07 32 a1 bd af 5a 26 bc 26 69 68 3d e5 c1 2b bc
       -0.0787087 -0.010153457 0.056740902 -0.01048324
000030 97 bb cc 3d b2 8b fb bd 90 93 44 3d 1f 1a 0e bd
       0.099967174 -0.12282504 0.04799229 -0.03469288

model.gnn_layers.0.feature_transform.layer_real.lin1.weight f4 [16, 16]
000000 ad 75 90 bf 02 9a 8b bf 47 e9 cf bf e3 0b 92 bf
       -1.1285912 -1.0906374 -1.6243066 -1.1409878
000010 33 62 b4 3f 46 bb 3b 3f 92 b6 30 3f ad 53 9b bf
       1.4092468 0.7333263 0.6902858 -1.2134911
000020 30 c1 b4 bf 31 c5 84 bf 4a 44 94 bf d5 51 d5 3f
       -1.4121456 -1.0372678 -1.158334 1.6665598
000030 35 7c d5 bf 99 0c 94 3f 7d 03 9e 3f d3 6f cf 3f
       -1.667853 1.1566344 1.2344815 1.6206001
000040 4e ff 06 3e b6 70 8f be f4 7a 21 bf 4b 5d fd be
       0.13183329 -0.2801568 -0.63078237 -0.4948524
000050 6d cd f5 3e c0 9c 4a be 85 69 87 3e 73 cb 2a bf
       0.4800829 -0.19786358 0.26447693 -0.6671669
000060 d4 56 40 be 6b 34 c3 be 1e 1b f5 be 49 a9 26 3e
       -0.18783122 -0.3812593 -0.4787225 0.16275515
000070 13 d1 d8 bb 7a 5c 6e 3f 4b ba f5 3d 27 1a fd be
       -0.0066167205 0.9310986 0.11998423 -0.49434015
000080 eb a7 e8 3e c7 0a 98 bc 7d 07 a9 3e 9a 38 bd bf
       0.4544061 -0.018559827 0.33013526 -1.4782898
000090 35 62 53 3e a4 7d 94 3f 7e a6 cd be e3 9c 05 3f
       0.20642932 1.1600842 -0.40166086 0.52192515
0000a0 64 5c 76 3d 2c ea 45 be 41 c4 65 3f b2 f7 ea bd
       0.060146704 -0.1932761 0.89752585 -0.114730254
0000b0 10 52 12 bf 63 c3 f8 bf 41 58 12 be 07 d6 21 3e
       -0.5715647 -1.9434627 -0.14291479 0.15804301
0000c0 a3 df 93 bf ad fa 80 bf 67 fc c4 bf f7 44 cf bf
       -1.1552624 -1.00765 -1.5389527 -1.6192921
0000d0 ac f0 4b 3f 55 d0 9c 3f 56 85 a3 bd be 3e 4f 3f
       0.7966411 1.2251078 -0.07984416 0.8095511
0000e0 37 05 0e bf 34 bb b8 bd 6b 7c 27 3f 4f 7a 63 3e
       -0.5547671 -0.09020081 0.6542422 0.22214626
0000f0 ea 93 9c bf 9f f4 a6 bf bd 46 b1 3c cd 86 a0 3f
       -1.223264 -1.3043402 0.021640176 1.2541138
000100 16 9d 6e 3f 26 aa 02 bf 9b 04 c4 be 97 a2 d1 3e
       0.93208444 -0.51040876 -0.38284764 0.4094436
000110 5b 63 ba bd 49 8f 17 bd 59 07 6e bf 93 0a b2 be
       -0.09100982 -0.03700188 -0.9297996 -0.34773692
000120 82 ac 3d 3e f4 3e 06 3e fd 73 db be 69 ed 32 bd
       0.18522838 0.13109952 -0.4286193 -0.043683443
000130 1a ab 4f bf 56 9f 6e 3f 0c f4 01 3e 02 0e 82 be
       -0.81120455 0.9321188 0.12690753 -0.25401312
000140 39 fe 25 3f d8 55 bb bd 2b 7b 66 3f 75 25 ae bf
       0.6484104 -0.09147233 0.9003169 -1.3605181
000150 01 c7 5b 3f cd f7 b8 3f cb ad a2 3f 0b 27 1c bf
       0.8585053 1.4450623 1.2709287 -0.60997075
000160 13 26 39 bf d6 5d 9b bf ff 06 22 bf 19 38 f0 be
       -0.7232372 -1.2138011 -0.63291925 -0.469178
000170 b5 f7 a3 3f b8 b7 99 bf cb c6 1a 3f a9 e4 a3 3f
       1.2809969 -1.2009192 0.60459584 1.2804157
000180 89 5e 54 bf dd ec 8a bf 2d 64 8b bf 62 58 8a bf
       -0.8295675 -1.0853535 -1.0889946 -1.0808222
000190 73 16 92 3f b0 e1 88 3f 31 c0 a8 3f bc 0a cd bf
       1.1413101 1.0693874 1.3183652 -1.6018901
0001a0 58 ad d5 bf 40 13 d6 bf e8 ab 8b bf f9 12 b0 3f
       -1.6693525 -1.6724625 -1.0911837 1.375579
0001b0 7a 8d 62 3f 6b 93 de 3e f9 d9 c4 3f 45 ba ce 3f
       0.88497126 0.43471846 1.537902 1.6150595
0001c0 01 92 7b 3d 47 22 3e be 85 e6 c4 bd f0 31 a1 3e
       0.061418537 -0.18567763 -0.096142806 0.31483412
0001d0 78 e5 58 be 0c 5f 9c bd 20 71 a0 3e 20 d6 80 3e
       -0.21181285 -0.07635316 0.31336308 0.25163364
0001e0 e6 0d 41 be 9a 2b 76 3e fb e5 5c be b6 b2 06 be
       -0.18852958 0.2404007 -0.21572106 -0.1315411
0001f0 4b eb 4d 3e dc 37 13 3f 1d f1 89 be 62 e4 22 be
       0.20109288 0.5750711 -0.26941767 -0.15907434
000200 ca 16 7b bf 77 09 89 be 99 48 0b bf a7 6e 4a be
       -0.9808165 -0.26765034 -0.5440765 -0.19768773
000210 43 c8 c4 bd 33 ec 2f bf e2 67 29 3e d1 e6 51 be
       -0.096085094 -0.68719786 0.16543534 -0.20498206
000220 5a 42 cd bd b5 8b 60 3e 02 37 06 bf 55 c8 4b 3e
       -0.10022421 0.21928294 -0.52427685 0.1990064
000230 8d df cb be a7 5d 9d 3f bd 6d a3 3e 0a d8 9f be
       -0.39818993 1.2294205 0.3191966 -0.31219512
000240 66 ce 70 3e ec 22 1b 3f 8e 62 37 3f c5 d9 aa bd
       0.23516235 0.6060016 0.7163476 -0.083423175
000250 fb b5 b0 3d 7b 9e 95 3f af 48 c0 3f 03 8a ef 3c
       0.0862846 1.1688989 1.5022181 0.029240614
000260 58 7b e6 be 06 56 f8 be 34 1c 52 bf 59 73 fb bd
       -0.4501598 -0.4850313 -0.82074285 -0.1227786
000270 64 77 65 3f d9 8d 20 bf 94 f8 b1 3d d0 7f ca 3e
       0.896353 -0.6271644 0.08689991 0.39550638
000280 25 57 06 bf 9b 47 88 bf 46 e5 80 bf d2 87 79 bf
       -0.5247672 -1.0646852 -1.0069969 -0.9747287
000290 33 cc 4e 3f 6e 03 20 3f 70 e0 62 3f 3f 06 8d bf
       0.80780333 0.62505233 0.88623714 -1.1017531
0002a0 ea dc 66 bf 9d 31 24 bf 4d ae 83 bf f2 ce 84 3f
       -0.9018084 -0.64138204 -1.0287567 1.0375655
0002b0 75 69 63 bf 9d c7 8a 3f 8c ad 66 3f 92 41 dc 3e
       -0.8883279 1.0842167 0.9010856 0.43018776
0002c0 86 44 86 bf a7 07 80 3e 81 bb 1c be d8 95 bf 3d
       -1.0489662 0.25005838 -0.15305902 0.09354752
0002d0 6d de 32 3e fc c0 e4 be a6 58 14 3e 95 f4 0b 3e
       0.17467661 -0.44678485 0.14486942 0.1366752
0002e0 7e 82 f3 be a7 5d 4e 3e 26 e2 2d be f4 df df 3e
       -0.47560495 0.20152913 -0.169808 0.4372555
0002f0 61 65 dd 3d fc 3e 88 bf 2a 0a 3a 3e dd b6 83 3e
       0.10810352 -1.0644221 0.1816794 0.2572545
000300 0f bb 15 c0 a0 20 c5 3e 82 9a f6 3d 4a d4 c4 3f
       -2.3395422 0.38501453 0.12041189 1.5377285
000310 46 39 54 be 84 8f 12 bf ad 08 f4 be 43 b9 81 3e
       -0.20724973 -0.5725024 -0.4766287 0.25336656
000320 5e ad 4b bf 51 1e 82 3e a1 68 01 3d 66 69 82 3f
       -0.7956141 0.25413755 0.031593923 1.0188415
000330 82 b9 57 bf 5e 98 2e bf 6d f3 fe 3e 54 aa f1 3e
       -0.8426744 -0.68201244 0.49795094 0.47200263
000340 1f d0 a2 bb 41 0d 8f bf e2 1c c7 bf d4 66 a7 bf
       -0.0049686576 -1.117592 -1.5555689 -1.3078256
000350 53 9e 89 3f 5b cf 6a 3f 5e 3f a9 3e 5f 99 bd bf
       1.0751442 0.9172265 0.33056158 -1.481243
000360 e5 52 91 bf 96 09 c5 bf 60 9f a5 bf 14 53 83 3f
       -1.1353422 -1.539355 -1.2939262 1.0259728
000370 96 3a b3 bf 7b 71 ad 3f 08 54 88 3f 9c 21 66 3f
       -1.4002254 1.3550256 1.0650644 0.89895034
000380 c5 ec b3 3f da 24 16 bf 9f cf 02 bf 66 61 d2 bd
       1.4056631 -0.5864998 -0.51098055 -0.102724835
000390 eb 61 78 bd 4b 21 4c 3f f0 e8 c0 bf 45 ef 04 be
       -0.060640257 0.797383 -1.5071087 -0.12981899
0003a0 a3 ca 91 3e c1 21 b5 be 95 f3 6e bf 02 8d 8e be
       0.28474912 -0.35377315 -0.93340427 -0.27841955
0003b0 52 8a 72 bf 16 d5 a6 3f 40 7b c1 bd 8a 07 91 be
       -0.9474231 1.3033779 -0.09447336 -0.28326064
0003c0 db 2e be be 15 54 37 3e fb f5 ed bc 5e 78 4a 3e
       -0.37145123 0.17903168 -0.029047957 0.19772479
0003d0 08 d7 ed 3c 7d fe d0 be 44 5a 29 bf e6 b8 9e bc
       0.029033199 -0.4081916 -0.6615336 -0.019375276
0003e0 a1 53 e6 bd ec 4d b8 3d 81 af 71 3d b7 a2 b5 3d
       -0.1124642 0.089992374 0.059005264 0.08868926
0003f0 00 03 76 be ac e8 89 be 21 bb 3b 3e ef 64 3d be
       -0.24024582 -0.26935327 0.18333103 -0.18495534

model.gnn_layers.0.feature_transform.layer_real.lin1.bias f4 [16]
000000 25 4b 7f 3f 2c cb 99 bd 74 07 62 3e aa 0a 88 3f
       0.99724036 -0.07509455 0.22073156 1.0628254
000010 19 5d e2 bd c8 58 83 3f f7 57 99 3f 3d 8c 8c bd
       -0.11052913 1.0261469 1.197997 -0.06862686
000020 7a c7 e2 3e 5b 4f 81 3d e7 93 23 3f 06 12 00 3e
       0.44292814 0.06313964 0.63897556 0.12506875
000030 0e 87 61 3f 97 09 8b 3f 2a 4c 7e 3e 27 63 62 bd
       0.880967 1.0862302 0.24833742 -0.05527034

model.post_mp.mlp.1.weight f4 [5, 16]
000000 eb 74 a8 3f c2 02 cb 3e 2f 3b b9 bf db 6d 14 be
       1.316068 0.39650542 -1.4471186 -0.14495032
000010 53 c1 21 3e 22 c6 c1 bf e4 03 74 3f ba cd 1d 3f
       0.15796404 -1.513859 0.95318437 0.6164204
000020 7a 74 3c 3f f8 5a 17 bf c7 40 76 bf d6 7e ef 3a
       0.7361523 -0.5912318 -0.9619259 0.0018272053
000030 f5 b2 d6 3d 68 f3 76 bf 53 69 3d bf 94 e9 1a 3e
       0.10483352 -0.9646516 -0.73988837 0.15128165
000040 1a df 06 bf 76 ee 6a be dd 1a 1c 40 1c ac b6 bf
       -0.52684176 -0.22942528 2.4391396 -1.4271274
000050 b5 2f b3 3e 93 59 18 3e 27 68 97 bf 49 3b 3f bf
       0.34997335 0.1487792 -1.182866 -0.74699837
000060 1a d5 db be 9e a6 f7 be 0b 75 83 3f bd ee 86 3c
       -0.4293602 -0.48369306 1.0270094 0.016471261
000070 10 79 a5 3f c9 c9 93 3f 6c 5c 0a be 49 b8 ba 3d
       1.292757 1.1545955 -0.13511819 0.09117181
000080 9a 7b c2 bf bf 7c 0d 3f f6 52 8e bf 3f a8 02 3f
       -1.519397 0.5526847 -1.1119068 0.51037973
000090 91 76 5e bf 2b 10 62 bf 31 eb 96 bf b7 f4 12 3f
       -0.8689967 -0.8830592 -1.1790525 0.57404655
0000a0 e8 66 90 3e 2b 18 35 bf 9b d6 86 bf 2c 3e 2e bf
       0.2820351 -0.7074 -1.0534242 -0.68063617
0000b0 bd ba 2b 3f 2c a1 c8 bf c4 93 a8 3f d8 5b c2 3e
       0.67081815 -1.5674186 1.3170094 0.37960696
0000c0 60 9b 7c 3f 38 6f 3b bf 30 ae 20 bf 53 6a 3e 3f
       0.98674583 -0.7321658 -0.6276579 0.7438099
0000d0 0c 68 4a 3e 63 4e 7b bf 5b 7b 93 bf 78 b4 a7 be
       0.19766253 -0.98166484 -1.152202 -0.32754874
0000e0 d8 11 a3 3e 37 e2 dd 3d 4f 47 dd 3e ea 77 64 3e
       0.3184955 0.10834163 0.43218467 0.22311369
0000f0 05 29 e9 bf 73 93 15 3f ab ce 68 be da e4 a0 bd
       -1.8215643 0.58428115 -0.22735088 -0.0785615
000100 69 ef 5c bf 27 22 96 be 20 e9 26 be 9b 1f 51 3e
       -0.8630281 -0.2932293 -0.16299868 0.20422213
000110 80 2a 86 3e 39 0c a2 3f 8a 03 d6 3f 25 6a 73 3e
       0.262043 1.265998 1.671983 0.2377096
000120 5b 71 20 bf 6e ac 84 3f 23 14 a2 bd bc 5f ac 3e
       -0.62672967 1.0365121 -0.07913997 0.3366679
000130 12 1e eb 3d fe d2 b3 3f 3e 85 ca be b2 5a 9b be
       0.11480345 1.4048765 -0.3955478 -0.30342633

model.post_mp.mlp.1.bias f4 [5]
000000 50 81 09 3e 48 3b ed 3d 9e 25 b9 3d f9 e2 da bd
       0.13428235 0.115835726 0.09040378 -0.10687823
000010 38 31 f1 3d
       0.11776966

exp_avg f4 [16, 5]
000000 c2 c2 2a 3b cf e5 19 3a d9 c2 6e 3a bc e5 80 3b
       0.0026056026 0.0005870731 0.0009108014 0.0039336365
000010 5b 1f 79 3a bb 70 3a 3a c9 3f 27 3a 6e 22 13 3a
       0.00095032685 0.0007112135 0.0006380049 0.00056127354
000020 e0 7d b1 39 11 36 f8 39 d7 5f be 39 bc 98 be 3a
       0.00033853855 0.0004734253 0.0003631103 0.0014541368
000030 3c df 51 39 32 4a 30 39 a5 8e c5 b8 c9 69 6c 3b
       0.00020014954 0.00016812308 -9.4202616e-05 0.0036073795
000040 00 2a a8 3b 6e 71 4c 3b 7d 17 0e 3b a1 84 3e 3b
       0.00513196 0.003119554 0.002168148 0.0029070752
000050 45 ac bb b9 d7 af d8 b9 d4 17 8c b9 3a c4 3e b9
       -0.0003579577 -0.0004132974 -0.00026720634 -0.00018192912
000060 a8 83 ab b9 d6 cd 92 3a f6 c5 1d 39 b1 f8 7b 3a
       -0.00032713753 0.001120026 0.00015046433 0.0009611948
000070 52 29 97 3a c1 fc 8d 38 1e 00 9b 3a 77 71 80 3b
       0.00115327 6.770483e-05 0.0011825596 0.003919776
000080 8e 6c 61 3b 19 36 84 3b 8c ca 7c 3a 28 bd 2b 36
       0.003439698 0.0040347693 0.0009643219 2.559109e-06
000090 5f 87 e1 b9 f6 c9 e6 b8 29 7d 78 b9 46 10 bb 37
       -0.00043016204 -0.00011004873 -0.00023697749 2.2299715e-05
0000a0 5b b3 5d b8 39 f4 98 b9 3e 6d 94 b9 a2 11 b7 38
       -5.2857544e-05 -0.0002917366 -0.00028310152 8.729404e-05
0000b0 df 46 a1 b8 65 0b cf 38 9d 88 ed 38 b6 92 e7 37
       -7.690279e-05 9.8726516e-05 0.00011326487 2.7605663e-05
0000c0 3b 5a 97 b8 4b a9 c1 39 c4 b5 df 3a 04 1e 86 39
       -7.217048e-05 0.00036937962 0.001706772 0.00025580835
0000d0 43 fc af 3a 9c 11 83 39 ae 79 ac 3a 6c 95 2f 39
       0.001342662 0.00024999387 0.0013158822 0.00016744965
0000e0 b7 33 e8 39 25 34 ae 39 87 7b 1d b9 0f 33 89 39
       0.0004428902 0.00033226717 -0.00015018704 0.00026168718
0000f0 f9 f7 1a bb 98 20 04 bb ff 99 0f bb a9 d1 d8 b6
       -0.0023646338 -0.002016103 -0.0021911857 -6.4617093e-06
000100 04 81 25 bb fa d3 6e bb 00 77 38 ba 24 9f 38 bb
       -0.0025253901 -0.0036442266 -0.00070367754 -0.0028171027
000110 b7 46 02 b7 34 91 af ba 2b f1 91 39 6e 03 fe 39
       -7.765068e-06 -0.0013394714 0.0002783624 0.0004844921
000120 93 8b 88 39 63 c4 1b 39 18 b8 7c 39 81 da 27 b7
       0.00026043932 0.00014855112 0.00024101173 -1.000485e-05
000130 1d 69 a4 b8 ea ea 13 39 27 a7 20 b9 05 6c ce b8
       -7.839708e-05 0.00014106525 -0.00015321058 -9.842966e-05

exp_avg_sq f4 [16, 5]
000000 53 07 43 3a 42 23 42 3a df b9 46 3a ef f9 2b 3a
       0.0007439751 0.00074057665 0.00075807975 0.00065603753
000010 ab 77 41 3a 3d 41 1b 38 72 c0 15 38 1d c1 1b 38
       0.00073801976 3.7015638e-05 3.5703597e-05 3.713473e-05
000020 ee 68 17 38 b0 92 15 38 ea ba 61 37 ab 13 87 37
       3.609893e-05 3.566098e-05 1.3454564e-05 1.6102413e-05
000030 08 0a 66 37 66 b4 52 37 9d 3a 62 37 68 01 a9 38
       1.3711404e-05 1.2558978e-05 1.3484297e-05 8.05881e-05
000040 fc 1e be 38 5a b1 ad 38 33 13 cd 38 77 24 a7 38
       9.065677e-05 8.282317e-05 9.778738e-05 7.969973e-05
000050 0a a6 dc 35 3d 8b d1 35 57 56 1f 36 a6 61 f5 35
       1.6439601e-06 1.5612237e-06 2.3743103e-06 1.8282342e-06
000060 9c 77 e3 35 78 e9 b7 39 7f d3 b5 39 e5 88 b6 39
       1.6947629e-06 0.00035078428 0.00034680587 0.0003481574
000070 61 21 ba 39 6c 3c c6 39 dd 60 42 3a 15 d5 3c 3a
       0.00035501554 0.0003781052 0.00074149464 0.00072033826
000080 1b 7b 3b 3a d4 88 3c 3a 0a e5 44 3a 0c cd cc 36
       0.0007151828 0.000719202 0.0007510936 6.1035444e-06
000090 0c 2c b4 36 90 15 d4 36 79 5a b0 36 40 59 c0 36
       5.3695458e-06 6.3206026e-06 5.255741e-06 5.732436e-06
0000a0 4d 02 ab 36 31 fe 8d 36 c7 55 91 36 a5 b6 64 36
       5.096465e-06 4.2317192e-06 4.3313225e-06 3.408096e-06
0000b0 2f df 9b 36 11 8e 57 37 e0 6a 5b 37 f5 6c 5d 37
       4.645342e-06 1.2848076e-05 1.3078301e-05 1.3197995e-05
0000c0 38 26 5a 37 9b 4a 97 37 75 bf 6b 39 6d 90 69 39
       1.3002711e-05 1.8035344e-05 0.0002248267 0.00022274414
0000d0 bc 78 6e 39 d0 56 5c 39 74 00 60 39 02 aa 8a 36
       0.00022742426 0.00021013175 0.00021362473 4.132512e-06
0000e0 9f 64 7a 36 16 66 7a 36 49 39 46 36 81 c4 6b 36
       3.7311472e-06 3.7312325e-06 2.9537644e-06 3.513211e-06
0000f0 5d d6 20 38 9f 3b 20 38 f9 9c 21 38 de 13 d4 37
       3.8346614e-05 3.82025e-05 3.8531583e-05 2.528162e-05
000100 e7 db 31 38 9d 93 b1 3a e2 78 b1 3a 62 d4 ba 3a
       4.240489e-05 0.001354802 0.0013540054 0.0014253969
000110 1b 72 a9 3a 97 70 b2 3a 85 3a 42 36 d7 87 46 36
       0.0012927683 0.0013613877 2.8942316e-06 2.9583368e-06
000120 45 21 b4 36 ad de 30 36 f0 0b 4e 36 1a a7 10 37
       5.368291e-06 2.6355658e-06 3.070334e-06 8.621975e-06
000130 bb 32 12 37 e8 40 11 37 70 89 0f 37 b6 62 1f 37
       8.71409e-06 8.657786e-06 8.555464e-06 9.500121e-06

exp_avg f4 [16]
000000 90 18 82 39 03 91 1f 3a 38 18 ac 3a d9 99 e6 3a
       0.00024813833 0.0006086977 0.0013129776 0.0017593458
000010 b9 3d 21 ba 76 b8 33 b9 fd fa ac 3b 17 d8 53 39
       -0.000615086 -0.00017139487 0.0052789436 0.00020203028
000020 9a be 25 3a 10 3c 1f 3a 90 90 90 3a e7 b9 ee b9
       0.00063226523 0.00060743187 0.0011029411 -0.00045533406
000030 cc 28 2c 39 c3 3f 91 ba ca f1 f0 b9 25 29 29 ba
       0.00016418396 -0.0011081625 -0.00045956514 -0.00064529694

exp_avg_sq f4 [16]
000000 c0 28 f5 39 5b 4d 4b 37 94 52 7f 37 be 4b e9 37
       0.00046760403 1.2117754e-05 1.5218411e-05 2.7811035e-05
000010 dd 0b b7 36 dd f2 ca 38 20 82 7c 39 bb f3 bb 36
       5.455206e-06 9.6773474e-05 0.00024081068 5.6014082e-06
000020 cb 82 e9 36 56 25 05 37 ca 30 93 38 75 1b a6 36
       6.9591674e-06 7.936111e-06 7.018594e-05 4.950382e-06
000030 66 df 61 37 24 42 e1 39 19 bd 1f 37 32 14 9f 36
       1.3463059e-05 0.00042964623 9.521166e-06 4.7409203e-06

exp_avg f4 [3, 20]
000000 2b 0f 98 b9 74 1b 9b bb 70 1d fd b9 82 3f 1b 3a
       -0.00029003 -0.0047334973 -0.00048277853 0.0005922244
000010 34 18 20 ba c2 03 24 3a cc c2 74 38 e8 78 72 b9
       -0.0006107122 0.00062566635 5.8355552e-05 -0.0002312396
000020 0c db 9f 39 14 7f 6c b9 9d 99 14 ba 91 ca 60 ba
       0.00030490046 -0.00022554054 -0.0005668642 -0.00085751066
000030 7f 17 41 ba 57 27 bc 38 f4 ac 11 39 1b bb d1 b8
       -0.0007365867 8.971866e-05 0.00013892708 -0.00010000748
000040 d7 3c 87 39 7f fa c6 39 f7 40 26 39 0a a6 bd 37
       0.00025794536 0.00037952137 0.00015855195 2.2607874e-05
000050 fc 12 ee 3b fc 2b 9f ba 33 75 d2 b9 ee 8b ae 39
       0.0072654467 -0.0012143846 -0.00040141642 0.00033292122
000060 4a cb 38 ba 88 ca 00 3a 06 83 8f b8 e3 65 6f b9
       -0.00070493354 0.0004912992 -6.8431764e-05 -0.00022830772
000070 3b f6 a0 39 0f c6 b1 b9 e3 80 45 ba 88 b1 8e ba
       0.00030701034 -0.00033907636 -0.0007534159 -0.0010886649
000080 ab e5 73 ba f0 68 5d b8 65 11 6b 38 27 63 e0 b8
       -0.00093039375 -5.2788237e-05 5.6044566e-05 -0.00010699621
000090 ca d9 79 39 e2 b8 95 39 2c 88 ad 38 fd 34 1b 36
       0.00023827623 0.00028557243 8.274647e-05 2.3127643e-06
0000a0 00 03 59 ba 9d a7 94 3b 2e bd 08 3a 40 e0 23 ba
       -0.000827834 0.0045365826 0.0005216178 -0.00062513724
0000b0 dd 41 1f 3a 73 57 2a ba 9e b8 ac b7 5c 7c 63 39
       0.0006075183 -0.00064980163 -2.0589967e-05 0.00021694734
0000c0 f3 30 af b9 04 51 b8 39 f2 b6 33 3a 99 cf 64 3a
       -0.0003341507 0.00035155576 0.0006855569 0.0008728444
0000d0 7b a9 43 3a 4f c4 68 b8 40 56 be b8 85 6c 0d 39
       0.0007463914 -5.5495937e-05 -9.075971e-05 0.00013487235
0000e0 c2 04 6c b9 6a 95 a2 b9 09 aa ee b8 68 0e 80 b7
       -0.00022508486 -0.0003101037 -0.00011380396 -1.5265497e-05

exp_avg_sq f4 [3, 20]
000000 d0 12 bd 3a 50 d4 dd 39 3c 3c c5 37 a9 80 c1 37
       0.0014425162 0.0004231059 2.3512279e-05 2.3067305e-05
000010 3c d9 3f 37 90 db c6 36 50 03 07 37 75 33 64 36
       1.1435066e-05 5.9264203e-06 8.047398e-06 3.40046e-06
000020 b9 e7 5b 37 8e f8 01 38 8b f6 9d 37 c5 a4 e7 36
       1.3107369e-05 3.098748e-05 1.8830664e-05 6.903518e-06
000030 5b d8 09 37 00 46 9f 36 0e 4e d3 36 50 10 02 37
       8.2162105e-06 4.7467183e-06 6.297377e-06 7.752402e-06
000040 cc 51 a6 36 f6 8f 44 36 9f 56 8c 35 5c 6c b4 33
       4.956708e-06 2.9290072e-06 1.0456023e-06 8.4016136e-08
000050 e0 57 3e 3b 75 b7 41 3a f2 aa 04 38 dc 33 12 38
       0.0029044077 0.0007389703 3.1630458e-05 3.485741e-05
000060 2a 7d 97 37 f8 0e e7 36 1f 4e 4f 37 3f ff 58 36
       1.8058887e-05 6.886079e-06 1.235635e-05 3.233508e-06
000070 f1 73 1f 37 e9 48 a9 37 d2 6d 7e 37 4a 98 0b 37
       9.504133e-06 2.0180321e-05 1.5165149e-05 8.320503e-06
000080 a3 64 11 37 89 45 8e 36 ec 1f be 36 9b ac ca 36
       8.666105e-06 4.2400247e-06 5.6661574e-06 6.040163e-06
000090 66 c6 af 36 8e ac 39 36 d4 2f 70 35 cd a7 cf 33
       5.238503e-06 2.7667588e-06 8.9476566e-07 9.6697114e-08
0000a0 c0 2f f2 3a e2 4a 0c 3a 9e 9b f4 37 04 4b fc 37
       0.0018477365 0.00053517346 2.9159532e-05 3.0075673e-05
0000b0 55 fd 99 37 55 65 b9 36 ab 2a da 36 15 7f d6 36
       1.8356988e-05 5.5252262e-06 6.5018735e-06 6.3924913e-06
0000c0 ea b9 7b 37 dc a7 78 37 2c 60 5c 37 cb 47 0a 37
       1.5004052e-05 1.4821035e-05 1.3135414e-05 8.242157e-06
0000d0 04 93 0e 37 46 b8 f0 36 20 a2 0e 37 42 55 15 37
       8.498089e-06 7.1740096e-06 8.501607e-06 8.900943e-06
0000e0 c3 fb db 36 9f e1 53 36 9c db 7f 35 2d 3b 97 33
       6.5560175e-06 3.157278e-06 9.5314476e-07 7.0422495e-08

exp_avg f4 [16, 3]
000000 4c 7c ea b9 82 8f c1 b9 99 d2 04 3a ee 11 d6 b8
       -0.00044724566 -0.0003691875 0.0005066782 -0.00010207655
000010 a6 dd 07 ba cd 8d 39 39 f1 50 b8 b9 2d 71 c3 b9
       -0.00051828695 0.000176958 -0.0003515552 -0.0003727762
000020 1c 80 d9 39 83 9b ae 39 7d e2 2a 3a 62 2c 8d b9
       0.00041484914 0.00033303731 0.0006518735 -0.00026926683
000030 23 3c 93 b8 84 0e a9 37 6e ac c2 38 69 45 71 39
       -7.0207076e-05 2.015313e-05 9.2827584e-05 0.00023009408
000040 c1 c9 30 39 51 2e 95 b9 8e c8 35 3a 71 24 22 3a
       0.00016859827 -0.00028454003 0.0006934487 0.000618524
000050 1b 11 63 ba 96 df 8c 36 0e f0 c8 36 e4 fc 9f b6
       -0.00086619117 4.198354e-06 5.9884105e-06 -4.7680096e-06
000060 31 a9 7b b7 7e 33 0e b9 3b 90 c3 38 e0 ce cf b8
       -1.5000159e-05 -0.00013561358 9.3251896e-05 -9.909063e-05
000070 1e 90 3a b8 cb 38 ea 38 f6 b9 cf 39 9e 03 a6 39
       -4.4480075e-05 0.00011168568 0.00039620668 0.00031664682
000080 2f 8b e7 b9 92 24 f0 b7 ce 0d 5b b8 f2 50 ac 38
       -0.00044163453 -2.8627259e-05 -5.2226525e-05 8.216676e-05
000090 67 31 f4 39 a0 6d 94 39 2c a2 0c ba e6 53 2e ba
       0.00046576114 0.00028310437 -0.00053647417 -0.0006650075
0000a0 b1 50 06 ba 69 69 3b 3a 32 72 03 39 04 39 0b b9
       -0.00051237183 0.0007149191 0.00012535675 -0.00013277313
0000b0 ed 3c 4a b9 44 6f d0 b6 df 75 9b 34 1d 0a 2f 36
       -0.00019286918 -6.211836e-06 2.8956762e-07 2.6082919e-06

exp_avg_sq f4 [16, 3]
000000 14 71 91 36 0d 2a ea 36 d9 f7 02 37 1f 61 9c 36
       4.3345008e-06 6.978639e-06 7.80631e-06 4.6604687e-06
000010 2e f7 66 36 98 70 60 36 a2 76 d3 34 16 fb ee 34
       3.4416548e-06 3.344414e-06 3.938813e-07 4.4513644e-07
000020 5f f7 01 35 00 41 02 37 37 a1 42 37 1a b6 30 37
       4.841622e-07 7.763738e-06 1.1600837e-05 1.0532816e-05
000030 ad f2 79 36 b4 e0 77 36 41 82 85 36 e1 c4 fe 36
       3.7245147e-06 3.6936663e-06 3.9788724e-06 7.5927096e-06
000040 6c 4b 4c 37 a0 61 4e 37 b2 5d 11 37 02 94 2d 37
       1.2176908e-05 1.2301287e-05 8.664489e-06 1.0346064e-05
000050 da fb 1d 37 91 e0 c2 32 65 87 64 33 cd 30 14 33
       9.416568e-06 2.2686693e-08 5.3208527e-08 3.450332e-08
000060 e9 96 ca 35 b8 ba 96 35 23 2f d2 35 57 f2 22 36
       1.5094093e-06 1.1230213e-06 1.5659938e-06 2.4280941e-06
000070 62 3a 4c 36 2e c0 2d 36 af 52 b2 36 15 37 10 37
       3.0432352e-06 2.5890872e-06 5.314439e-06 8.595894e-06
000080 b2 ef c6 36 4f 57 b5 36 21 4b 9a 36 d1 7a 98 36
       5.928764e-06 5.4043844e-06 4.598304e-06 4.5442507e-06
000090 77 b7 5a 36 f6 42 f5 35 95 c0 4c 36 4d 33 1a 37
       3.2591322e-06 1.8273411e-06 3.0510466e-06 9.19106e-06
0000a0 a2 63 8b 37 e5 28 54 37 e7 ca f9 35 e8 22 20 36
       1.6616486e-05 1.2645706e-05 1.8610998e-06 2.3862176e-06
0000b0 ca bf 19 36 7b 0a 27 35 cc 82 43 35 cc 1d 17 35
       2.2910413e-06 6.22276e-07 7.2833495e-07 5.6295244e-07

exp_avg f4 [16]
000000 3b 31 29 3a b3 46 2a 3b 6e b9 c7 38 9b 69 f9 bb
       0.0006454174 0.0025982081 9.5235984e-05 -0.007611466
000010 e6 36 d3 ba 68 2e c2 39 ee b5 69 ba 83 59 b4 b7
       -0.0016114383 0.0003703714 -0.0008915354 -2.1499354e-05
000020 7b 0d c9 b9 fe c2 69 b9 2c 61 e7 b9 fb 1a 7a ba
       -0.0003834775 -0.00022293252 -0.00044132152 -0.00095407636
000030 ff eb 86 3b de eb c3 b8 49 3b 80 3b 2f 2a 48 b7
       0.0041174884 -9.342258e-05 0.0039133173 -1.1930751e-05

exp_avg_sq f4 [16]
000000 0e 2d 57 38 55 54 2a 39 65 cc 44 37 27 4f db 39
       5.1301955e-05 0.0001624388 1.17301e-05 0.00041829908
000010 a4 5a 3c 38 65 59 11 3a fb de fe 38 14 3c 89 34
       4.490711e-05 0.0005544632 0.00012153197 2.556195e-07
000020 2c 5c 68 38 e9 79 05 38 a3 41 f5 38 8e 55 92 38
       5.5398952e-05 3.182321e-05 0.00011694736 6.977758e-05
000030 69 be 0e 39 d2 66 c9 38 d4 15 90 38 cb 27 e6 36
       0.00013613109 9.603579e-05 6.870521e-05 6.8591667e-06

exp_avg f4 [16, 16]
000000 63 81 1d 38 74 04 d7 38 4c 3c 35 39 f7 08 ae 37
       3.7552218e-05 0.00010252828 0.00017283967 2.0746591e-05
000010 ca 3d 32 b9 2e dd 52 b8 d3 a9 85 b6 83 73 00 39
       -0.00016998421 -5.027389e-05 -3.983479e-06 0.00012250063
000020 c7 dd 3f 39 3b 02 d8 38 60 69 25 38 06 2a 34 b9
       0.00018297798 0.00010300098 3.9437204e-05 -0.00017181793
000030 19 d5 00 39 90 fb 0e b8 7c 17 37 b9 be 2e 2d b9
       0.00012286416 -3.4089724e-05 -0.00017460989 -0.00016515978
000040 ce eb 4e b7 b0 04 b3 38 69 4e 24 39 27 f4 17 38
       -1.2333459e-05 8.536258e-05 0.00015669469 3.622859e-05
000050 58 38 91 b9 1b f9 04 b7 8b 36 03 b7 1c 75 38 39
       -0.00027698535 -7.9258125e-06 -7.820908e-06 0.00017591234
000060 61 cb 2b 39 5d e5 12 39 24 96 ed 36 1d 76 14 b9
       0.00016383595 0.0001400909 7.080629e-06 -0.0001415838
000070 b8 a9 f1 36 48 08 8f b7 85 2e 47 b9 1b 95 15 b9
       7.2021176e-06 -1.7050785e-05 -0.00018995449 -0.00014265293
000080 6b 49 cd b7 4b 0f 3c 3a 77 d5 c9 3a 9b b0 45 3a
       -2.4472092e-05 0.00071739097 0.00153987 0.000754127
000090 b4 e8 10 bb 60 d6 a6 b9 87 5f 8b 39 14 6e 4c 3a
       -0.0022111358 -0.0003182171 0.0002658332 0.00077983853
0000a0 95 72 a7 3a 1f bd 89 3a 09 4d 90 b9 45 e3 95 ba
       0.0012775237 0.0010508633 -0.00027523216 -0.001143553
0000b0 0e d7 22 3a b0 89 78 39 3b d2 a3 ba 11 4a c8 ba
       0.0006211855 0.00023702416 -0.0012498567 -0.0015280863
0000c0 6e 52 9f 37 98 1e e0 38 f3 82 91 39 34 46 5c 39
       1.8992661e-05 0.00010686851 0.0002775412 0.00021006988
0000d0 ec 08 b7 b9 83 c2 5f b8 d7 e8 a0 38 2a 93 26 38
       -0.00034911127 -5.3348496e-05 7.672764e-05 3.971454e-05
0000e0 54 dd 34 39 36 71 0d 39 0c 80 cb b8 9a 71 2c b9
       0.00017248589 0.00013488982 -9.703645e-05 -0.00016445518
0000f0 6d 30 0a 39 c0 f6 ad 38 4f ea 0f b9 13 9a 84 b9
       0.00013178746 8.2952436e-05 -0.0001372483 -0.00025291796
000100 ba a7 a6 b7 8d a3 ed 36 a0 4d 87 b7 a9 88 e6 b5
       -1.9866846e-05 7.08219e-06 -1.6129401e-05 -1.7176109e-06
000110 2a 92 49 38 e2 70 46 b7 6c c6 0b 36 7f 6d 37 b7
       4.805826e-05 -1.1828002e-05 2.082811e-06 -1.0933144e-05
000120 6b ae 19 b8 3f 61 a1 b7 24 81 c7 37 a7 f4 20 38
       -3.6640482e-05 -1.923798e-05 2.3782784e-05 3.8374823e-05
000130 da 99 8d 37 7b 3f e3 b7 aa 1b bd 37 e5 30 30 38
       1.6880153e-05 -2.709007e-05 2.2543438e-05 4.2007207e-05
000140 74 6b 0f b8 20 11 5a b7 01 e3 9f b8 ba db 9d 38
       -3.419393e-05 -1.29978e-05 -7.6239936e-05 7.527271e-05
000150 05 6e 1c 38 48 71 33 b9 98 1e bc b8 0f 21 31 b8
       3.7295762e-05 -0.00017112971 -8.970237e-05 -4.2230877e-05
000160 af 13 12 37 e2 d4 72 38 08 56 d6 37 4d 48 d4 38
       8.706861e-06 5.789556e-05 2.555085e-05 0.00010122415
000170 7d b4 02 b8 40 f9 58 38 74 4c 15 38 5f 04 bd b8
       -3.1162508e-05 5.1730545e-05 3.559557e-05 -9.0130365e-05
000180 e5 07 45 38 a2 71 05 39 42 f2 40 39 cf f9 ce 38
       4.6975812e-05 0.000127262 0.00018400795 9.869376e-05
000190 37 f4 9f b9 63 ad 34 b9 03 39 10 b9 33 9c 74 39
       -0.00030508797 -0.0001723073 -0.00013754149 0.00023327842
0001a0 70 07 a4 39 ac b9 73 39 2a 07 b0 38 0c 78 45 b9
       0.0003128606 0.00023243454 8.3936684e-05 -0.00018832105
0001b0 53 56 c5 37 69 56 6b b7 62 f6 8b b9 ba 03 a6 b9
       2.3524428e-05 -1.402721e-05 -0.00026695715 -0.00031664764
0001c0 16 9f 24 b6 41 94 03 37 41 0c 37 37 4c 46 88 36
       -2.4530505e-06 7.8427265e-06 1.0910503e-05 4.0612995e-06
0001d0 0f 1c a4 b7 58 d7 02 b7 0f 28 75 b6 cb 4e 65 37
       -1.956339e-05 -7.798742e-06 -3.6531162e-06 1.3667809e-05
0001e0 b8 2f 72 37 58 c9 60 37 0d 05 5a 36 5d 9a 16 b7
       1.4435434e-05 1.3398319e-05 3.2487471e-06 -8.976637e-06
0001f0 09 96 50 36 34 32 bc b5 46 56 83 b7 31 95 76 b7
       3.1081747e-06 -1.4021703e-06 -1.5656591e-05 -1.4697479e-05
000200 d9 6d 15 38 6b ce 9a 38 22 a4 06 39 26 c1 8f 37
       3.5626672e-05 7.3817406e-05 0.0001284038 1.713687e-05
000210 25 4f 1b b9 f8 9e df b6 0a 50 b8 b7 98 f7 06 39
       -0.00014811436 -6.6644243e-06 -2.197178e-05 0.00012871472
000220 79 bc 0e 39 85 25 9e 38 81 2c 15 38 78 e8 08 b9
       0.00013612387 7.541016e-05 3.5565816e-05 -0.00013056572
000230 6e 43 3c 38 12 1d 31 b8 85 50 13 b9 b9 fa c6 b8
       4.488549e-05 -4.2227162e-05 -0.00014049008 -9.4880765e-05
000240 5f 82 19 b8 8e 1e 00 b9 8b 05 8e b9 af de 41 b8
       -3.659946e-05 -0.00012218414 -0.0002708848 -4.6222176e-05
000250 2b 16 ae 39 df 9a 1b b8 28 af 67 b8 fa d7 37 b9
       0.00033204383 -3.7099115e-05 -5.523782e-05 -0.00017532698
000260 6f d2 64 b9 2a e0 07 b9 22 c9 c4 37 c3 64 84 39
       -0.00021822167 -0.00012958111 2.345868e-05 0.00025252075
000270 f5 30 f8 b8 14 80 9a 37 31 84 77 39 e3 05 40 39
       -0.000118346805 1.8417872e-05 0.00023605001 0.0001831274
000280 3a 22 cf 37 64 83 b1 38 e8 1f 10 39 dd e7 6c 38
       2.4692261e-05 8.464491e-05 0.00013744796 5.6482724e-05
000290 4a 76 1c b9 54 b0 4b b8 d8 97 a7 b7 92 54 da 38
       -0.00014921385 -4.856319e-05 -1.997866e-05 0.000104108025
0002a0 5f 65 0b 39 fb 15 b3 38 d6 db 18 38 3d 0e e4 b8
       0.00013293837 8.539479e-05 3.6444362e-05 -0.00010874539
0002b0 27 c5 8a 38 81 1d 04 b8 38 d0 04 b9 37 af fc b8
       6.617075e-05 -3.149873e-05 -0.00012666069 -0.00012048933
0002c0 13 02 0a 37 9f 1e 17 b8 22 b3 86 b8 c8 b7 bc b7
       8.225924e-06 -3.6029724e-05 -6.422984e-05 -2.2496926e-05
0002d0 17 2f f1 38 f6 1b fb 36 ff 27 83 36 31 19 93 b8
       0.00011500547 7.483638e-06 3.9087604e-06 -7.0141985e-05
0002e0 99 10 86 b8 43 ed 74 b8 1e 32 4e b6 5e f9 58 38
       -6.3927095e-05 -5.83951e-05 -3.0725564e-06 5.1730654e-05
0002f0 28 25 a4 b5 06 79 de 36 fc 39 9c 38 8d 29 74 38
       -1.2229766e-06 6.6302046e-06 7.44946e-05 5.821283e-05
000300 42 3c 89 39 41 87 b1 b9 bd a0 10 ba 50 1e ea b9
       0.00026175572 -0.00033860843 -0.0005517116 -0.00044654543
000310 b0 79 a8 3a 3c 29 e1 38 d7 8f c1 38 42 ec 3e ba
       0.0012853649 0.000107365166 9.2297494e-05 -0.000728313
000320 01 cd e9 b9 cd 89 25 ba a7 98 2d b7 e3 51 62 39
       -0.00044593963 -0.00063147844 -1.0347146e-05 0.00021583545
000330 a2 a1 94 39 a0 ce 5d 38 c9 b5 24 3a 8d b7 e8 39
       0.00028349186 5.288294e-05 0.00062831916 0.00044387244
000340 32 e3 30 38 0b 77 21 39 90 7d 7e 39 28 62 b8 38
       4.2173262e-05 0.00015398503 0.00024270103 8.792087e-05
000350 34 1e 7f b9 c7 21 bb b8 5b 26 f2 b7 b2 d2 3a 39
       -0.00024329947 -8.9231464e-05 -2.8866509e-05 0.00017816832
000360 32 20 72 39 76 b1 16 39 e8 22 98 38 65 2c 4a b9
       0.00023090912 0.00014371224 7.2544266e-05 -0.0001928076
000370 36 b6 11 39 b1 2c 87 b8 7b 60 69 b9 60 b6 58 b9
       0.00013896156 -6.445626e-05 -0.00022256553 -0.00020667305
000380 7b b6 7b b8 3b 79 9f b9 fd a3 1b ba f7 d3 08 b9
       -6.001301e-05 -0.00030417167 -0.0005937217 -0.00013048934
000390 de 13 80 3a 1a 63 01 39 53 3f 94 38 be d6 19 ba
       0.0009771546 0.00012339317 7.068985e-05 -0.0005868486
0003a0 fe 1b 3f ba 98 a5 0d ba b8 7d 8d b7 07 ae 22 3a
       -0.0007290243 -0.00054033985 -1.6867052e-05 0.00062057417
0003b0 c2 1d f2 b8 4d 1f 47 b7 60 a2 3d 3a e2 29 38 3a
       -0.00011545002 -1.1868612e-05 0.00072339736 0.0007025284
0003c0 9d 8c 19 36 c0 84 85 b7 78 67 ee b7 d6 b3 f8 b6
       2.2880624e-06 -1.5916652e-05 -2.8419992e-05 -7.4119116e-06
0003d0 63 55 4e 38 c6 b1 bb 36 86 9a b3 35 24 72 f5 b7
       4.919375e-05 5.59373e-06 1.3381512e-06 -2.9259427e-05
0003e0 9b 65 02 b8 24 a1 df b7 78 f3 c1 b5 78 24 d6 37
       -3.1089043e-05 -2.6658709e-05 -1.4450479e-06 2.552777e-05
0003f0 75 27 8d b6 3f 35 b2 35 33 9e 0e 38 19 ff fc 37
       -4.206721e-06 1.327753e-06 3.4002773e-05 3.015953e-05

exp_avg_sq f4 [16, 16]
000000 bb 17 94 34 42 84 57 35 e0 8c 8e 35 44 3f ec 34
       2.7584414e-07 8.02862e-07 1.0620824e-06 4.4004457e-07
000010 51 3b ba 35 d2 5c 9a 34 c3 77 62 34 4c d8 6c 35
       1.3875343e-06 2.875227e-07 2.1091459e-07 8.8231604e-07
000020 a3 92 81 35 39 98 77 34 d0 4b 08 35 e9 cf 4a 35
       9.653926e-07 2.3059046e-07 5.077427e-07 7.5553413e-07
000030 2f 42 4a 34 01 09 d3 34 1f c1 a0 35 a4 29 1b 35
       1.8836793e-07 3.9308364e-07 1.1977135e-06 5.7802595e-07
000040 e4 4e 96 32 97 8b 69 34 41 f9 de 34 f6 18 36 34
       1.7498174e-08 2.1750598e-07 4.1532078e-07 1.6959152e-07
000050 c1 2d 04 36 c9 64 47 34 a5 8d c9 33 3a 9f 2e 35
       1.9696165e-06 1.8569985e-07 9.385557e-08 6.5051756e-07
000060 5c f2 45 35 ff 8c 24 35 7c 71 e9 33 e6 95 44 35
       7.37409e-07 6.129994e-07 1.0870551e-07 7.323382e-07
000070 53 26 c3 33 c8 41 09 34 23 37 90 35 ee 18 3b 35
       9.087366e-08 1.278305e-07 1.0744883e-06 6.9699206e-07
000080 6f 82 a7 33 00 7b 22 37 50 8c d3 37 b8 3a 8a 36
       7.800269e-08 9.684591e-06 2.5218498e-05 4.1195563e-06
000090 bc e9 a7 38 b9 e7 40 36 f3 17 30 34 cb 38 e0 37
       8.006717e-05 2.874511e-06 1.639999e-07 2.6729327e-05
0000a0 95 6d 2b 38 e6 f4 c9 37 55 a6 f2 34 9b e2 05 38
       4.0871633e-05 2.4075107e-05 4.5197035e-07 3.1920714e-05
0000b0 5c 1c 99 36 68 61 86 34 8a e8 3d 38 5b 7b 1e 38
       4.563057e-06 2.5030317e-07 4.527768e-05 3.778502e-05
0000c0 b5 59 1f 34 84 fc 9d 34 41 c3 95 34 00 0b 0c 36
       1.4840664e-07 2.9427258e-07 2.789548e-07 2.0868029e-06
0000d0 c2 a6 02 36 b7 69 50 35 69 ed af 33 ee 9d 2c 35
       1.9468575e-06 7.7639874e-07 8.192257e-08 6.430481e-07
0000e0 e5 87 16 35 26 4e 0b 35 06 28 a3 33 3d 87 1f 35
       5.6077107e-07 5.1895256e-07 7.597559e-08 5.9428913e-07
0000f0 61 ef 98 34 3b 16 0c 34 80 6d 6d 35 61 0a 67 35
       2.8486377e-07 1.3046603e-07 8.8448724e-07 8.606931e-07
000100 34 95 e4 34 f7 5e df 35 ad 6f 2c 36 5e ee db 35
       4.257687e-07 1.6642433e-06 2.5695e-06 1.6386145e-06
000110 71 2e 85 37 36 a2 c1 34 2e 7b e6 33 39 e9 95 36
       1.5876461e-05 3.6067075e-07 1.0732616e-07 4.4676967e-06
000120 03 6a d8 36 5f 4c 9e 36 0f f1 20 34 50 7d c3 36
       6.449643e-06 4.7176577e-06 1.4988858e-07 5.826041e-06
000130 56 c9 83 35 bb 5d fb 33 ed 88 14 37 1b d0 d6 36
       9.818857e-07 1.1705148e-07 8.853368e-06 6.4019237e-06
000140 6f a3 d6 33 9e 4f e9 34 33 6c 45 35 a6 e2 94 35
       9.99488e-08 4.345756e-07 7.354567e-07 1.1092823e-06
000150 c7 10 8f 36 c2 1d 31 36 68 85 bd 35 f6 76 8d 35
       4.2636852e-06 2.6392377e-06 1.4120424e-06 1.0539941e-06
000160 67 17 b1 35 3e de ff 35 b8 95 0f 35 62 24 c5 35
       1.3194339e-06 1.9063662e-06 5.348952e-07 1.4688233e-06
000170 6f 06 5e 35 42 a0 c2 34 e5 f0 ff 35 64 43 0f 36
       8.2710807e-07 3.625192e-07 1.906909e-06 2.1347887e-06
000180 16 6b 77 34 f5 3e 10 35 17 07 c4 34 eb da 43 35
       2.3042625e-07 5.3735795e-07 3.6513003e-07 7.296173e-07
000190 0b 28 ee 35 2e df c1 35 92 1b 94 35 d2 b9 86 35
       1.7744036e-06 1.4444574e-06 1.1034883e-06 1.0037859e-06
0001a0 44 e9 ae 35 d1 75 2a 35 06 07 47 35 6e 1c c9 34
       1.30319e-06 6.350138e-07 7.41435e-07 3.7459853e-07
0001b0 d9 e7 59 34 9b a7 15 34 46 ff a8 35 64 f9 c7 35
       2.0294046e-07 1.3937681e-07 1.259127e-06 1.4899238e-06
0001c0 ee 0b 09 31 53 8d c8 32 b1 39 11 33 f7 ba c7 32
       1.9942905e-09 2.3347331e-08 3.3812913e-08 2.325167e-08
0001d0 9f 86 38 34 d7 25 1f 32 eb 40 c8 30 c8 20 5a 33
       1.718531e-07 9.263622e-09 1.4570366e-09 5.0786895e-08
0001e0 9f 56 9e 33 e7 74 5e 33 8d 09 74 31 a7 22 82 33
       7.3732046e-08 5.1794725e-08 3.5512102e-09 6.0599e-08
0001f0 a4 00 33 32 65 f4 c6 30 15 72 d5 33 ea 65 a3 33
       1.0419317e-08 1.4475857e-09 9.939337e-08 7.608817e-08
000200 41 ba 40 34 ae 39 32 36 12 83 aa 36 e6 cd 04 36
       1.7949152e-07 2.655764e-06 5.0816534e-06 1.9789381e-06
000210 a2 a4 e4 37 8d 77 15 35 64 f4 7a 33 aa c6 06 37
       2.7256381e-05 5.5680795e-07 5.8429933e-08 8.0332775e-06
000220 03 01 41 37 b2 25 0d 37 9b cf 2e 34 28 13 27 37
       1.1503932e-05 8.4130315e-06 1.6280539e-07 9.958436e-06
000230 26 42 b5 35 94 0b 28 34 db 08 7c 37 af 35 38 37
       1.3504803e-06 1.5650431e-07 1.5022432e-05 1.0979754e-05
000240 a7 3f 09 34 55 1d 22 36 49 82 8a 36 cb eb 07 36
       1.2782276e-07 2.4156955e-06 4.1278877e-06 2.0253817e-06
000250 36 19 ba 37 16 ea 38 35 5a 95 32 34 7c de d3 36
       2.2184668e-05 6.888598e-07 1.6631876e-07 6.3141906e-06
000260 e3 0f 1e 37 d1 cc e4 36 25 dd 1e 34 4b 15 09 37
       9.421233e-06 6.8187733e-06 1.4795349e-07 8.170794e-06
000270 25 9b c0 35 b9 07 a1 33 e8 9b 4e 37 7f dc 1c 37
       1.4350268e-06 7.4985515e-08 1.2314857e-05 9.349663e-06
000280 51 48 9b 33 e2 7a ef 34 4a 7f 0c 35 81 ec a6 34
       7.230904e-08 4.4606628e-07 5.2339294e-07 3.109199e-07
000290 6b ee 56 35 10 17 ac 34 fe 27 73 34 da a2 2e 35
       8.0068156e-07 3.2054277e-07 2.2645688e-07 6.505703e-07
0002a0 01 a0 a9 34 04 0a 49 34 ae 16 d4 34 be d5 8d 34
       3.159512e-07 1.8723227e-07 3.950458e-07 2.6418815e-07
0002b0 9f f6 0f 33 64 25 c9 34 eb 1b 17 35 91 79 15 34
       3.3519083e-08 3.7466373e-07 5.629251e-07 1.3920932e-07
0002c0 6c 1f 17 33 69 39 51 34 44 7b c7 34 33 c5 51 34
       3.5186005e-08 1.9485528e-07 3.7156326e-07 1.9536382e-07
0002d0 53 8a 0b 36 9d c8 32 33 15 30 da 31 44 7c 23 35
       2.079313e-06 4.162631e-08 6.3501013e-09 6.090306e-07
0002e0 a2 1d 67 35 bb 00 23 35 c8 a3 a5 32 8e b5 53 35
       8.609733e-07 6.0723295e-07 1.9283007e-08 7.886782e-07
0002f0 59 f1 d0 33 9f 33 d2 31 31 9d 9a 35 e3 24 5c 35
       9.729656e-08 6.117673e-09 1.1519643e-06 8.2010064e-07
000300 5c b5 51 34 6f 4e b4 35 cb 46 48 36 65 bd 84 35
       1.953062e-07 1.3433872e-06 2.984353e-06 9.889887e-07
000310 03 71 3f 37 bb 3a 22 35 fe 37 e2 33 b8 0a 87 36
       1.14108e-05 6.0435167e-07 1.053413e-07 4.0245613e-06
000320 86 53 a0 36 9f 24 63 36 d1 b5 de 33 27 10 62 36
       4.778095e-06 3.3846952e-06 1.0370753e-07 3.3686026e-06
000330 09 2e c9 34 11 e8 30 33 14 ac bd 36 0b 98 91 36
       3.7472662e-07 4.1189256e-08 5.6526715e-06 4.339037e-06
000340 71 86 79 33 2f dc f9 35 ce fd c1 35 83 5c 8c 35
       5.8097104e-08 1.8616028e-06 1.4453487e-06 1.0457737e-06
000350 db d0 50 36 16 fb 84 35 a7 3d 28 34 b8 c5 b0 35
       3.1115985e-06 9.907842e-07 1.5668648e-07 1.3170566e-06
000360 d7 fd 94 35 c8 a0 15 35 00 96 59 35 0b b6 43 35
       1.1100736e-06 5.5740793e-07 8.105708e-07 7.290807e-07
000370 02 0e 06 35 75 85 09 35 36 c7 e2 35 9a ec 70 35
       4.9939274e-07 5.123068e-07 1.689629e-06 8.975127e-07
000380 da 71 0d 35 9a 40 42 36 fb 9b c4 36 88 ce 06 36
       5.269227e-07 2.8945856e-06 5.8594137e-06 2.0087773e-06
000390 4b d0 f4 37 ea 80 0b 35 ae 9d 7b 34 bf ae 14 37
       2.918406e-05 5.196913e-07 2.343356e-07 8.862174e-06
0003a0 5d 1b 55 37 ab 04 10 37 04 91 42 34 65 56 3e 37
       1.270216e-05 8.584156e-06 1.8120414e-07 1.1344998e-05
0003b0 e2 ad da 35 49 0d f6 33 e1 cb 88 37 7c 5d 45 37
       1.6292872e-06 1.1457684e-07 1.6307402e-05 1.1763881e-05
0003c0 24 50 5d 32 d2 a7 bd 33 9c a4 0d 34 c0 00 e9 33
       1.2882115e-08 8.831525e-08 1.3191533e-07 1.08500444e-07
0003d0 b3 f2 49 35 93 10 f9 32 93 1d c1 30 e7 6f 58 34
       7.523151e-07 2.8994952e-08 1.4051004e-09 2.0157277e-07
0003e0 ba 7d a1 34 29 c0 62 34 e9 96 7b 32 4e 12 91 34
       3.0080065e-07 2.1117798e-07 1.4644436e-08 2.7021673e-07
0003f0 ac 4a 46 33 54 3b a3 30 21 7d d9 34 6d c5 a2 34
       4.616838e-08 1.1876673e-09 4.0510443e-07 3.0318498e-07

exp_avg f4 [16]
000000 0c 3f a8 b8 e1 c1 d3 b7 c5 7e e8 b9 80 71 9f b8
       -8.022608e-05 -2.5243442e-05 -0.0004434494 -7.602852e-05
000010 6e fd 74 33 69 b8 2b b8 41 1a e7 b8 12 12 a0 b6
       5.704117e-08 -4.0941322e-05 -0.000110198285 -4.7704752e-06
000020 89 ac 16 b8 98 e4 5d 38 da 5f 64 b8 e0 3a 2d 37
       -3.5923473e-05 5.29034e-05 -5.4448705e-05 1.0325311e-05
000030 d8 eb ae b7 b7 e3 d7 b8 ec bd 3d 39 a3 27 f2 36
       -2.085224e-05 -0.00010294414 0.00018095196 7.2167763e-06

exp_avg_sq f4 [16]
000000 d3 c1 6a 35 c1 09 29 34 95 30 8a 36 81 16 21 35
       8.7453844e-07 1.57429e-07 4.118376e-06 6.000992e-07
000010 2c 93 9b 35 1a ad 37 35 22 34 8f 35 7c ec a4 32
       1.1591233e-06 6.842471e-07 1.0669503e-06 1.9199653e-08
000020 86 bf c9 35 bf 8a d6 35 25 e8 cb 34 4e 77 14 34
       1.5031408e-06 1.5984623e-06 3.7980604e-07 1.3826977e-07
000030 85 c5 06 35 52 31 f7 35 65 92 d8 35 f0 f7 98 33
       5.020632e-07 1.8417288e-06 1.613586e-06 7.123151e-08

exp_avg f4 [5, 16]
000000 fc 96 c3 b9 14 af 9c b9 38 6b 5d b7 74 a3 ce b9
       -0.0003730579 -0.00029885082 -1.319759e-05 -0.00039413164
000010 97 72 35 39 ee 38 66 ba cf 3d 32 ba d2 4e 6d b7
       0.00017304193 -0.0008782287 -0.00067993713 -1.4144653e-05
000020 f4 ce 40 ba a7 72 20 b9 ac cd 00 3a 6f 7f aa b9
       -0.0007355057 -0.000153015 0.000491346 -0.00032519872
000030 a0 9a 66 b9 c3 81 83 3a 5e 33 0d ba f5 3e de 36
       -0.00021992112 0.0010033179 -0.00053863775 6.6234447e-06
000040 d7 91 57 39 91 a9 ba b8 62 e5 59 ba 62 87 9c 3a
       0.00020558327 -8.900755e-05 -0.0008312074 0.0011942203
000050 49 3e 04 39 fc 56 92 b8 76 d6 1c 3a cf e4 e8 35
       0.00012611704 -6.9780246e-05 0.0005982885 1.7351939e-06
000060 fe a2 ee b9 0f ce 10 39 72 6a b3 b9 db df 28 b9
       -0.00045516336 0.00013809673 -0.00034220848 -0.00016105121
000070 ac 58 2e 39 c3 ab 07 ba 10 3e a0 b9 9e 52 da 36
       0.00016626966 -0.0005175436 -0.00030563818 6.506524e-06
000080 34 9f f3 39 2e d4 03 b9 5c db 49 38 a5 db 0f b9
       0.00046467187 -0.00012572177 4.812643e-05 -0.00013719367
000090 f8 6e c5 38 af fd 37 39 b7 40 41 39 16 44 93 b4
       9.4143616e-05 0.00017546744 0.00018430022 -2.7430423e-07
0000a0 a9 63 09 39 4a 15 a2 37 eb 5b 16 39 af 21 88 38
       0.00013102464 1.9321818e-05 0.00014339357 6.4912594e-05
0000b0 73 4d 89 b9 b2 52 ea 39 33 82 d6 b8 79 7d d8 b6
       -0.0002618838 0.0004469357 -0.00010228567 -6.4519086e-06
0000c0 93 30 3f ba 93 10 ad 39 b0 c3 29 3a 3a df e6 b9
       -0.000729331 0.0003300948 0.0006475998 -0.00044035335
0000d0 6b 81 86 b9 ba bc b1 3a 4c 9f 45 3a f2 76 80 37
       -0.00025654896 0.0013560273 0.00075386907 1.5314177e-05
0000e0 3a d0 40 3a a0 c1 9c 39 85 85 ff b9 c2 4f a0 39
       0.0007355247 0.000298989 -0.0004873687 0.00030577002
0000f0 da 92 31 3a 8e be 5d ba 77 e0 44 3a 61 10 7f b4
       0.0006773897 -0.0008458876 0.00075102545 -2.3754684e-07
000100 cc 8f e2 39 af 65 40 39 4c e6 1b 39 2d 59 69 b9
       0.00043213216 0.00018348427 0.00014867744 -0.00022253832
000110 20 65 0f b9 70 f5 18 ba 38 88 60 ba b0 88 30 b6
       -0.00013675215 -0.0005834913 -0.000856522 -2.6305606e-06
000120 13 ee a9 39 cd 10 9f b9 3d 4e 4c 39 30 5d f2 38
       0.0003241157 -0.0003033936 0.00019484102 0.00011556817
000130 cc b6 bd b9 6c 12 b6 b8 e8 07 4d 39 99 1c d8 b6
       -0.00036185083 -8.6818676e-05 0.00019553269 -6.440631e-06

exp_avg_sq f4 [5, 16]
000000 ff 41 a5 37 63 5e 37 36 64 17 18 35 07 6f 87 36
       1.9700265e-05 2.7324065e-06 5.665845e-07 4.036239e-06
000010 03 a3 38 36 9c 44 74 37 e5 67 52 37 fe 80 8f 33
       2.7513022e-06 1.4559508e-05 1.2541165e-05 6.68242e-08
000020 dc 78 8d 36 11 ee 28 36 61 d7 cf 36 c2 16 d2 35
       4.2161973e-06 2.5172524e-06 6.194154e-06 1.5652843e-06
000030 d2 94 18 35 60 dc 47 37 ba 55 67 36 22 0f d9 34
       5.6840975e-07 1.1912634e-05 3.4471582e-06 4.043041e-07
000040 e1 04 d3 36 3f 7d 99 36 c8 6c d1 35 7d 88 d7 37
       6.288858e-06 4.574336e-06 1.5603373e-06 2.5693555e-05
000050 91 a3 f9 36 b5 e2 4a 37 6e ed 08 37 d8 c2 a6 34
       7.43982e-06 1.2092923e-05 8.161513e-06 3.1061677e-07
000060 61 cf 07 37 b4 c9 8b 36 6a d8 60 37 f8 28 37 36
       8.094911e-06 4.166004e-06 1.3401828e-05 2.7292972e-06
000070 ac d4 ae 35 0a c9 ae 37 07 5b ba 36 60 ce 84 34
       1.3025906e-06 2.0836032e-05 5.553829e-06 2.4737074e-07
000080 60 f6 89 37 f0 ee 8a 36 2d ef 2c 35 bc 4f de 36
       1.64464e-05 4.1405365e-06 6.442304e-07 6.625398e-06
000090 43 c3 fc 36 85 ef 93 36 79 0f 7a 37 11 71 86 33
       7.5329167e-06 4.408825e-06 1.4904764e-05 6.260428e-08
0000a0 0f b2 d6 36 58 9d b3 36 e9 51 69 36 67 f2 52 36
       6.3984257e-06 5.352933e-06 3.4767384e-06 3.1433535e-06
0000b0 2b 73 ad 35 52 dd 7c 37 99 42 d5 36 b3 6d 53 34
       1.2923023e-06 1.5071901e-05 6.3556477e-06 1.9690815e-07
0000c0 c7 12 02 37 e8 98 eb 36 51 8b c3 35 fd 4f 78 37
       7.752976e-06 7.0213464e-06 1.4569179e-06 1.4800576e-05
0000d0 5a d4 ba 36 3c c2 d1 37 c7 4d 17 37 0f 0d 88 33
       5.567953e-06 2.5005189e-05 9.01841e-06 6.335369e-08
0000e0 60 91 39 37 7c 32 b2 36 92 27 c6 36 03 5b 78 36
       1.1060707e-05 5.3106905e-06 5.9054664e-06 3.7007856e-06
0000f0 3a 1d 4c 36 28 2e 10 37 51 fa e8 36 6b 61 d7 34
       3.041538e-06 8.593815e-06 6.9432795e-06 4.0117752e-07
000100 59 d5 c8 36 9a ac a8 36 6a 3d a8 34 6b b0 2e 37
       5.9853014e-06 5.0268836e-06 3.1337123e-07 1.0412284e-05
000110 c8 c9 be 36 5a fa 95 37 48 14 80 37 71 cb 2c 33
       5.6859317e-06 1.7878763e-05 1.5268233e-05 4.02319e-08
000120 89 6e e1 36 19 5d f2 36 56 4e 63 36 d0 4d 2d 36
       6.7183905e-06 7.223e-06 3.3871233e-06 2.5824302e-06
000130 b9 cf 9f 35 18 49 c7 36 36 71 8d 36 6c e1 27 35
       1.1906878e-06 5.9391714e-06 4.215307e-06 6.254038e-07
