tests/results/over-squashing-spec/2025-05-06/14-38-17-972917-over-squashing-spec/12/ckpt/264.ckpt (torch, 237202 bytes, 31 tensors)

model.encoder.node_encoder.encoder.weight f4 [16, 5]
-0.5193461 -1.0354766 0.03683808 0.8897342 0.54775816 0.048730064 -0.13322437 -1.1003865
0.455898 1.0007942 -0.91959316 0.02353333 -0.47965258 0.8373852 1.00166 -0.056714665
1.1321388 0.60196584 -1.2437811 -0.2398609 0.23102356 -1.0360885 -1.1768788 0.11202202
1.2129655 -0.977709 -0.4712951 0.53328794 0.76970845 -0.2764863 0.3974544 0.99560297
-0.6805683 -0.93099946 -0.48447874 -0.56611884 0.87351376 -0.13358815 -1.2212673 0.8843886
1.0137402 -0.22106321 -1.1923162 -0.7882828 0.9006138 -0.34937572 0.6895381 -1.1755027
-0.4202497 1.1904124 0.7506171 1.3202885 -0.2263022 0.42839786 0.19620208 -0.93785006
-0.03916022 0.6443403 0.7775317 -0.19751969 0.24139701 -1.3753343 0.8953465 0.5620014
0.28514802 -0.07134851 -0.8785228 0.34288496 1.1552399 -0.6013667 -0.62481356 -1.7192014
-0.009624669 -1.1929005 -0.034788884 -0.45967406 -1.2000891 1.0339255 0.76738364 0.42198786
00000000: def3 04bf 7f8a 84bf 87e3 163d 9fc5 633f
00000010: e139 0c3f 2d99 473d f86b 08be 77d9 8cbf
00000020: 766b e93e 061a 803f 756a 6bbf f8c8 c03c
00000030: 0695 f5be e05e 563f 6536 803f a34d 68bd
00000040: ede9 903f 6f1a 1a3f 3834 9fbf 199e 75be
00000050: 7191 6c3e 8c9e 84bf f7a3 96bf cd6b e53d
00000060: 7442 9b3f 234b 7abf 974d f1be 8f85 083f
00000070: 9d0b 453f 9d8f 8dbe 257f cb3e d6df 7e3f
00000080: b939 2ebf fb55 6ebf 990d f8be 2aed 10bf
00000090: 999e 5f3f 55cb 08be 7d52 9cbf 4b67 623f
000000a0: 3dc2 813f 655e 62be d19d 98bf e7cc 49bf
000000b0: a08e 663f 60e1 b2be 9285 303f df76 96bf
000000c0: f82a d7be 6f5f 983f 7128 403f 37ff a83f
000000d0: c4bb 67be f756 db3e 33e9 483e f116 70bf
000000e0: 7866 20bd 7cf3 243f 510c 473f 9a42 4abe
000000f0: c730 773e f40a b0bf 6e35 653f 53df 0f3f
00000100: ecfe 913e 2b1f 92bd dfe6 60bf 9e8e af3e
00000110: e7de 933f 2bf3 19bf c8f3 1fbf cb0e dcbf
00000120: cab0 1dbc f7b0 98bf ca7e 0ebd 665a ebbe
00000130: 859c 99bf ac57 843f 4173 443f cb0e d83e

model.encoder.node_encoder.encoder.bias f4 [16]
1.211783 -1.5818325 1.3867129 -1.3110312 -1.4733653 0.9062943 -1.0804764 0.27809486
-0.9654 0.21065092 0.17729454 1.9688433 1.0563033 -0.35048655 -1.3695438 1.2759124
00000000: b51b 9b3f 7d79 cabf cf7f b13f dfcf a7bf
00000010: 3c97 bcbf e702 683f 0d4d 8abf 7362 8e3e
00000020: 7424 77bf e0b4 573e b38c 353e 0f03 fc3f
00000030: f234 873f f972 b3be 364d afbf 1951 a33f

model.gnn_layers.0.factor_split f4 [16, 2]
1.0 1.0 1.0 1.0 1.0 1.0 1.0 1.0
1.0 1.0 1.0 1.0 1.0 1.0 1.0 1.0
1.0 1.0 1.0 1.0 1.0 1.0 1.0 1.0
1.0 1.0 1.0 1.0 1.0 1.0 1.0 1.0
00000000: 0000 803f 0000 803f 0000 803f 0000 803f
00000010: 0000 803f 0000 803f 0000 803f 0000 803f
00000020: 0000 803f 0000 803f 0000 803f 0000 803f
00000030: 0000 803f 0000 803f 0000 803f 0000 803f
00000040: 0000 803f 0000 803f 0000 803f 0000 803f
00000050: 0000 803f 0000 803f 0000 803f 0000 803f
00000060: 0000 803f 0000 803f 0000 803f 0000 803f
00000070: 0000 803f 0000 803f 0000 803f 0000 803f

model.gnn_layers.0.filter.filter.distance_expansion.offset f4 [20]
0.0 1.0526316 2.1052632 3.1578948 4.2105265 5.263158 6.3157897 7.3684216
8.421053 9.473684 10.526316 11.578947 12.631578 13.68421 14.736842 15.789474
16.842106 17.894737 18.947369 20.0
00000000: 0000 0000 a2bc 863f a2bc 0640 f31a 4a40
00000010: a2bc 8640 ca6b a840 f31a ca40 1cca eb40
00000020: a2bc 0641 3694 1741 ca6b 2841 5e43 3941
00000030: f21a 4a41 86f2 5a41 1bca 6b41 afa1 7c41
00000040: a2bc 8641 6c28 8f41 3694 9741 0000 a041

model.gnn_layers.0.filter.filter.linear.0.weight f4 [3, 20]
0.4743888 -1.141914 -1.2451556 1.6810707 0.20585223 -0.81104356 -0.22159638 0.44453034
0.5052395 -0.4197402 -0.28245854 0.5643105 0.18834016 -0.29042652 0.04574686 0.32311386
0.15482613 -0.22227103 0.1416441 -0.1981652 -0.26523545 0.67898256 0.9186661 -1.547588
0.8017374 0.46690166 -0.18244275 -0.09904506 -0.41502368 0.78737944 -0.08427061 -0.18670096
0.29476666 0.1914006 -0.39114052 0.08131758 -0.21792342 -0.5815807 -0.7945949 -0.5156995
-0.7880687 1.0736982 0.817468 -1.3460052 -0.21019651 0.7566331 0.11601154 -0.73220307
-0.30648932 0.41389513 0.1190698 -0.30769464 0.057863545 0.26834312 0.047895208 -0.058737937
0.14010191 0.8248522 0.5800295 0.8759201
00000000: 17e3 f23e 3d2a 92bf 4261 9fbf 532d d73f
00000010: edca 523e 8da0 4fbf 29ea 62be 7b99 e33e
00000020: 6057 013f 30e8 d6be 689e 90be a776 103f
00000030: 3edc 403e c9b2 94be 0f61 3b3d 2e6f a53e
00000040: be8a 1e3e 049b 63be 270b 113e d1eb 4abe
00000050: f1cc 87be cdd1 2d3f b42d 6b3f 5d17 c6bf
00000060: aa3e 4d3f bc0d ef3e 46d2 3abe 23d8 cabd
00000070: fc7d d4be b391 493f 1296 acbd 892e 3fbe
00000080: a8eb 963e 85fe 433e 9243 c8be d589 a63d
00000090: 5127 5fbe 79e2 14bf 926a 4bbf e204 04bf
000000a0: dfbe 49bf f16e 893f 9545 513f e649 acbf
000000b0: c13d 57be b5b2 413f 7597 ed3d a971 3bbf
000000c0: 2bec 9cbe 10ea d33e deda f33d 278a 9dbe
000000d0: 5302 6d3d 4564 893e c42d 443d 3197 70bd
000000e0: e076 0f3e 8429 533f d07c 143f 4d3c 603f

model.gnn_layers.0.filter.filter.linear.1.weight f4 [16, 3]
1.1839615 -0.8521061 -1.0244051 -1.1156191 0.24892193 1.0225785 1.4160796 -1.5341035
-1.5560303 -0.91854125 0.22746538 1.2097951 -1.3464682 0.8333514 1.2414938 1.2976426
-0.8723584 -1.2371978 -0.39851576 -0.20413007 0.88675207 -1.3137573 1.6920704 1.234683
-1.3223145 1.0023372 1.4097677 1.4657186 -2.0099313 -1.7521719 0.06682372 0.45762685
-0.3669932 -2.116719 2.6947834 1.6345217 -1.0326134 0.37678987 0.7211038 -1.3725052
1.0927474 0.9701047 1.4374267 -1.8678457 -1.2986543 -1.5593626 0.57121307 0.4722829
00000000: 0d8c 973f a023 5abf b51f 83bf 9bcc 8ebf
00000010: 64e5 7e3e dae3 823f 1942 b53f 815d c4bf
00000020: 002c c7bf 8525 6bbf afec 683e 91da 9a3f
00000030: 1259 acbf 8456 553f 45e9 9e3f 2719 a63f
00000040: e152 5fbf 7f5c 9ebf 420a ccbe 7907 51be
00000050: 2f02 633f 3329 a8bf c395 d83f 180a 9e3f
00000060: 9a41 a9bf 964c 803f 4573 b43f ab9c bb3f
00000070: b7a2 00c0 2b47 e0bf e0da 883d 114e ea3e
00000080: 88e6 bbbe 5378 07c0 5577 2c40 0238 d13f
00000090: ad2c 84bf 9aea c03e 429a 383f 40ae afbf
000000a0: 26df 8b3f c858 783f 99fd b73f 9115 efbf
000000b0: 4e3a a6bf 3299 c7bf 053b 123f 10cf f13e

model.gnn_layers.0.filter.filter.linear.1.bias f4 [16]
0.43184263 0.085958466 0.010747007 0.14901938 0.07770611 0.015239287 0.20597276 -0.1503244
-0.0046424195 0.022850662 0.056177363 -0.22707686 -0.022656217 -0.101203635 -0.033695564 -0.19761908
00000000: 7a1a dd3e fe0a b03d 3714 303c 8998 183e
00000010: 6224 9f3d 34ae 793c 86ea 523e a4ee 19be
00000020: 701f 98bb 5031 bb3c 3c1a 663d d686 68be
00000030: 8899 b9bc da43 cfbd 5c04 0abd a85c 4abe

model.gnn_layers.0.feature_transform.layer_real.lin1.weight f4 [16, 16]
0.5318774 0.376222 -0.19387084 0.06490745 0.6131221 0.24227029 0.09350256 -0.33365628
0.039242167 0.28900054 0.029187057 -0.27574286 0.19357239 0.47498268 0.14654401 -0.33681667
-0.13091281 -1.183881 0.4460761 0.4899154 -1.5434685 1.0026357 -0.595402 0.3564922
-1.2031124 -1.4120822 -0.01744623 1.0044338 -0.023083666 -0.65456504 -0.09356388 0.78007674
1.0619377 0.6013751 0.86177254 -1.160744 0.97852874 1.2430925 -0.9192207 0.8619978
0.93265575 1.3922561 -0.4966563 0.7062686 0.9451764 0.684692 0.32767892 0.7925952
0.9614138 -0.98534745 -0.24387129 -0.7577074 -0.6432418 0.98808074 -0.366893 -1.4303277
-0.64133984 -1.1299051 0.052129313 1.1122329 0.93412703 1.431082 -0.16819341 0.28639024
-0.9034384 -0.6351999 0.41022894 0.8639271 -1.0662172 0.24692288 1.1276073 1.2853125
-0.5287556 1.2664653 0.15025903 0.11904879 -0.8802201 -1.0253677 -0.47575894 -0.8638671
0.9914402 -0.8611933 0.9700513 -0.9260034 -1.1590344 0.6526164 -1.1081572 -0.9080385
-1.0868428 -1.1102961 0.019681135 0.93092906 0.78563344 1.0061847 -0.99660707 1.0232807
0.75135726 0.09575257 0.7432161 -0.582505 -0.63228565 1.2387762 -0.7573176 -0.37598816
-0.77597064 -0.31485894 -0.1494642 0.7419631 0.25260404 0.85189205 -0.34039536 0.817992
1.8854192 -1.4426494 1.5643352 -1.5852268 -1.5910752 1.574357 -1.6952374 1.0713872
-1.2656673 1.0848647 0.7936783 1.9593184 1.3410732 -0.8183751 -1.319278 1.1965532
0.93036586 -0.96447104 0.29266223 -0.72767025 -0.77105504 0.8173354 -0.8554035 -0.9058602
-1.1225059 -1.3008581 -0.8422776 1.0655813 1.1423957 1.0515747 0.7123588 1.1156087
1.6746851 -1.4495019 1.4574611 -1.5194457 -1.4922209 1.7050322 -1.5635713 1.8267412
-1.4978858 1.51174 0.691898 1.7708559 1.7519344 -1.5102981 -1.3905138 1.833349
-0.10433052 0.06591138 -0.15634635 -0.061684996 0.2794049 -0.09221159 0.21068288 -0.082329825
0.12626672 0.31680202 -0.013535334 0.06867262 0.10306236 0.4902472 -0.02401753 0.019297661
-0.9737465 -0.8313883 0.29145402 0.9272872 -1.3201675 0.13001335 0.95465547 1.5846324
-0.8685562 1.3153205 0.23485614 0.027782453 -1.522012 -1.7507979 -0.06305595 -0.8624582
-1.2671794 -1.3519816 -0.46113548 0.6662067 -0.8017736 -0.37060964 -0.36600542 0.45711473
-0.1320032 -1.2190787 -0.35961664 0.3701891 0.6541101 -0.9756069 0.12699144 0.63570505
0.9124598 -0.74058896 1.2562618 -1.125759 -0.54611194 1.1949618 -0.84314066 1.0898402
-0.9347308 1.1422117 0.50681037 1.3312117 0.49044892 -0.99341995 -0.8002824 0.9904086
-0.658796 -0.5390608 0.44208908 0.6766079 -0.93879443 0.73259217 0.99676895 1.2400049
-0.54626423 1.092541 0.118005686 0.1429062 -1.1035244 -0.9852407 0.034174908 -0.6547025
0.29922068 0.38298672 0.28554517 -0.8706505 0.5467507 -0.042017262 0.021468673 -1.1551088
-0.14291447 -0.1877427 0.072002135 0.20719783 0.249408 1.0344818 -0.3899023 -0.27048907
00000000: 1e29 083f 2ca0 c03e 1486 46be 32ee 843d
00000010: 92f5 1c3f b415 783e 457e bf3d ffd4 aabe
00000020: 65bc 203d e1f7 933e b219 ef3c 2b2e 8dbe
00000030: d737 463e ee30 f33e a20f 163e 3c73 acbe
00000040: 020e 06be 6a89 97bf 1664 e43e 31d6 fa3e
00000050: 6090 c5bf 5e56 803f 446c 18bf 2586 b63e
00000060: 96ff 99bf 1cbf b4bf 65eb 8ebc 4991 803f
00000070: f519 bdbc 9391 27bf 6b9e bfbd 1cb3 473f
00000080: 93ed 873f b8f3 193f 209d 5c3f 4293 94bf
00000090: dc80 7a3f a81d 9f3f 0c52 6bbf e3ab 5c3f
000000a0: 87c2 6e3f 7335 b23f bc49 febe 05ce 343f
000000b0: 15f7 713f fa47 2f3f 88c5 a73e 85e7 4a3f
000000c0: 371f 763f bb3f 7cbf 65b9 79be 1df9 41bf
000000d0: 7fab 24bf dcf2 7c3f 66d9 bbbe fa14 b7bf
000000e0: d92e 24bf bba0 90bf 8c85 553d a65d 8e3f
000000f0: f322 6f3f b22d b73f e53a 2cbe bea1 923e
00000100: bd47 67bf 769c 22bf 8709 d23e 542a 5d3f
00000110: ce79 88bf 5ad9 7c3e 7055 903f 1f85 a43f
00000120: 875c 07bf 891b a23f 81dd 193e dacf f33d
00000130: 1b56 61bf 403f 83bf ad96 f3be 6526 5dbf
00000140: 06cf 7d3f 2a77 5cbf 4855 783f 8f0e 6dbf
00000150: 3d5b 94bf de11 273f 18d8 8dbf 3675 68bf
00000160: aa1d 8bbf 2f1e 8ebf 553a a13c 5e51 6e3f
00000170: 461f 493f a9ca 803f a421 7fbf ddfa 823f
00000180: f358 403f ec19 c43d 6943 3e3f 0c1f 15bf
00000190: 79dd 21bf 3890 9e3f 91df 41bf 8581 c0be
000001a0: 03a6 46bf 3135 a1be 250d 19be 4bf1 3d3f
000001b0: 5155 813e 9915 5a3f 4d48 aebe ec67 513f
000001c0: 6b55 f13f bca8 b8bf 233c c83f b6e8 cabf
000001d0: 5aa8 cbbf 8884 c93f 8afd d8bf 3723 893f
000001e0: 6301 a2bf d9dc 8a3f 802e 4b3f f2ca fa3f
000001f0: 49a8 ab3f 0881 51bf 1ade a8bf a828 993f
00000200: 752c 6e3f 93e7 76bf d3d7 953e 9948 3abf
00000210: dd63 45bf e53c 513f b9fb 5abf 74e6 67bf
00000220: 46ae 8fbf 8582 a6bf 819f 57bf f864 883f
00000230: 063a 923f 009a 863f 255d 363f 44cc 8e3f
00000240: 155c d63f 4789 b9bf 168e ba3f 327d c2bf
00000250: 1801 bfbf 7f3e da3f 1b23 c8bf a8d2 e93f
00000260: b9ba bfbf b280 c13f 3a20 313f 68ab e23f
00000270: 633f e03f 7351 c1bf 5bfc b1bf 2eab ea3f
00000280: 3dab d5bd 8cfc 863d 4219 20be 68a9 7cbd
00000290: 290e 8f3e 6ed9 bcbd 41bd 573e 8a9c a8bd
000002a0: 104c 013e e033 a23e 4ec3 5dbc 3ba4 8c3d
000002b0: 5c12 d33d ae01 fb3e 69c0 c4bc 2116 9e3c
000002c0: 7347 79bf ddd5 54bf 7639 953e b262 6d3f
000002d0: 40fb a8bf 3822 053e 4d64 743f 3cd5 ca3f
000002e0: b359 5ebf 6c5c a83f 217e 703e 0798 e33c
000002f0: 4ad1 c2bf 251a e0bf 7a23 81bd 10ca 5cbf
00000300: ef32 a2bf bc0d adbf f319 ecbe 868c 2a3f
00000310: 0941 4dbf 8cc0 bdbe 1065 bbbe f10a ea3e
00000320: d92b 07be c50a 9cbf ac1f b8be 6d89 bd3e
00000330: c273 273f 60c1 79bf 0b0a 023e 91bd 223f
00000340: f796 693f 3d97 3dbf 30cd a03f df18 90bf
00000350: fecd 0bbf 82f4 983f 11d8 57bf e27f 8b3f
00000360: 854a 6fbf fe33 923f 53be 013f 2565 aa3f
00000370: 1f1c fb3e c550 7ebf 4fdf 4cbf 6b8b 7d3f
00000380: dba6 28bf e3ff 09bf 8059 e23e 2d36 2d3f
00000390: d554 70bf 298b 3b3f 402c 7f3f 7bb8 9e3f
000003a0: f9d7 0bbf 62d8 8b3f f7ac f13d 0156 123e
000003b0: 4a40 8dbf bc38 7cbf fdfa 0b3d 959a 27bf
000003c0: 7433 993e d616 c43e fa32 923e f3e2 5ebf
000003d0: dbf7 0b3f 4b1a 2cbd 12df af3c 9bda 93bf
000003e0: 2c58 12be 9f3f 40be db75 933d ab2b 543e
000003f0: d064 7f3e e669 843f 46a1 c7be 8b7d 8abe

model.gnn_layers.0.feature_transform.layer_real.lin1.bias f4 [16]
-0.088853605 0.8618756 0.64618206 1.006971 0.31849915 0.8796473 0.28184357 1.2771918
0.55347717 1.2190163 -0.08495806 0.35724404 0.9719157 0.97702754 0.6804116 -0.13373931
00000000: e1f8 b5bd e1a3 5c3f 306c 253f 6de4 803f
00000010: 5212 a33e 9130 613f cd4d 903e 057b a33f
00000020: aeb0 0d3f ba08 9c3f 7efe adbd b1e8 b63e
00000030: 78cf 783f 7a1e 7a3f 742f 2e3f f5f2 08be

model.post_mp.mlp.1.weight f4 [5, 16]
0.735402 -0.2664074 -0.7961515 0.40479568 -1.000071 -1.1502043 -0.6896222 0.74573064
-1.2024242 -0.5227099 -0.1741796 0.78784096 -0.51920545 0.028987108 0.9345906 -0.28588414
1.0055296 0.45604667 -1.10926 -0.2919489 1.2725995 -0.1027381 -0.26529002 -1.242014
-0.58037233 1.1132487 0.02367 -2.336868 0.696545 0.8289376 -1.2403907 -0.2325006
0.48096296 0.9634275 -1.2115628 -0.6557902 -0.8875805 0.78882927 0.40572762 -0.56349474
1.2070755 -1.7542801 -0.027523186 1.4270804 -1.2714765 -0.40150562 0.6283253 1.1297231
-0.589534 -0.7955424 0.9589961 1.1696469 0.13634518 1.1809964 0.7155656 1.862273
0.72587436 -0.25436965 -0.043449752 0.49408603 1.105393 -1.255741 1.2028152 -0.58187383
-0.84445876 -1.0113914 1.2923648 -0.8339072 -0.49694565 -0.5597421 0.4459172 -1.2840447
-0.62788606 2.0060055 -0.1930978 2.0220065 0.35754114 0.9999024 1.58701 0.2963923
00000000: 4e43 3c3f 8d66 88be 96d0 4bbf 6141 cf3e
00000010: 5402 80bf e539 93bf 158b 30bf 34e8 3e3f
00000020: 09e9 99bf 51d0 05bf 235c 32be f2af 493f
00000030: a6ea 04bf 5f76 ed3c 5441 6f3f 685f 92be
00000040: 32b5 803f f37e e93e 3bfc 8dbf 547a 95be
00000050: 8ae4 a23f 5a68 d2bd 18d4 87be 51fa 9ebf
00000060: 4893 14bf ef7e 8e3f 96e7 c13c 3f8f 15c0
00000070: c650 323f 4135 543f 1fc5 9ebf a314 6ebe
00000080: c740 f63e 2fa3 763f 7d14 9bbf dee1 27bf
00000090: 7a38 63bf b7f0 493f 88bb cf3e 3141 10bf
000000a0: 7381 9a3f 408c e0bf 4e78 e1bc 92aa b63f
000000b0: bebf a2bf 2592 cdbe edd9 203f c49a 903f
000000c0: b3eb 16bf aba8 4bbf c580 753f fdb6 953f
000000d0: 129e 0b3e e42a 973f 4f2f 373f f65e ee3f
000000e0: e7d2 393f bd3c 82be 5ef8 31bd d8f8 fc3e
000000f0: 857d 8d3f 1fbc a0bf d9f5 993f aff5 14bf
00000100: 732e 58bf 4675 81bf 366c a53f f17a 55bf
00000110: a96f febe 424b 0fbf 424f e43e 945b a4bf
00000120: 24bd 20bf 6562 0040 6ebb 45be 8e68 0140
00000130: a20f b73e 9bf9 7f3f 2523 cb3f bbc0 973e

model.post_mp.mlp.1.bias f4 [5]
0.005907209 -0.30171257 0.13124686 -0.19628868 -0.010964385
00000000: 4391 c13b 127a 9abe 9465 063e e6ff 48be
00000010: f7a3 33bc

exp_avg f4 [16, 5]
-0.00031431127 -0.00010338513 -0.00041770333 -0.00071585295 -0.0006369923 -0.0004930973 -0.0001928558 0.000710669
-0.00071984663 -0.0005888747 0.0005244846 0.00032605664 0.0004992442 -0.00046483512 -0.00035187387 0.0002086226
-0.0002243296 -0.0004791248 0.0008130692 0.00023739295 -0.00064659974 -0.00017411902 -0.0001522328 -0.0006939948
-0.00078360277 0.0024165462 0.0015262567 0.000547091 0.00057978916 0.0015176993 0.0002459104 0.00010207686
0.00071962684 0.0006897468 0.0007061791 0.0015995016 -2.3178041e-05 -0.0017776889 0.0023963368 -0.00024602466
-0.0013052225 -0.0005908075 0.00095832255 -0.00043771393 -0.00083300244 0.0009762636 0.0006867615 0.0035182752
-0.00036125307 -0.00067095365 4.92078e-05 2.172227e-05 0.00014253912 9.127322e-05 7.293265e-05 0.0002462307
-0.00028962494 -0.00011187616 -2.8142871e-05 5.373801e-05 -0.0006250337 -0.00025734125 -0.0011302737 -0.0008166124
-0.00091861543 -0.00045346626 -0.00016143902 -0.00044747535 -0.0013851926 -0.00033502083 -9.1797025e-05 0.00022769344
-7.480216e-05 -3.582898e-05 -6.0324528e-05 -0.00023243022 -4.7430043e-05 -0.000626958 -0.0005338934 -0.00052000204
00000000: 25ca a4b9 78d0 d8b8 31ff dab9 14a8 3bba
00000010: d4fb 26ba 3343 01ba 5639 4ab9 304c 3a3a
00000020: 17b4 3cba b65e 1aba 917d 093a 95f2 aa39
00000030: b6df 023a 1db5 f3b9 b67b b8b9 b4c1 5a39
00000040: 053a 6bb9 0b33 fbb9 2624 553a afec 7839
00000050: 9380 29ba b893 36b9 aea0 1fb9 34ed 35ba
00000060: b16a 4dba eb5e 1e3b ad0c c83a a86a 0f3a
00000070: fefc 173a 8aed c63a 89ed 8039 1912 d638
00000080: 57a5 3c3a 20d0 343a e11e 393a 5ea6 d13a
00000090: 776e c2b7 5701 e9ba dc0b 1d3b dffc 80b9
000000a0: 0014 abba 6ce0 1aba f037 7b3a f87c e5b9
000000b0: d95d 5aba f1eb 7f3a c907 343a dd92 663b
000000c0: 9166 bdb9 f0e2 2fba 7964 4e38 3838 b637
000000d0: 8e76 1539 f069 bf38 6bf3 9838 8618 8139
000000e0: cdd8 97b9 0e9f eab8 5b14 ecb7 c064 6138
000000f0: 4dd9 23ba c2eb 86b9 b125 94ba ee11 56ba
00000100: 3dcf 70ba 36bf edb9 f547 29b9 209b eab9
00000110: 5a8f b5ba bca5 afb9 2783 c0b8 fec0 6e39
00000120: 1bdf 9cb8 1347 16b8 f804 7db8 83b8 73b9
00000130: 9fef 46b8 705a 24ba fbf4 0bba bf50 08ba

exp_avg_sq f4 [16, 5]
1.0982184e-05 1.2593505e-05 1.1423373e-05 1.2019787e-05 1.16511055e-05 2.4559347e-05 2.4708106e-05 2.719008e-05
2.6301095e-05 2.6228969e-05 4.56807e-05 4.1617383e-05 5.701304e-05 5.0968647e-05 7.328129e-05 2.3762008e-05
2.7191247e-05 3.259824e-05 2.8889677e-05 2.3445242e-05 1.5763388e-05 2.0548445e-05 1.6588237e-05 1.5913625e-05
1.7643517e-05 0.00026757442 0.00024254693 0.00024338518 0.0002664477 0.00024558767 2.0816082e-05 2.1045624e-05
2.1580829e-05 2.1705036e-05 2.1718077e-05 0.00030775773 0.00030696165 0.00031516838 0.00031626094 0.0003111796
5.675729e-05 5.1742943e-05 7.870093e-05 5.4799402e-05 5.6175566e-05 0.00033710295 0.00033534854 0.00034621457
0.00034398434 0.00035072726 2.10332e-06 2.6168887e-06 2.091911e-06 2.044397e-06 2.079951e-06 4.623839e-06
6.256232e-06 4.4235244e-06 4.776729e-06 4.2986e-06 1.6804577e-05 2.017559e-05 1.6935359e-05 1.6136082e-05
1.6155105e-05 0.00012815406 0.00012365257 0.000120170334 0.00012753844 0.0001249725 9.409323e-07 4.5975285e-06
9.255258e-07 1.2182331e-06 9.1314416e-07 6.949827e-06 7.966353e-06 7.0882697e-06 7.108879e-06 6.992692e-06
00000000: 1f40 3837 b148 5337 03a7 3f37 98a8 4937
00000010: 1e79 4337 cc04 ce37 4144 cf37 4116 e437
00000020: 2ca1 dc37 4806 dc37 4799 3f38 538e 2e38
00000030: 4921 6f38 2bc7 5538 98ae 9938 8654 c737
00000040: c218 e437 18ba 0838 1c58 f237 46ac c437
00000050: 9e3b 8437 735f ac37 f826 8b37 407e 8537
00000060: 2a01 9437 3b49 8c39 3254 7e39 3635 7f39
00000070: 01b2 8b39 38c2 8039 329e ae37 228b b037
00000080: 7a08 b537 3613 b637 372f b637 8b5a a139
00000090: b2ef a039 2f3d a539 d3cf a539 d225 a339
000000a0: ad0e 6e38 9006 5938 3d0c a538 69d8 6538
000000b0: 0e9e 6b38 31bd b039 b8d1 af39 2284 b539
000000c0: cc58 b439 d1e1 b739 c326 0d36 ce9d 2f36
000000d0: c262 0c36 7932 0936 4995 0b36 7926 9b36
000000e0: a0ec d136 c96d 9436 ca47 a036 b13c 9036
000000f0: 8ef7 8c37 c03e a937 6810 8e37 f95b 8737
00000100: d384 8737 1861 0639 bca8 0139 f503 fc38
00000110: d7bb 0539 0d0b 0339 6094 7c35 7844 9a36
00000120: a671 7835 2c82 a335 ca1e 7535 8f32 e936
00000130: 3aa7 0537 c6d7 ed36 ce88 ee36 c4a2 ea36

exp_avg f4 [16]
-0.00078637357 0.00040335912 -0.0011942119 0.00032560283 0.0003295014 0.00066792284 0.00093006407 0.00035708884
0.00035999305 0.00064500415 1.2721478e-05 -0.0011461449 -0.0011667815 2.7752467e-05 0.00055539294 -0.00086949964
00000000: a324 4eba f279 d339 1a87 9cba acb5 aa39
00000010: eec0 ac39 8b17 2f3a 8bcf 733a a737 bb39
00000020: 73bd bc39 7f15 293a 556e 5537 3e3a 96ba
00000030: b1ee 98ba f8cd e837 ca97 113a 22ef 63ba

exp_avg_sq f4 [16]
5.2995483e-06 1.0653022e-05 8.6154716e-05 1.286427e-05 1.1404476e-05 6.673507e-05 8.313554e-06 6.85878e-05
5.1396193e-05 9.335672e-05 6.027196e-07 1.3274239e-05 1.17155e-05 2.5527024e-05 5.484638e-06 7.4248915e-06
00000000: c6d2 b136 62ba 3237 f6ad b438 9ed3 5737
00000010: da55 3f37 1ef4 8b38 717a 0b37 cbd6 8f38
00000020: 3e92 5738 82c8 c338 93ca 2135 6cb4 5e37
00000030: b08d 4437 de22 d637 af08 b836 5523 f936

exp_avg f4 [3, 20]
0.014133692 0.011819942 0.00072319404 -0.0014833818 0.0005042875 -0.00066806306 -0.00031515307 0.00027426748
-0.0003480129 -8.641599e-05 0.00013436466 -0.00010222793 -2.6648047e-06 0.00010214249 0.0001822075 0.0003267278
0.00031009756 -3.939243e-05 -0.00023029985 -0.00011523167 -0.00524116 -0.007206391 -0.00069186994 0.00091010856
-0.0006138325 0.0004995115 0.00017886786 -0.00028775705 0.0002782853 3.2515276e-05 -0.0001610126 4.164884e-05
1.6224703e-05 -2.1956712e-05 -0.0001842206 -0.00052090344 -0.00062516576 -0.00016018402 0.00019415468 0.00014653137
-0.016341412 -0.012850983 -0.0007332548 0.0015992097 -0.00046465843 0.0006976938 0.000351455 -0.00026846936
0.00036151893 0.000118060656 -7.9962585e-05 0.00020837614 8.360345e-05 -2.7510432e-05 4.9412876e-05 0.00012567299
0.000117536976 0.0001333248 0.00014663424 2.9615956e-05
00000000: 0091 673c 6ea8 413c bb94 3d3a 096e c2ba
00000010: 2932 043a f420 2fba 213b a5b9 8fcb 8f39
00000020: 8075 b6b9 3b3a b5b8 3de4 0c39 3463 d6b8
00000030: ffd4 32b6 5535 d638 f40e 3f39 aa4c ab39
00000040: 9794 a239 4d39 25b8 a57c 71b9 88a8 f1b8
00000050: 09be abbb 9723 ecbb 9b5e 35ba 5a94 6e3a
00000060: 9ae9 20ba a6f1 023a 7a8e 3b39 19de 96b9
00000070: d2e6 9139 0361 0838 7ed5 28b9 1ab0 2e38
00000080: 491a 8837 ae2f b8b7 572b 41b9 3d8d 08ba
00000090: 2ae2 23ba 12f7 27b9 0096 4b39 37a6 1939
000000a0: 6dde 85bc ee8c 52bc e637 40ba 939c d13a
000000b0: 669d f3b9 70e5 363a 7e43 b839 59c1 8cb9
000000c0: 408a bd39 5597 f738 96b1 a7b8 8b7f 5a39
000000d0: 4354 af38 34c6 e6b7 ac40 4f38 16c7 0339
000000e0: 2f7e f638 1acd 0b39 d4c1 1939 c86f f837

exp_avg_sq f4 [3, 20]
0.005466495 0.0013838881 4.9739618e-05 2.5509995e-05 1.3688608e-05 6.3322177e-06 7.4329096e-06 3.7896152e-06
5.430379e-06 3.839692e-06 5.892388e-06 3.5135947e-06 3.0693818e-06 3.5216556e-06 3.0439526e-06 2.8071074e-06
1.8403853e-06 1.0024818e-06 4.6576858e-07 3.1323058e-08 0.0027344746 0.00068193476 1.02949125e-05 8.787657e-06
3.351238e-06 1.9730292e-06 8.0205007e-07 1.0772895e-06 1.7452427e-06 1.7548044e-06 1.3894454e-06 2.5108347e-06
8.835363e-07 2.2050563e-06 1.4797823e-06 2.0239163e-06 1.8145305e-06 8.026083e-07 2.2598745e-07 3.3836763e-08
0.007883683 0.001938101 4.661347e-05 2.9176465e-05 1.3965777e-05 5.7866714e-06 7.5420407e-06 5.015092e-06
4.706073e-06 4.1122735e-06 6.627801e-06 4.873441e-06 7.4354343e-06 2.2653471e-06 3.3051854e-06 2.0741445e-06
1.7825959e-06 1.0954354e-06 4.2533048e-07 2.9777587e-08
00000000: 4920 b33b 9463 b53a 829f 5038 4cfe d537
00000010: 20a8 6537 5679 d436 3568 f936 1851 7e36
00000020: 9a36 b636 b4d6 8036 3ab7 c536 19cb 6b36
00000030: 94fb 4d36 9555 6c36 b546 4c36 bd61 3c36
00000040: 2803 f735 038d 8635 bf0e fa34 1188 0633
00000050: df34 333b dec3 323a 50b8 2c37 b36e 1337
00000060: d5e5 6036 6268 0436 764c 5735 6397 9035
00000070: 153e ea35 9f86 eb35 fb7c ba35 d07f 2836
00000080: 272c 6d35 94fa 1336 ef9c c635 9ed2 0736
00000090: cb8a f335 d372 5735 f5a6 7234 ea53 1133
000000a0: 902a 013c e107 fe3a d582 4338 fbbf f437
000000b0: 8e4e 6a37 212b c236 a311 fd36 5047 a836
000000c0: dce8 9d36 29fc 8936 6164 de36 8a86 a336
000000d0: e57d f936 5e06 1836 a7ce 5d36 8831 0b36
000000e0: 8741 ef35 e006 9335 fa58 e434 9bc9 ff32

exp_avg f4 [16, 3]
-2.8995303e-06 -1.1535892e-06 1.5684058e-05 0.0013987483 -0.0010722851 0.0010631937 -0.0007645485 0.0005256084
0.00027068335 -4.9896626e-05 2.0367656e-08 -0.0005897939 0.00031191835 -0.00027352478 0.00021668356 -0.00063808484
0.00075109786 -0.00023233089 0.0011748093 -0.0008486554 0.00065368594 0.0010296518 -0.00076996174 -0.0004373027
0.0015743981 -0.0012288163 0.00061733625 -0.00037451854 0.00028060714 0.0013881659 9.256386e-06 -5.4192515e-06
1.6565598e-05 0.00022480561 -0.00014781 -9.042798e-05 0.00019748133 -1.8415432e-05 -0.0005352665 4.804357e-05
-8.935354e-05 -0.0006240156 -0.00023816632 0.00017253029 0.00017442949 -7.850409e-05 -2.6780603e-05 -0.0002743979
00000000: 8d95 42b6 06d5 9ab5 4291 8337 3456 b73a
00000010: eb8b 8cba dc5a 8b3a fb6b 48ba fcc8 093a
00000020: 81ea 8d39 1848 51b8 f3f4 ae32 669c 1aba
00000030: f988 a339 e067 8fb9 8d35 6339 2645 27ba
00000040: 53e5 443a d99d 73b9 0ffc 993a 4d78 5eba
00000050: 1f5c 2b3a 62f5 863a 42d7 49ba c645 e5b9
00000060: 095c ce3a 3c10 a1ba bcd4 213a 075b c4b9
00000070: 741e 9339 1ef3 b53a e04b 1b37 04d7 b5b6
00000080: 5af6 8a37 ccb9 6b39 72fd 1ab9 27a4 bdb8
00000090: fe12 4f39 d77a 9ab7 2051 0cba 6482 4938
000000a0: 5163 bbb8 fa94 23ba 49bc 79b9 3fe9 3439
000000b0: 0fe7 3639 90a2 a4b8 e8a6 e0b7 10dd 8fb9

exp_avg_sq f4 [16, 3]
6.6563096e-08 6.838356e-09 3.64208e-08 1.6359609e-05 7.946673e-06 3.5833396e-05 3.3416214e-05 6.550934e-06
5.0638595e-05 1.115578e-05 3.4279585e-06 1.7526127e-05 1.7383941e-06 5.3787375e-07 2.2241582e-06 3.5054934e-05
5.6014796e-06 3.661518e-05 2.0553414e-05 1.6491209e-05 4.9170056e-05 1.0868791e-05 3.3437982e-06 1.1970187e-05
3.3320932e-05 6.7124706e-06 4.6557474e-05 6.2974655e-06 1.6830455e-06 7.003128e-06 3.1005288e-07 8.651497e-08
1.00747855e-07 3.225998e-07 1.2419444e-07 2.4870116e-07 6.9425864e-06 3.0162964e-06 1.4524097e-05 8.129214e-06
2.9504379e-06 1.1534564e-05 1.7356248e-06 4.271858e-07 1.5380868e-06 8.198191e-07 7.8839287e-07 2.1423573e-06
00000000: 73f1 8e33 d1f6 ea31 186d 1c33 fe3b 8937
00000010: b352 0537 d14b 1638 6328 0c38 18d0 db36
00000020: c764 5438 b629 3b37 e10b 6636 1205 9337
00000030: c452 e935 6762 1035 bf42 1536 f307 1338
00000040: 58f4 bb36 4093 1938 1f6a ac37 9a56 8a37
00000050: f23b 4e38 1a59 3637 0466 6036 90d3 4837
00000060: 14c2 0b38 af3b e136 b546 4338 d14e d336
00000070: 01e5 e135 69fc ea36 5875 a634 1cca b933
00000080: b85a d833 c731 ad34 4f5a 0534 3a85 8534
00000090: 5df4 e836 946b 4a36 86ac 7337 b562 0837
000000a0: 2300 4636 9384 4137 9df3 e835 f857 e534
000000b0: 4370 ce35 8a11 5c35 f2a1 5335 6bc5 0f36

exp_avg f4 [16]
-1.7066754e-05 -0.0058066994 0.0011525196 0.0016560124 -0.0012153401 0.001346377 -0.0030743342 -0.0016429138
-0.004892477 -0.0027976672 -5.5790497e-05 -0.00040089613 0.00074528804 0.0015245827 0.00021685772 0.0005431287
00000000: 932a 8fb7 2046 bebb 2410 973a 8e0e d93a
00000010: 0c4c 9fba ea78 b03a c57a 49bb 0a57 d7ba
00000020: 1251 a0bb 1159 37bb 9700 6ab8 5e2f d2b9
00000030: 6f5f 433a 82d4 c73a 4d64 6339 c060 0e3a

exp_avg_sq f4 [16]
1.6385594e-07 0.00046612922 0.00039418563 0.00019476905 6.9224307e-06 0.00046235175 0.00047753652 0.00011924598
0.00043774315 4.7573052e-05 4.124991e-07 4.3111172e-07 9.835315e-05 5.4180535e-05 2.619892e-06 1.1878018e-05
00000000: 61f0 2f34 ce62 f439 b3aa ce39 eb3a 4c39
00000010: 3a47 e836 cd67 f239 de5d fa39 b313 fa38
00000020: e480 e539 2d89 4738 7275 dd34 8b73 e734
00000030: f242 ce38 e83f 6338 67d1 2f36 b347 4737

exp_avg f4 [16, 16]
-1.3437193e-05 4.8331767e-06 -2.2854858e-05 1.2376768e-05 1.4749621e-05 -5.6179515e-06 2.0263251e-05 -4.7727985e-07
1.1860836e-05 -4.1071444e-06 -2.8369399e-05 -2.1111957e-05 -1.6108666e-05 1.58952e-06 5.147413e-05 -1.9602598e-05
-1.0942729e-05 0.00017683224 1.875573e-05 -6.586426e-05 0.00018557339 -7.7586854e-05 6.275795e-05 -3.9225473e-05
0.0001539329 9.116651e-05 3.992386e-05 -0.000120232056 -7.639818e-05 9.154947e-06 2.699595e-06 -0.000106546424
-0.00031196905 -2.0781263e-05 -0.00038339957 0.00036224542 -4.8341764e-05 -0.00017934358 0.00023316414 2.0725745e-06
6.604689e-05 -0.0001553963 3.2383514e-06 -0.00027227265 -0.00014575987 -2.9481515e-05 0.00015348141 -0.00021697418
-3.0838226e-05 -2.0961326e-05 -3.0778078e-06 9.534917e-05 -2.6817224e-05 -2.1970007e-05 5.633027e-06 0.00010497475
3.334095e-06 3.511936e-05 7.610884e-06 -6.369826e-06 -6.1034834e-06 -7.4234755e-05 1.0081478e-05 9.025003e-06
3.5622565e-05 2.5334948e-05 8.649027e-06 -3.537562e-05 2.137874e-05 -8.134583e-06 -7.647387e-05 -5.5130204e-05
4.4588714e-06 -4.2221967e-05 6.543672e-05 6.5391157e-07 9.4525414e-05 4.1263345e-05 -9.6368894e-05 7.903887e-05
-7.629688e-05 9.247855e-05 -3.1927633e-05 6.838692e-05 8.26903e-05 -0.000101142046 8.6147345e-05 5.8549005e-05
0.00012003172 8.098553e-05 5.927795e-05 -0.000116538526 -8.474794e-05 -6.776616e-05 -1.0064086e-05 -0.00010677169
-4.219597e-05 2.6825614e-05 -4.348611e-05 3.351693e-05 2.2368284e-05 -4.3901327e-05 3.7881542e-05 -4.9308483e-06
4.1024545e-05 -1.9412802e-08 2.3841545e-05 -5.611957e-05 -2.6770571e-05 -8.525972e-06 -2.687849e-06 -4.441426e-05
-0.00015329338 0.00011630605 -0.00017449028 0.00017375348 0.000118334996 -0.0001031652 0.00014727133 1.0432017e-05
0.00010314931 -1.8274486e-05 -5.210227e-05 -0.00020820211 -0.00013198888 -1.0003788e-06 0.00019592614 -0.0001580417
-0.00012672068 0.0002732143 -4.329672e-05 6.310629e-05 0.0002446883 -0.00017819075 0.00017416755 2.6615115e-05
0.00024294878 0.0001536769 0.00010552127 -0.0002501733 -0.00019847217 -5.249296e-05 -4.9167584e-06 -0.00023927791
-0.00016236419 0.00017646594 -0.00018240034 0.00011322161 0.00015059317 -0.000108215405 0.00017938866 -9.3262744e-05
0.000110602 -3.6229587e-05 -9.505603e-06 -0.00023361522 -0.00017849673 6.769545e-05 0.00013415677 -0.00021888528
-1.1054955e-06 1.2638769e-06 -1.8130143e-06 1.0878077e-06 2.0752375e-06 -4.6671826e-07 1.7591063e-06 -1.0293872e-07
1.2256475e-06 -1.3971884e-07 -2.6142714e-06 -2.1649312e-06 -1.6402342e-06 3.9103227e-07 4.881205e-06 -1.8119524e-06
0.00034259082 -0.00020433415 0.00049226 -0.00031005667 -0.00040164182 9.089021e-05 -0.0005695529 -8.860622e-06
-0.0002535754 1.8846891e-05 0.00073703943 0.00050209573 0.00055269594 -5.265094e-05 -0.0013087873 0.00058239995
1.9693439e-06 0.0001337299 2.3218372e-05 -4.8061083e-05 0.00013084726 -1.6777842e-05 3.981538e-05 -4.2662916e-05
6.596989e-05 5.0282004e-05 -7.0537153e-06 -6.513725e-05 -7.0944654e-05 3.885522e-05 3.919066e-05 -7.1862574e-05
-7.532535e-05 5.5086857e-05 -9.06403e-05 8.58939e-05 5.6206016e-05 -4.882989e-05 6.960441e-05 -1.5994192e-06
4.6540994e-05 -1.7442391e-05 -2.7220094e-05 -0.00010207907 -6.0370166e-05 5.4552984e-06 9.760103e-05 -7.38889e-05
9.932312e-05 0.00012659124 0.000113253605 -8.804316e-05 9.1774804e-05 -4.3595817e-05 -0.0001986635 -5.2691732e-05
5.0863237e-05 -3.7519014e-06 0.0002469722 3.2988814e-06 0.00021127719 3.984598e-05 -0.00034561436 0.00018974426
1.919374e-05 -8.742154e-05 8.262269e-05 4.5001078e-05 -0.00017120178 -3.8819326e-06 -0.000113260365 6.631411e-05
-9.0534755e-05 2.1933704e-06 0.00022406923 0.00011514232 0.00010872883 -6.624786e-05 -0.000365825 0.0001273617
00000000: 4e70 61b7 ac2c a236 6fb8 bfb7 d0a5 4f37
00000010: 2475 7737 d681 bcb6 00fb a937 6c1e 00b5
00000020: e7fd 4637 1ad0 89b6 d2fa edb7 9519 b1b7
00000030: 1921 87b7 7e57 d535 ede5 5738 4270 a4b7
00000040: aa96 37b7 0b6c 3939 a055 9d37 9b20 8ab8
00000050: 7a96 4239 20b6 a2b8 eb9c 8338 0886 24b8
00000060: 0c69 2139 a630 bf38 eb73 2738 1825 fcb8
00000070: f637 a0b8 3398 1937 b02a 3536 ad71 dfb8
00000080: c78f a3b9 6c53 aeb7 0503 c9b9 c2eb bd39
00000090: 93c2 4ab8 2d0e 3cb9 867d 7439 8f16 0b36
000000a0: a782 8a38 e0f1 22b9 7452 5936 d1bf 8eb9
000000b0: 1ed7 18b9 124f f7b7 daef 2039 9083 63b9
000000c0: 4b58 01b8 1bd6 afb7 568c 4eb6 32f6 c738
000000d0: 8df5 e0b7 3b4c b8b7 5503 bd36 e425 dc38
000000e0: 51bf 5f36 204d 1338 ff60 ff36 64bc d5b6
000000f0: 86cc ccb6 7bae 9bb8 9e23 2937 186a 1737
00000100: 7069 1538 6386 d437 4a1b 1137 4860 14b8
00000110: 7f56 b337 c579 08b7 9960 a0b8 9b3b 67b8
00000120: 6a9d 9536 7e17 31b8 123b 8938 7688 2f35
00000130: f23b c638 2e12 2d38 a819 cab8 acc1 a538
00000140: 9301 a0b8 0bf1 c138 09ea 05b8 f36a 8f38
00000150: 046a ad38 391c d4b8 01aa b438 8492 7538
00000160: 8ab9 fb38 c6d6 a938 37a1 7838 2566 f4b8
00000170: b4ba b1b8 ae1d 8eb8 ecd8 28b7 9dea dfb8
00000180: 94fb 30b8 9107 e137 db64 36b8 8894 0c38
00000190: 86a3 bb37 b122 38b8 ffe2 1e38 aa73 a5b6
000001a0: c511 2c38 34c1 a6b2 54ff c737 ee61 6bb8
000001b0: 5d91 e0b7 c50a 0fb7 e560 34b6 7349 3ab8
000001c0: 61bd 20b9 56e9 f338 61f7 36b9 9831 3639
000001d0: 9e2a f838 655a d8b8 d96c 1a39 2c05 2f37
000001e0: dd51 d838 294c 99b7 6388 5ab8 d450 5ab9
000001f0: 7f66 0ab9 c144 86b5 8671 4d39 ffb7 25b9
00000200: 53e0 04b9 343e 8f39 8099 35b8 ee57 8438
00000210: 8249 8039 b7d8 3ab9 bfa0 3639 8643 df37
00000220: 11c0 7e39 5424 2139 4d4b dd38 b129 83b9
00000230: f81c 50b9 e32b 5cb8 a2fa a4b6 ade6 7ab9
00000240: 4e40 2ab9 b709 3939 b842 3fb9 6471 ed38
00000250: 8ce8 1d39 b4f1 e2b8 471a 3c39 0e96 c3b8
00000260: fff2 e738 39f5 17b8 417a 1fb7 9cf6 74b9
00000270: da2a 3bb9 b8f7 8d38 6fac 0c39 9284 65b9
00000280: 8960 94b5 7ba2 a935 b256 f3b5 ca00 9235
00000290: 4f44 0b36 4591 fab4 6f1a ec35 290f ddb3
000002a0: ed80 a435 9f05 16b4 d770 2fb6 3c49 11b6
000002b0: 0526 dcb5 11ef d134 3bc9 a336 3632 f3b5
000002c0: c39d b339 8842 56b9 020b 013a 1a8f a2b9
000002d0: 7493 d2b9 4f9c be38 0c4e 15ba 15a8 14b7
000002e0: 50f2 84b9 6419 9e37 e135 413a 139f 033a
000002f0: cce2 103a 84d5 5cb8 9d8b abba 33ac 183a
00000300: 1229 0436 d939 0c39 13c5 c237 3295 49b8
00000310: 0b34 0939 24be 8cb7 70ff 2638 f5f0 32b8
00000320: 5159 8a38 e4e5 5238 f4ae ecb6 4b9a 88b8
00000330: 1fc8 94b8 7af8 2238 a760 2438 edb4 96b8
00000340: fdf7 9db8 100d 6738 2416 beb8 f021 b438
00000350: c0be 6b38 b2ce 4cb8 95f8 9138 a0ab d6b5
00000360: 0335 4338 4051 92b7 b556 e4b7 4913 d6b8
00000370: f935 7db8 a80c b736 27af cc38 cdf4 9ab8
00000380: b24b d038 94bd 0439 9182 ed38 d0a3 b8b8
00000390: 3977 c038 a7da 36b8 5450 50b9 5101 5db8
000003a0: fc55 5538 2dc9 7bb6 0c7c 8139 5a62 5d36
000003b0: 4a8a 5d39 4c20 2738 9333 b5b9 16f6 4639
000003c0: 3e02 a137 1556 b7b8 b845 ad38 8abf 3c38
000003d0: a184 33b9 8c41 82b6 3286 edb8 1e12 8b38
000003e0: 7add bdb8 d131 1336 20f4 6a39 9078 f138
000003f0: 5905 e438 8dee 8ab8 33cc bfb9 658c 0539

exp_avg_sq f4 [16, 16]
2.4030427e-09 5.680095e-09 1.4296043e-08 6.140792e-09 1.0480679e-08 1.3072511e-09 8.8553564e-09 3.0500255e-10
6.3690115e-09 3.615382e-10 2.23453e-08 7.758956e-09 8.245906e-09 7.447018e-10 6.634004e-08 9.655049e-09
6.822891e-08 3.202235e-07 2.2748596e-07 3.1626288e-07 5.8097663e-07 1.4369404e-07 1.1890258e-07 7.0963786e-08
4.431157e-07 5.8538905e-08 1.009604e-06 2.0169516e-07 1.9714032e-07 2.7019922e-08 1.7170089e-06 1.8713622e-07
4.4811773e-06 2.2792512e-06 1.2155019e-05 1.0023131e-05 9.136053e-06 1.9813717e-06 6.1636174e-06 7.0856476e-07
3.9978136e-06 1.8077411e-06 2.4684447e-05 3.1808142e-06 5.8250985e-06 7.7599265e-07 5.3048778e-05 6.086621e-06
1.1007926e-07 3.0812373e-07 4.4511674e-07 5.556736e-07 2.3286728e-07 1.4933197e-07 1.733472e-07 2.734776e-07
2.5296293e-07 1.569078e-07 1.5410262e-06 1.9664401e-07 2.581424e-07 1.5968428e-07 2.7687433e-06 2.3424718e-07
2.0153287e-07 6.8521945e-07 2.063408e-06 8.1094737e-07 1.5724893e-06 1.0068249e-07 1.2837936e-06 1.2819352e-07
1.0483047e-06 7.222038e-08 3.4054074e-06 8.0492686e-07 1.3919246e-06 1.6523202e-07 1.0204625e-05 1.417472e-06
6.7270264e-07 1.0364358e-06 8.20204e-07 1.1802163e-06 7.084646e-07 1.4006854e-06 8.5990024e-07 4.820638e-07
2.054432e-06 7.7497083e-07 1.4629798e-06 1.964693e-06 6.339971e-07 3.9094405e-07 1.7901177e-06 1.1272189e-06
1.6477616e-08 3.1998706e-08 2.1684771e-07 5.3658315e-08 1.4622816e-07 2.177004e-08 1.3458674e-07 6.9477792e-09
9.5590636e-08 3.3786782e-09 8.728273e-07 6.0774454e-08 1.36211e-07 1.8153738e-08 1.8837542e-06 1.4278544e-07
8.995227e-08 2.2137188e-07 3.9935355e-07 2.3780805e-07 1.6524326e-07 1.0780501e-07 8.9516355e-08 2.5174574e-08
1.8864282e-07 2.5226178e-08 1.2528602e-07 1.7982931e-07 4.9602583e-08 2.9307628e-08 5.2348474e-07 9.143234e-08
9.158834e-07 1.4446979e-06 2.034919e-06 1.502292e-06 1.6410951e-06 1.8937466e-06 1.8407228e-06 3.720991e-07
2.0443283e-06 1.0504531e-06 6.8077816e-06 2.8092625e-06 1.9145918e-06 7.409269e-07 1.1836548e-05 2.7506694e-06
1.2207195e-07 2.5856625e-07 4.038563e-07 1.838682e-07 1.5930111e-07 9.830995e-08 1.529393e-07 1.0021697e-07
1.1536115e-07 5.4358896e-08 3.6556123e-08 2.2586445e-07 1.1210737e-07 6.9375815e-08 2.685371e-07 1.9649406e-07
2.1437039e-09 1.617912e-08 3.3893077e-08 2.1432985e-08 5.800318e-09 1.9824098e-09 1.1404259e-08 2.8724279e-09
1.4674341e-08 9.350505e-10 4.2156557e-08 9.099738e-09 1.2657376e-08 5.7932115e-10 6.799048e-08 1.9970535e-08
1.8153885e-07 3.798037e-07 8.6462825e-07 2.8632851e-07 8.7925247e-07 1.3263472e-07 7.7833676e-07 4.9858162e-08
4.1868506e-07 2.3762695e-08 3.2039893e-06 4.863504e-07 6.6462826e-07 4.8887312e-08 7.7271325e-06 6.977176e-07
4.863397e-08 5.1199584e-07 8.571549e-07 3.1985715e-07 7.762594e-07 1.8352932e-08 4.7523093e-07 1.7863082e-08
3.7556785e-07 6.45155e-08 2.1764924e-06 2.0319942e-07 5.300061e-07 8.495558e-08 5.3592457e-06 5.5404627e-07
1.616767e-07 2.4979866e-07 9.937891e-07 4.213067e-07 2.0353785e-07 2.4934508e-07 2.7064263e-07 5.865952e-08
4.820561e-07 5.211087e-08 3.436044e-07 3.9415175e-07 2.1825478e-07 2.7573932e-08 1.048468e-06 3.5502896e-07
1.6829647e-06 2.7306348e-06 7.586113e-06 2.6451855e-06 7.690227e-06 3.184852e-07 6.6257717e-06 2.3713292e-07
3.478057e-06 1.0542126e-07 1.6724229e-05 6.536569e-06 6.277183e-06 3.8008952e-07 5.2677675e-05 6.8819845e-06
1.979995e-07 5.878538e-07 1.5287359e-06 7.004723e-07 1.16286e-06 1.15239665e-07 9.473296e-07 6.259453e-08
7.9068684e-07 2.5294081e-08 2.4845303e-06 6.9847937e-07 9.173928e-07 1.3925974e-07 7.4097093e-06 1.0492157e-06
00000000: c622 2531 a52a c331 a99a 7532 fafe d231
00000010: 840e 3432 cfaa b330 4522 1832 4bad a72f
00000020: 6bd6 da31 fac1 c62f d6f1 bf32 404c 0532
00000030: e1a9 0d32 bbb3 4c30 d376 8e33 5bdf 2532
00000040: 3d85 9233 2feb ab34 dd42 7434 d7ca a934
00000050: 69f4 1b35 514a 1a34 6257 ff33 c164 9833
00000060: 5ce5 ed34 356c 7b33 bb81 8735 8b91 5834
00000070: 85ad 5334 7019 e832 fa73 e635 9def 4834
00000080: 055d 9636 3df5 1836 69ed 4b37 0529 2837
00000090: 0d47 1937 b5f7 0436 12d1 ce36 3334 3e35
000000a0: f524 8636 83a1 f235 7211 cf37 f975 5536
000000b0: 3775 c336 cf4d 5035 b180 5e38 ad3b cc36
000000c0: b764 ec33 346c a534 61f8 ee34 9929 1535
000000d0: 120a 7a34 0f58 2034 5121 3a34 7ad2 9234
000000e0: f6ce 8734 7d7a 2834 42d5 ce35 1825 5334
000000f0: d296 8a34 ae75 2b34 a6ce 3936 6085 7b34
00000100: ef64 5834 ecef 3735 1479 0a36 e1af 5935
00000110: 520e d335 c936 d833 d04e ac35 91a5 0934
00000120: 7ab3 8c35 9317 9b33 7488 6436 2712 5835
00000130: 2ad2 ba35 a26a 3134 8834 2b37 f83f be35
00000140: c693 3435 aa1b 8b35 fd2b 5c35 ec67 9e35
00000150: 512d 3e35 2fff bb35 e5d3 6635 2c67 0135
00000160: dfde 0936 9707 5035 9a5b c435 2bd9 0336
00000170: f32f 2a35 f1e2 d134 fa43 f035 f24a 9735
00000180: a98a 8d32 f36e 0933 a5d6 6834 f175 6633
00000190: e402 1d34 d300 bb32 ec82 1034 50b9 ee31
000001a0: 8247 cd33 562e 6831 3c4c 6a35 1c83 8233
000001b0: 6541 1234 7ef0 9b32 4dd5 fc35 9050 1934
000001c0: c92b c133 3db2 6d34 bc66 d634 2e58 7f34
000001d0: b96d 3134 6e82 e733 233c c033 793f d832
000001e0: be8d 4a34 f4b0 d832 5c86 0634 1b17 4134
000001f0: 9e0a 5533 28c0 fb32 9985 0c35 7659 c433
00000200: 07db 7535 71e7 c135 a48f 0836 5ca2 c935
00000210: 9943 dc35 a32c fe35 c10e f735 e9c4 c734
00000220: 4b31 0936 4bfd 8c35 666e e436 c386 3c36
00000230: 707c 0036 1ce4 4635 9695 4637 2498 3836
00000240: e212 0334 13d1 8a34 96d1 d834 4e6d 4534
00000250: 5b0c 2b34 771e d333 a237 2434 dd36 d733
00000260: 77bc f733 3d78 6933 e201 1d33 2685 7234
00000270: aebf f033 c2fb 9433 752b 9034 e0fb 5234
00000280: 7050 1331 43fa 8a32 d591 1133 a21b b832
00000290: 234c c731 ec3a 0831 76ec 4332 4964 4531
000002a0: 6f1a 7c32 2a83 8030 a00f 3533 1255 1c32
000002b0: ba73 5932 1a3e 1f30 2902 9233 ac8b ab32
000002c0: 05ed 4234 d3e7 cb34 cd18 6835 b1b8 9934
000002d0: c505 6c35 5b6a 0e34 e5ee 5035 a123 5633
000002e0: a3c7 e034 b81e cc32 1e04 5736 bf8d 0235
000002f0: e868 3235 2bf8 5133 c8a3 0137 ca4a 3b35
00000300: 9ee1 5033 1670 0935 3c17 6635 d5b8 ab34
00000310: 2460 5035 86a6 9d32 3e23 ff34 5571 9932
00000320: a7a1 c934 c58b 8a33 db0f 1236 082f 5a34
00000330: be45 0e35 d370 b633 92d3 b336 c5b9 1435
00000340: 5a99 2d34 111c 8634 5562 8535 f42f e234
00000350: 0f8c 5a34 badd 8534 d74c 9134 d3f0 7b33
00000360: a566 0135 82d0 5f33 a178 b834 ce9b d334
00000370: 6b59 6a34 b8db ec32 16b9 8c35 cf9a be34
00000380: 3ae2 e135 f33f 3736 378c fe36 f183 3136
00000390: 4605 0137 46fc aa34 f252 de36 9a9e 7e34
000003a0: 9068 6936 f363 e233 024b 8c37 b354 db36
000003b0: 97a0 d236 1b0f cc34 39f2 5c38 cceb e636
000003c0: b099 5434 01cd 1d35 f72e cd35 1708 3c35
000003d0: 9113 9c35 ad79 f733 ff4b 7e35 b56b 8633
000003e0: 963f 5435 4646 d932 e8bb 2636 237f 3b35
000003f0: c142 7635 6d87 1534 eba0 f836 c7d2 8c35

exp_avg f4 [16]
-7.659161e-06 -2.9874138e-05 -0.00011331425 -3.2143391e-06 -5.4729944e-06 -2.7542905e-05 -1.6337526e-05 -9.46591e-05
-7.8895435e-05 -0.00010946539 -9.711395e-07 0.00021589185 -3.233731e-05 -4.8039296e-05 -8.595393e-06 4.1187417e-05
00000000: d97f 00b7 399a fab7 20a3 edb8 edb5 57b6
00000010: aaa4 b7b6 f00b e7b7 920c 89b7 b883 c6b8
00000020: aa74 a5b8 c990 e5b8 1958 82b5 0761 6239
00000030: eca1 07b8 cd7d 49b8 ef34 10b7 a7c0 2c38

exp_avg_sq f4 [16]
4.328556e-09 1.1649476e-07 3.7522934e-06 1.7699747e-07 5.768683e-07 1.2861796e-06 2.2290415e-08 2.8804277e-07
1.3889709e-06 2.9153443e-07 1.7163233e-08 2.270915e-07 1.953838e-07 5.8486495e-07 1.9446366e-06 4.0667118e-07
00000000: 62ba 9431 ac2b fa33 e9cf 7b36 b20c 3e34
00000010: 16da 1a35 cba0 ac35 2479 bf32 4ca4 9a34
00000020: ad6c ba35 3084 9c34 596e 9332 70d6 7334
00000030: b1ca 5134 9dff 1c35 9a80 0236 7654 da34

exp_avg f4 [5, 16]
1.7491639e-05 0.0007210332 0.00058892986 0.0002918599 8.1103324e-05 0.0006803632 0.00016477653 -0.0001499712
0.0010701519 -0.00029848816 5.0298037e-05 -4.2748357e-05 -0.00015600535 -1.4526704e-05 -0.00011268985 -0.00018844094
-1.5322807e-05 -6.709375e-05 0.0002336968 6.507455e-05 -0.00023007659 0.00017045783 0.00016023238 -0.00018708302
0.00020290058 0.00045151392 -3.633066e-05 0.00023851127 -7.917905e-05 0.00017586048 0.00036471966 -6.381001e-05
-1.9897609e-05 -0.0008709766 0.00024453664 0.00025486344 6.431129e-05 -0.00012700263 -0.00019736792 0.0005253749
-0.00086689775 0.0010397551 -1.4484131e-05 -7.409873e-05 0.0003447216 -8.80778e-05 -4.8337904e-05 -7.940469e-05
4.4177505e-06 0.000385553 -0.0003626394 -0.00042433784 1.4813272e-05 -0.00037438836 -5.9188184e-05 -0.00095735944
-0.0001291453 2.7077485e-05 -1.26962705e-05 -1.24201015e-05 -0.00019881633 0.00045494133 -3.404238e-05 0.00022751125
1.3310865e-05 -0.0001685212 -0.00070452894 -0.00018746432 6.9846894e-05 -0.00034943296 -6.845215e-05 0.00076904043
-0.00027701264 -0.001219865 1.3212707e-05 -0.000109244516 8.9281e-05 -0.0005282033 -0.00016964972 0.00010414723
00000000: 02bb 9237 b803 3d3a 6a62 1a3a c604 9939
00000010: 0416 aa38 675a 323a ddc7 2c39 9641 1db9
00000020: 5744 8c3a 677e 9cb9 1bf7 5238 b34c 33b8
00000030: 5e95 23b9 b8b7 73b7 e753 ecb8 3b98 45b9
00000040: 7a89 80b7 afb4 8cb8 820c 7539 a278 8838
00000050: b740 71b9 edbc 3239 0d04 2839 b72b 44b9
00000060: b6c1 5439 2cb9 ec39 c061 18b8 e218 7a39
00000070: ee0c a6b8 3067 3839 d837 bf39 bdd1 85b8
00000080: cae9 a6b7 4052 64ba 2735 8039 319f 8539
00000090: dcde 8638 022c 05b9 8cf4 4eb9 50b9 093a
000000a0: 8640 63ba 6448 883a de00 73b7 7465 9bb8
000000b0: c0bb b439 69b6 b8b8 6ebe 4ab8 1186 a6b8
000000c0: 303c 9436 0c24 ca39 a320 beb9 a979 deb9
000000d0: 8586 7837 8e49 c4b9 d440 78b8 4ef7 7aba
000000e0: 2d6b 07b9 7524 e337 1102 55b7 ee5f 50b7
000000f0: 5a79 50b9 3185 ee39 bac8 0eb8 1690 6e39
00000100: bb51 5f37 11b5 30b9 23b0 38ba 1292 44b9
00000110: c47a 9238 1934 b7b9 f88d 8fb8 6e99 493a
00000120: 023c 91b9 e1e3 9fba 25ac 5d37 341a e5b8
00000130: 5f3c bb38 2077 0aba 00e4 31b9 9e69 da38

exp_avg_sq f4 [5, 16]
2.5548443e-08 3.3837255e-06 2.1199276e-05 3.6814731e-06 1.4837409e-06 4.199141e-05 3.2378318e-06 4.0090636e-06
3.3750854e-05 2.3830742e-06 3.437559e-07 7.2969506e-08 2.2153247e-06 8.856515e-06 1.7265957e-06 2.2217969e-06
1.0105217e-07 3.016025e-06 8.240256e-06 4.616932e-06 3.2240075e-06 1.0756286e-05 1.2590149e-06 4.7546437e-06
9.463177e-06 1.4931173e-06 4.885568e-07 5.226626e-07 1.7470168e-06 6.9541456e-06 4.6562236e-06 1.3408287e-06
9.991557e-09 5.984301e-06 1.0634544e-05 3.3993647e-06 4.043657e-07 6.778476e-06 1.9904421e-06 8.1462485e-07
1.983869e-05 5.707264e-06 3.3230552e-07 7.961702e-08 1.4572381e-06 5.0749622e-06 1.3667051e-07 1.2212515e-06
3.044956e-08 3.250973e-06 8.300779e-06 6.6911216e-06 3.1759188e-07 1.8241422e-05 1.9125316e-06 3.288518e-06
1.6493688e-05 8.826377e-07 3.483894e-07 3.855977e-08 8.877819e-07 1.1968791e-05 5.0962864e-08 1.0886998e-06
6.926305e-08 2.7072867e-06 4.282895e-05 2.4683657e-06 7.5016345e-07 7.70571e-06 1.6821684e-06 2.5971635e-06
1.0234601e-05 4.238873e-06 2.1187142e-07 1.2490798e-07 1.1261163e-06 5.8514956e-06 5.8151784e-07 1.5280773e-06
00000000: 9f75 db32 f613 6336 19d5 b137 3a0f 7736
00000010: f324 c735 ef1f 3038 8749 5936 9885 8636
00000020: b48f 0d38 e7ec 1f36 738d b834 69b3 9c33
00000030: fdaa 1436 7196 1437 60bd e735 2e1a 1536
00000040: 0502 d933 ea66 4a36 a13f 0a37 25eb 9a36
00000050: 075c 5836 e675 3437 6cfb a835 148a 9f36
00000060: 09c4 1e37 1f67 c835 5e25 0335 1a4d 0c35
00000070: 0a7b ea35 a857 e936 a83c 9c36 86f6 b335
00000080: 55a7 2b32 c1cc c836 056b 3237 a420 6436
00000090: 9917 d934 aa72 e336 8993 0536 98ac 5a35
000000a0: 436b a637 0681 bf36 b967 b234 ebf9 aa33
000000b0: 5296 c335 9849 aa36 b4bf 1234 e2e9 a335
000000c0: a5c7 0233 4a2b 5a36 9343 0b37 4c84 e036
000000d0: 7f81 aa34 2805 9937 0b59 0036 4fb0 5c36
000000e0: ed5b 8a37 67ee 6c35 460a bb34 ea9c 2533
000000f0: e84f 6e35 91cd 4837 43e2 5a33 711f 9235
00000100: c4bd 9433 d5ae 3536 3ca3 3338 33a6 2536
00000110: d75e 4935 c647 0137 dec6 e135 ee4a 2e36
00000120: 47b5 2b37 a43b 8e36 c67e 6334 721e 0634
00000130: 1025 9735 f757 c436 9a19 1c35 5618 cd35

exp_avg f4 [5]
-0.00032256328 0.00025004274 0.00019992482 2.4975413e-06 -0.00012989985
00000000: b61d a9b9 2b18 8339 e9a2 5139 6f9b 2736
00000010: ba35 08b9

exp_avg_sq f4 [5]
1.0750862e-05 3.2760256e-06 3.0137655e-06 2.544373e-06 4.1036624e-06
00000000: 9a5e 3437 b1d9 5b36 1940 4a36 ffbf 2a36
00000010: 31b2 8936
