tests/results/over-squashing-spec/2025-05-06/14-44-06-340918-over-squashing-spec/15/ckpt/374.ckpt (torch, 237202 bytes, 31 tensors)

model.encoder.node_encoder.encoder.weight f4 [16, 5]
-1.0808157 -0.82968855 1.0706224 0.5682534 0.31748235 -0.74859136 0.6775438 0.9142723
0.63678443 -0.9078187 0.64093953 -0.7017414 -0.80714685 0.1801366 0.965563 -0.7413078
0.7654671 -0.77211434 1.2349763 -0.5488932 0.95922786 -0.7308144 -0.03981878 0.25239435
0.8487537 -1.4730284 0.544424 -0.49688414 0.1144587 -0.3429194 0.8952662 -0.7424705
0.055255752 1.054077 1.3112906 -0.12680896 -0.1473283 1.0446404 -0.53795886 -1.0233208
0.58020663 0.58250093 -0.6647109 -0.56707066 0.66427237 0.5380849 -0.9483078 0.44982097
-0.7330134 -1.321999 0.7638731 0.3949715 0.02640795 -0.6143567 -0.86444294 -0.45789608
-1.0102472 0.06698906 0.9031038 0.012417554 -0.5239156 1.0567869 0.44642022 0.7475409
-0.53058696 -1.3037661 0.10542885 -1.1423011 0.34630105 0.5490948 -0.58469546 0.8342224
0.15088636 0.71037126 -0.90698695 -0.7827706 0.99855757 -0.9591478 1.0342904 0.858842
00000000: 2b58 8abf 7866 54bf 280a 893f 0e79 113f
00000010: 0c8d a23e afa3 3fbf 8373 2d3f c00d 6a3f
00000020: 4e04 233f ce66 68bf 9d14 243f 53a5 33bf
00000030: 2da1 4ebf bb75 383e 232f 773f 59c6 3dbf
00000040: a7f5 433f 49a9 45bf b413 9e3f 4484 0cbf
00000050: f58f 753f a716 3bbf 0419 23bd d539 813e
00000060: ec47 593f 328c bcbf 5f5f 0b3f 9967 febe
00000070: 5369 ea3d 2293 afbe 2a30 653f 8c12 3ebf
00000080: db53 623d ffeb 863f 5fd8 a73f 35da 01be
00000090: 3bdd 16be c7b6 853f acb7 09bf 2dfc 82bf
000000a0: 6c88 143f c81e 153f 7e2a 2abf 8b2b 11bf
000000b0: c10d 2a3f efbf 093f 4dc4 72bf ef4e e63e
000000c0: c4a6 3bbf 4337 a9bf 308d 433f b439 ca3e
000000d0: 7c55 d83c 7b46 1dbf 224c 5dbf 5b71 eabe
000000e0: c84f 81bf 8f31 893d d031 673f ff72 4b3c
000000f0: 551f 06bf cb44 873f 3191 e43e d75e 3f3f
00000100: 8cd4 07bf cfe1 a6bf 15eb d73d ec36 92bf
00000110: 5f4e b13e 7a91 0c3f 9aae 15bf 998f 553f
00000120: f481 1a3e e4da 353f 4c30 68bf a763 48bf
00000130: 78a1 7f3f b68a 75bf a163 843f 12dd 5b3f

model.encoder.node_encoder.encoder.bias f4 [16]
0.41563985 1.0729036 -0.8073555 0.4954432 -1.2974843 -1.5290757 -0.96933055 1.4660451
-0.81418973 0.91465056 1.2685813 1.7288532 2.1367123 -1.2633897 2.089708 0.076567866
00000000: bfce d43e e854 893f daae 4ebf bbaa fd3e
00000010: f713 a6bf c1b8 c3bf 0c26 78bf 5ea7 bb3f
00000020: bd6e 50bf 8a26 6a3f df60 a23f 104b dd3f
00000030: e5bf 0840 c1b6 a1bf c7bd 0540 9dcf 9c3d

model.gnn_layers.0.factor_split f4 [16, 2]
1.0 1.0 1.0 1.0 1.0 1.0 1.0 1.0
1.0 1.0 1.0 1.0 1.0 1.0 1.0 1.0
1.0 1.0 1.0 1.0 1.0 1.0 1.0 1.0
1.0 1.0 1.0 1.0 1.0 1.0 1.0 1.0
00000000: 0000 803f 0000 803f 0000 803f 0000 803f
00000010: 0000 803f 0000 803f 0000 803f 0000 803f
00000020: 0000 803f 0000 803f 0000 803f 0000 803f
00000030: 0000 803f 0000 803f 0000 803f 0000 803f
00000040: 0000 803f 0000 803f 0000 803f 0000 803f
00000050: 0000 803f 0000 803f 0000 803f 0000 803f
00000060: 0000 803f 0000 803f 0000 803f 0000 803f
00000070: 0000 803f 0000 803f 0000 803f 0000 803f

model.gnn_layers.0.filter.filter.distance_expansion.offset f4 [20]
0.0 1.0526316 2.1052632 3.1578948 4.2105265 5.263158 6.3157897 7.3684216
8.421053 9.473684 10.526316 11.578947 12.631578 13.68421 14.736842 15.789474
16.842106 17.894737 18.947369 20.0
00000000: 0000 0000 a2bc 863f a2bc 0640 f31a 4a40
00000010: a2bc 8640 ca6b a840 f31a ca40 1cca eb40
00000020: a2bc 0641 3694 1741 ca6b 2841 5e43 3941
00000030: f21a 4a41 86f2 5a41 1bca 6b41 afa1 7c41
00000040: a2bc 8641 6c28 8f41 3694 9741 0000 a041

model.gnn_layers.0.filter.filter.linear.0.weight f4 [3, 20]
0.5273561 -0.80014384 -1.1098067 1.7189193 0.013167933 -0.9537254 -0.03771273 0.96157575
0.3080023 -0.65569323 -0.43941042 0.60774094 -0.0145256445 -0.5016485 -0.037509054 -0.26924688
-0.22602086 -0.093504965 0.019613465 -0.065255575 -0.13374086 0.49800447 0.6461284 -2.0460432
1.2489643 -0.3514754 -1.2030612 0.5042053 -0.6255964 0.40843514 -0.23931916 -0.84361994
0.8161306 0.3312951 -1.0673585 -0.0128358435 0.16226858 0.5056543 0.91113526 2.1324346
0.49826378 -0.8903691 -0.544547 2.1432304 -0.46368736 -0.6936459 -0.17353244 0.10628514
0.2931994 -0.11153333 -0.087326616 0.25579676 -0.3030882 0.021696787 0.65673536 0.19747975
0.28005922 1.0286685 0.8743669 0.45021528
00000000: cf00 073f 3ad6 4cbf 250e 8ebf 8c05 dc3f
00000010: 50be 573c 5927 74bf aa78 1abd d429 763f
00000020: 7ab2 9d3e 83db 27bf 67fa e0be e994 1b3f
00000030: f8fc 6dbc 096c 00bf 18a3 19bd bada 89be
00000040: 0372 67be 887f bfbd 6bac a03c b7a4 85bd
00000050: 5df3 08be 71fa fe3e ac68 253f 5ff2 02c0
00000060: 10de 9f3f 95f4 b3be e9fd 99bf 9913 013f
00000070: 1627 20bf 691e d13e 1510 75be 7af7 57bf
00000080: efed 503f 839f a93e 349f 88bf 6e4d 52bc
00000090: bc29 263e 8f72 013f 2940 693f cf79 0840
000000a0: 6e1c ff3e 3bef 63bf 6f67 0bbf b02a 0940
000000b0: 6e68 edbe c792 31bf 7db2 31be 06ac d93d
000000c0: 3b1e 963e 966b e4bd 4cd8 b2bd cbf7 823e
000000d0: 602e 9bbe 76bd b13c cf1f 283f 2238 4a3e
000000e0: ec63 8f3e 69ab 833f 82d6 5f3f 9e82 e63e

model.gnn_layers.0.filter.filter.linear.1.weight f4 [16, 3]
1.6526258 -0.69436 0.9046878 1.1571919 -0.37191454 1.6024762 0.8289228 -0.9886879
0.9532736 -1.3169202 1.1015658 -1.9968046 0.41366825 -0.934887 0.43967262 -1.5527384
1.1286309 -0.72024643 -1.7088449 0.10621645 -0.7473412 0.8223334 0.11887669 0.77599084
-1.0947516 -0.036166023 -1.035071 -1.4011095 -0.334677 -1.1793122 -0.13784248 -0.61349916
0.9594707 1.2813926 -0.44390216 1.9617672 1.757584 -1.7704421 2.278282 1.7786239
-0.57754487 1.3058869 -2.0990663 1.8461915 -1.2998431 -0.67539966 -0.7389105 -1.1230818
00000000: 3e89 d33f 94c1 31bf 9f99 673f dd1e 943f
00000010: 956b bebe f11d cd3f 4934 543f a61a 7dbf
00000020: bd09 743f d790 a8bf 1c00 8d3f 4b97 ffbf
00000030: 53cc d33e c154 6fbf c51c e13e 22c0 c6bf
00000040: fa76 903f 1262 38bf 6ebb dabf 0388 d93d
00000050: c151 3fbf 7184 523f 9f75 f33d 56a7 463f
00000060: d220 8cbf d322 14bd 357d 84bf 8e57 b3bf
00000070: c95a abbe b4f3 96bf 9426 0dbe 480e 1dbf
00000080: df9f 753f ac04 a43f 2547 e3be 301b fb3f
00000090: 83f8 e03f d99d e2bf 5fcf 1140 f3a9 e33f
000000a0: fbd9 13bf 4d27 a73f 1a57 06c0 0150 ec3f
000000b0: 4261 a6bf fee6 2cbf 3d29 3dbf 25c1 8fbf

model.gnn_layers.0.filter.filter.linear.1.bias f4 [16]
0.006784333 -0.038442787 0.029277204 -0.050799612 0.22053349 -0.04286167 -0.046572983 0.10048055
-0.31574938 0.15005828 0.32066724 0.004220873 0.12429785 -0.04967142 -0.14876504 0.48862717
00000000: 1c4f de3b 2f76 1dbd bfd6 ef3c 4113 50bd
00000010: 88d3 613e b88f 2fbd 50c3 3ebd bfc8 cd3d
00000020: e7a9 a1be e1a8 193e 7f2e a43e 404f 8a3b
00000030: df8f fe3d 4274 4bbd dd55 18be 572d fa3e

model.gnn_layers.0.feature_transform.layer_real.lin1.weight f4 [16, 16]
0.9065262 1.411721 -2.113955 1.0511472 -1.2650093 -0.8351592 -0.46679914 2.2726624
-1.846433 0.84856427 1.2998434 1.7721915 1.1554354 -1.080871 1.6434392 -0.26947653
0.57761616 0.8987772 -1.296192 0.79703534 -0.82162136 0.38957176 -1.009803 1.1174898
-1.2126703 0.6934383 0.4958589 0.76753694 0.84139186 -0.3126187 0.95471203 -0.087490745
-0.48922634 -0.13910641 -0.15741833 -0.0690386 -0.10908043 -0.0039821696 -0.08764375 0.11796028
-0.19827667 0.32692948 0.14011633 0.4272184 -0.2937199 0.31745 -0.16372608 0.35470113
0.7269258 1.1853874 -1.422951 1.7995435 -1.1141759 0.29766813 -0.6842036 1.2380766
-1.2832005 0.01309308 0.9555126 1.8068193 1.0737106 -0.7751966 1.7719603 0.97626555
-0.48739526 -0.18457514 -0.22535843 -0.19568616 -0.5622769 0.479739 -0.45386577 -0.1499776
0.3253326 0.24911673 0.3741457 -0.513123 -0.1756673 0.26924822 -0.3260406 -0.16025308
-1.299932 0.009566559 0.5506673 -0.10908617 0.5364183 -0.28361356 -0.24221252 0.86325765
0.4568346 0.9423682 1.1922141 -0.15770788 -0.010210368 -0.6812899 0.31237572 -0.73082983
-0.9014009 0.28877425 -1.2034782 0.6516953 -1.0488559 0.6645705 -0.92388153 0.5214823
0.75490284 0.094806835 0.52558553 -0.75474304 0.11052224 0.118560985 0.37221977 1.1045783
-0.97176063 0.0552956 0.2674194 0.26634172 -0.02712235 -0.4443913 -0.19361192 -0.12795834
0.93585706 -0.32214314 1.1203314 -0.54492927 0.34817964 -0.70533776 0.14871888 0.26776642
-0.5751453 -0.012938647 -0.07264967 -0.29648492 0.03208656 -0.44440746 -0.36756006 0.048238162
0.07960114 0.14407893 -0.08325362 -0.24354982 0.23502563 -0.20361759 -0.18032758 0.5640521
0.17983659 -0.22356597 -0.26079676 -0.5297155 0.24265046 -0.13849205 0.11510825 0.21650264
-0.36362058 0.0709142 -0.11765625 -0.23282081 -0.28741664 0.22841044 -0.26406887 -0.33313838
0.88716406 -0.105409645 -0.4166582 -0.22878024 0.1988655 -0.15110797 -0.017647441 0.6432075
-0.50026107 0.20920138 -0.32539883 0.7328374 0.040618595 -0.08021355 0.0030249127 -0.21128257
1.1107141 0.19815433 0.9511864 1.5953131 -0.18061972 -0.14824437 0.0002811035 -0.30569658
-0.29595393 -0.28676337 -0.2040241 1.5473344 0.76560736 0.37022465 1.0256954 1.2042896
-1.0856701 0.5015666 -1.4122343 0.7562419 -0.7223237 0.4403688 -0.76988333 0.254187
0.97992647 -0.49371266 0.8634443 -1.5834991 0.34900734 -0.02233824 0.085882835 0.7548968
0.4323684 0.23953882 -0.84917015 -0.9988406 -0.20774719 -0.39824688 -0.7511943 1.2755674
-0.8623907 1.0568686 1.0966634 0.48967966 -0.01657274 -0.74727476 0.0022897334 -1.2750772
-1.2438121 0.34465018 -1.4325498 0.3006657 -0.90577835 0.22344626 -0.86741996 0.48052916
1.2913716 -0.4750427 1.3216424 -1.7511228 0.48209992 -0.4079456 0.19249995 0.32883725
0.08397871 0.15136361 0.07769567 -0.36951277 0.014580363 0.18484533 0.027692148 -0.044185445
0.42621285 -0.13535735 -0.08711412 -0.37534317 -0.11380109 -0.19549179 -0.0071733515 -0.15793361
00000000: 1a12 683f 46b3 b43f 0a4b 07c0 fe8b 863f
00000010: d3eb a1bf fecc 55bf 4c00 efbe 4d73 1140
00000020: eb57 ecbf 823b 593f 4561 a63f 2cd7 e23f
00000030: 4fe5 933f fb59 8abf 375c d23f d4f8 89be
00000040: a7de 133f 4316 663f 9fe9 a5bf 820a 4c3f
00000050: c755 52bf f375 c73e 3a41 81bf e809 8f3f
00000060: c838 9bbf 2c85 313f 38e1 fd3e 4d7d 443f
00000070: 7565 573f 8f0f a0be 0268 743f 592e b3bd
00000080: e07b fabe e971 0ebe 4532 21be 1c64 8dbd
00000090: 8f65 dfbd dc7c 82bb 917e b3bd 2995 f13d
000000a0: 0a09 4bbe 4d63 a73e a87a 0f3e 5fbc da3e
000000b0: 7462 96be ce88 a23e cfa7 27be 639b b53e
000000c0: cf17 3a3f c6ba 973f 4223 b6bf 7157 e63f
000000d0: 519d 8ebf f567 983e f827 2fbf 4b79 9e3f
000000e0: ea3f a4bf 5c84 563c 799c 743f db45 e73f
000000f0: 596f 893f 4973 46bf 98cf e23f 8aec 793f
00000100: df8b f9be 4401 3dbe 5cc4 66be f461 48be
00000110: 61f1 0fbf 5aa0 f53e 1861 e8be ba93 19be
00000120: ff91 a63e 7518 7f3e 0690 bf3e 075c 03bf
00000130: 21e2 33be e7da 893e cbee a6be 6219 24be
00000140: 2c64 a6bf 0fbd 1c3c 88f8 0c3f 9268 dfbd
00000150: b652 093f cc35 91be 8f06 78be 74fe 5c3f
00000160: 3ae6 e93e 0b3f 713f 799a 983f 2d7e 21be
00000170: 6349 27bc 0469 2ebf b6ef 9f3e aa17 3bbf
00000180: 36c2 66bf 38da 933e 930b 9abf 81d5 263f
00000190: e940 86bf 4b21 2a3f 8083 6cbf dd7f 053f
000001a0: 5041 413f 162a c23d c68c 063f d736 41bf
000001b0: 7c59 e23d 1ad0 f23d 9793 be3e d262 8d3f
000001c0: 4ec5 78bf a47d 623d 32eb 883e f15d 883e
000001d0: b12f debc 4287 e3be 3442 46be 8307 03be
000001e0: 5494 6f3f f2ef a4be 0567 8f3f 7c80 0bbf
000001f0: 9a44 b23e 0491 34bf c349 183e ae18 893e
00000200: b93c 13bf 9efc 53bc 5ac9 94bd dfcc 97be
00000210: 326d 033d 6089 e3be d530 bcbe 6195 453d
00000220: ec05 a33d 6d89 133e e080 aabd 2065 79be
00000230: 8faa 703e 2181 50be cba7 38be b865 103f
00000240: 1527 383e 7aee 64be 2787 85be 6f9b 07bf
00000250: 5d79 783e dcd0 0dbe e0bd eb3d deb2 5d3e
00000260: 7a2c babe 773b 913d c3f5 f0bd 9468 6ebe
00000270: 4628 93be 6de4 693e 0934 87be 1d91 aabe
00000280: 2f1d 633f 03e1 d7bd 3954 d5be 5e45 6abe
00000290: 66a3 4b3e 0cbc 1abe 5e91 90bc 3fa9 243f
000002a0: 1c11 00bf e338 563e ad9a a6be 3b9b 3b3f
000002b0: af5f 263d 0047 a4bd 9d3d 463b 755a 58be
000002c0: e12b 8e3f f8e8 4a3e f480 733f 3833 cc3f
000002d0: 60f4 38be 5fcd 17be 1361 9339 4384 9cbe
000002e0: 4687 97be a6d2 92be b2eb 50be 0e0f c63f
000002f0: d8fe 433f 168e bd3e fd49 833f 2926 9a3f
00000300: 3df7 8abf ab66 003f 18c4 b4bf 1299 413f
00000310: 35ea 38bf 0578 e13e 1317 45bf cc24 823e
00000320: 76dc 7a3f e8c7 fcbe b00a 5d3f 19b0 cabf
00000330: 17b1 b23e affe b6bc 57e3 af3d eb40 413f
00000340: 645f dd3e aa49 753e 3763 59bf 04b4 7fbf
00000350: aebb 54be 04e7 cbbe 454e 40bf cb45 a33f
00000360: a3c5 5cbf 7847 873f 775f 8c3f 4bb7 fa3e
00000370: 8ec3 87bc 664d 3fbf 5a0f 163b bb35 a3bf
00000380: 3c35 9fbf fd75 b03e cb5d b7bf dbf0 993e
00000390: 17e1 67bf 19cf 643e 3c0f 5ebf eb07 f63e
000003a0: aa4b a53f cc38 f3be 942b a93f cb24 e0bf
000003b0: cdd5 f63e 3fde d0be b51e 453e 5b5d a83e
000003c0: 08fd ab3d 10ff 1a3e e81e 9f3d c730 bdbe
000003d0: 7ae2 6e3c 1848 3d3e a5da e23c ccfb 34bd
000003e0: 9238 da3e 1e9b 0abe e368 b2bd fb2c c0be
000003f0: 8c10 e9bd 002f 48be 6f0e ebbb 59b9 21be

model.gnn_layers.0.feature_transform.layer_real.lin1.bias f4 [16]
1.2936225 0.5139379 0.18116789 1.2440912 0.07036723 0.53089535 0.2371318 0.9308114
0.018800268 -0.091493145 0.048611462 1.3562552 0.17434046 0.76707965 0.68354607 -0.2484917
00000000: 6c95 a53f 6f91 033f 1384 393e 613e 9f3f
00000010: b21c 903d c2e8 073f aed2 723e a849 6e3f
00000020: 0503 9a3c c260 bbbd d01c 473d c599 ad3f
00000030: 4e86 323e 555f 443f e0fc 2e3f 9c74 7ebe

model.post_mp.mlp.1.weight f4 [5, 16]
-1.4329247 -1.0503565 -0.51665217 1.0738249 -0.46198872 1.8588367 -0.30440474 0.6647275
0.71712446 1.1513278 0.28181258 -0.91757363 -0.79340976 -1.3245686 -0.026069079 -0.94053394
-0.91759723 0.60898435 0.9268103 -0.79417425 0.4294585 -0.0018328148 1.2217056 0.78234375
0.7308699 -0.7845473 -0.49735323 -0.7917611 1.9267966 1.4842654 -1.7772986 0.39173257
1.1904565 1.2535847 1.0531694 1.8171066 -0.40186116 -0.19160585 -0.06418648 -0.55947626
-0.20697333 0.5681959 0.4440939 -0.98946816 -0.90641063 -1.4416982 1.0133888 -0.58874387
0.4449472 0.7360144 -0.059825126 -1.6003458 -0.42202675 -0.5574712 -0.49160084 -0.7349259
-0.99923724 -0.22836815 -0.33229247 1.184787 -1.2962831 1.5466413 1.8624856 -0.08903959
-0.022819292 -1.1209577 -0.91414094 1.0388004 0.09630189 -0.9781315 -0.064379774 0.39050913
0.7863137 -1.183944 0.6932375 1.1961076 -0.7770975 0.82563704 0.76682013 0.90862405
00000000: 146a b7bf 1572 86bf 5143 04bf 1873 893f
00000010: c989 ecbe 5cee ed3f f0da 9bbe 952b 2a3f
00000020: 7895 373f b65e 933f bd49 903e 1be6 6abf
00000030: e71c 4bbf 778b a9bf d28e d5bc d5c6 70bf
00000040: a7e7 6abf 66e6 1b3f 7143 6d3f 014f 4bbf
00000050: fce1 db3e 0f3b f0ba d960 9c3f ae47 483f
00000060: 4a1a 3b3f 18d8 48bf 15a5 febe dbb0 4abf
00000070: 45a1 f63f 69fc bd3f 857e e3bf 2c91 c83e
00000080: e160 983f 7775 a03f 41ce 863f f396 e83f
00000090: bfc0 cdbe 5334 44be 3474 83bd d639 0fbf
000000a0: d1f0 53be 4975 113f 4760 e33e c94d 7dbf
000000b0: 870a 68bf 9189 b8bf b9b6 813f ebb7 16bf
000000c0: 1fd0 e33e 716b 3c3f 310b 75bd 22d8 ccbf
000000d0: e413 d8be 6fb6 0ebf 1bb3 fbbe 1b24 3cbf
000000e0: 03ce 7fbf 57d9 69be 3d22 aabe 1aa7 973f
000000f0: 9bec a5bf 58f8 c53f ee65 ee3f 635a b6bd
00000100: 86ef babc 8b7b 8fbf 2405 6abf 69f7 843f
00000110: ed39 c53d d366 7abf 8bd9 83bd d0f0 c73e
00000120: db4b 493f 7a8b 97bf 0378 313f 0e1a 993f
00000130: ddef 46bf f35c 533f 534e 443f 969b 683f

model.post_mp.mlp.1.bias f4 [5]
-0.002268094 -0.06646008 0.18092752 0.065159254 -0.096359506
00000000: 4ea4 14bb 391c 88bd 1045 393e 3772 853d
00000010: 2258 c5bd

exp_avg f4 [16, 5]
0.010719161 0.007596493 0.0016077533 0.0042956206 0.0038001176 0.0037448816 0.0030099892 -0.0009389426
0.00018920556 0.0047392007 -0.0007582734 -0.0005223245 0.00023568493 -0.00057252543 -0.0018309813 -0.00096968556
-0.0027691375 0.0025054992 -0.0117421 -0.0006939146 -0.00067312137 -0.000121425066 -0.000106789106 9.5204756e-05
-0.000158682 0.0025342233 -0.00036002634 4.327049e-05 -0.00039877003 -0.00016940618 -0.00023103286 -0.0002660556
-0.00017830633 -0.000612683 -0.0011798135 0.00039407343 0.0017227875 0.00041325475 0.0011658608 0.0026087835
-0.0028098528 -0.003121499 -0.0012285924 -0.0011953023 -0.0021574963 0.00029359444 0.0017122377 0.00028927566
0.0012107119 0.0024593838 -0.0010214156 0.00017978215 -9.582472e-05 0.00058036915 0.0014578585 0.0035522825
0.0037554805 0.0033654524 0.00054703135 -0.0025332132 0.00046365062 -0.0005415136 0.00026603273 -0.00035697097
-0.00020775595 0.0011317328 -0.0018531673 0.002235442 -0.0018979466 -0.002895156 -0.00021572899 -0.00065350736
0.00014070535 -0.0010497082 -0.0003759558 -7.156667e-05 -0.0017049601 -8.383279e-05 -0.0018854664 -0.002943089
00000000: 6b9f 2f3c 00ec f83b 40bb d23a 47c2 8c3b
00000010: 650b 793b b06c 753b 3d43 453b 5f23 76ba
00000020: 7b65 4639 4c4b 9b3b dec6 46ba 9bec 08ba
00000030: 3122 7739 8815 16ba 8afd efba 7f32 7eba
00000040: 6b7a 35bb 4d33 243b f061 40bc d2e7 35ba
00000050: 6974 30ba 96a5 feb8 f7f3 dfb8 aaa8 c738
00000060: e063 26b9 3615 263b ebc1 bcb9 567d 3538
00000070: 0212 d1b9 a0a2 31b9 6941 72b9 617d 8bb9
00000080: bef7 3ab9 769c 20ba f9a3 9aba a49b ce39
00000090: 28cf e13a 1daa d839 cccf 983a 20f8 2a3b
000000a0: 8225 38bb 1092 4cbb b808 a1ba b1ab 9cba
000000b0: c864 0dbb 94ed 9939 2a6d e03a eca9 9739
000000c0: c0b0 9e3a 9d2d 213b 05e1 85ba e783 3c39
000000d0: 81f5 c8b8 ea23 183a 9d15 bf3a 69cd 683b
000000e0: 821e 763b ec8e 5c3b a766 0f3a 4404 26bb
000000f0: 2216 f339 5df4 0dba 4f7a 8b39 d527 bbb9
00000100: 10d9 59b9 a756 943a fae5 f2ba 7e80 123b
00000110: 85c4 f8ba a8bc 3dbb 4f35 62b9 2350 2bba
00000120: 4e8a 1339 5d96 89ba ef1b c5b9 1016 96b8
00000130: f878 dfba 63cf afb8 c121 f7ba d7e0 40bb

exp_avg_sq f4 [16, 5]
0.00043736273 0.0004289511 0.00041871073 0.00041461684 0.0003794394 0.0007711865 0.0007603259 0.0007648665
0.00076403766 0.00077659765 0.0001023507 0.000101882615 0.00010224234 0.00010271215 0.00010403884 0.0008778233
0.00087323284 0.00088635547 0.00089488446 0.0008686369 5.8882157e-05 5.8836868e-05 5.8156475e-05 5.8689136e-05
5.859146e-05 3.9648712e-05 3.4431723e-05 3.3718603e-05 3.428104e-05 3.3935685e-05 8.848003e-05 9.823373e-05
8.827383e-05 9.163211e-05 9.039396e-05 0.00010022634 0.00010103658 0.00010098977 0.00010103712 0.00010322922
0.00012272083 0.00012390128 0.0001231848 0.00012308193 0.00012207872 9.49746e-05 9.5570234e-05 9.527175e-05
9.503649e-05 9.730065e-05 0.00011122912 0.00011191534 0.00011236842 0.00011407542 0.00011387257 0.00024810244
0.00025288828 0.0002459255 0.00024366194 0.00022775374 4.0912728e-05 4.143487e-05 4.0033196e-05 4.02952e-05
4.0707495e-05 0.00017330279 0.00016636688 0.00018321625 0.0001701284 0.00016720204 5.163498e-05 5.2715743e-05
5.1178293e-05 5.1616065e-05 5.3026855e-05 0.00010854027 0.000108634435 0.00010848343 0.000108845525 0.00010720727
00000000: d54d e539 d8e4 e039 6786 db39 ee60 d939
00000010: 7fef c639 7329 4a3a 9b50 473a 5281 483a
00000020: b349 483a 9694 4b3a 1da5 d638 d0a9 d538
00000030: f06a d638 2a67 d738 6d2f da38 b91d 663a
00000040: aae9 643a 4f5a 683a ae96 6a3a 3cb5 633a
00000050: 3cf8 7638 9bc7 7638 0aed 7338 fb28 7638
00000060: 1ac0 7538 7b4c 2638 c86a 1038 136d 0d38
00000070: fdc8 0f38 2a56 0e38 5b8e b938 d502 ce38
00000080: a71f b938 9d2a c038 e391 bd38 9b30 d238
00000090: 9ae3 d338 78ca d338 e4e3 d338 c47c d838
000000a0: 9fae 0039 7feb 0139 2b2b 0139 8e0f 0139
000000b0: 4202 0039 1a2d c738 e16c c838 a2cc c738
000000c0: 544e c738 e40d cc38 ae43 e938 17b4 ea38
000000d0: 56a7 eb38 c63b ef38 dfce ee38 bf13 8239
000000e0: 1796 8439 90ef 8039 817f 7f39 2ed1 6e39
000000f0: b599 2b38 5aca 2d38 51e9 2738 a402 2938
00000100: 57bd 2a38 9db8 3539 c572 2e39 bd1d 4039
00000110: 7f64 3239 f552 2f39 a392 5838 191b 5d38
00000120: 46a8 5638 547e 5838 2769 5e38 1da0 e338
00000130: abd2 e338 9981 e338 ff43 e438 77d4 e038

exp_avg f4 [16]
0.005594759 -0.000109737455 0.0013924153 0.00130314 0.001173728 0.001823737 0.0007754974 -0.0011101909
-0.00071112363 0.00063191616 -0.002004179 -0.002470714 -0.0021245428 0.0022397717 -0.0032423907 -0.0016932896
00000000: 3d54 b73b d922 e6b8 b481 b63a 1fce aa3a
00000010: c7d7 993a 760a ef3a c04a 4b3a d383 91ba
00000020: b36a 3aba 2da7 253a 8b58 03bb b4eb 21bb
00000030: ea3b 0bbb 22c9 123b 4a7e 54bb 5ff1 ddba

exp_avg_sq f4 [16]
8.11165e-05 9.663367e-05 1.9750203e-05 1.9866224e-05 7.5144703e-06 1.0235694e-05 2.3222346e-05 4.436155e-05
1.840043e-05 2.0865034e-05 4.3770684e-05 4.6899746e-05 1.1126824e-05 9.390678e-05 1.716036e-05 2.3614952e-05
00000000: 171d aa38 cea7 ca38 3dad a537 64a6 a637
00000010: cf24 fc36 f9b9 2b37 9ccd c237 da10 3a38
00000020: 9f5a 9a37 5207 af37 6a96 3738 38b6 4438
00000030: 58ad 3a37 d2ef c438 98f3 8f37 b918 c637

exp_avg f4 [3, 20]
0.0002197674 0.01878186 0.0026084224 -0.002196649 0.0028973136 -0.0025809829 -0.00050116493 0.0012263595
-0.0014413772 0.00034145065 0.0011245392 0.00055679167 0.0011938076 0.0003941714 -7.316356e-05 0.0006094862
0.00040628336 -0.00029635502 -0.00027186304 -8.306793e-06 -0.0017430608 -0.0115735 -0.0024802976 0.0006185288
-0.0016094729 0.0014038743 0.00023884649 -0.0005761604 0.0008468209 -0.00013454657 -0.00026455877 0.00024391027
-0.00037908694 -0.00020004112 1.2359659e-05 -0.00031962112 -0.00017022126 0.00013767707 9.226322e-05 -3.510245e-05
0.012579332 0.023328293 0.0013132727 -0.0031882378 0.0023233716 -0.0027825842 -0.0004409613 0.00095756014
-0.0015629743 0.00033672803 0.00050329167 -0.00031147088 0.0006946346 0.00026554472 0.0001865757 0.000852914
0.00045015785 -0.00019124034 -0.00015318858 2.3860399e-05
00000000: 5d71 6639 6adc 993c 11f2 2a3b a8f5 0fbb
00000010: dbe0 3d3b b525 29bb 9c60 03ba ccbd a03a
00000020: 98ec bcba bb04 b339 4665 933a a8f5 113a
00000030: 8979 9c3a caa8 ce39 636f 99b8 edc5 1f3a
00000040: 6e02 d539 1960 9bb9 d788 8eb9 675d 0bb7
00000050: 6a77 e4ba c79e 3dbc 7d8c 22bb c424 223a
00000060: f3f4 d2ba 3402 b83a de72 7a39 7809 17ba
00000070: 30fd 5d3a 1215 0db9 7ab4 8ab9 2ac2 7f39
00000080: 30c0 c6b9 21c2 51b9 555c 4f37 d292 a7b9
00000090: 6c7d 32b9 685d 1039 707d c138 f83a 13b8
000000a0: 8b19 4e3c fa1a bf3c 1f22 ac3a c1f1 50bb
000000b0: b543 183b 045c 36bb d330 e7b9 c604 7b3a
000000c0: b7dc ccba df8a b039 55ef 033a ea4c a3b9
000000d0: 2418 363a cf38 8b39 88a3 4339 1796 5f3a
000000e0: 2a03 ec39 b087 48b9 3fa1 20b9 d127 c837

exp_avg_sq f4 [3, 20]
0.014099875 0.0035129017 0.00012443206 8.473247e-05 4.6736433e-05 1.5626489e-05 2.6284157e-05 6.1930964e-06
1.3404739e-05 1.1770302e-05 1.619351e-05 1.10734545e-05 1.1174699e-05 5.877166e-06 4.2078286e-06 5.3740637e-06
3.044921e-06 1.2273337e-06 7.951719e-07 5.066353e-08 0.0021683166 0.0005188597 1.3131189e-05 9.828102e-06
2.5913157e-06 1.538086e-06 8.9859856e-07 5.9291375e-07 1.2350387e-06 1.3124875e-06 1.3655442e-06 1.0587341e-06
8.63894e-07 6.189148e-07 7.685834e-07 9.5036637e-07 3.7195872e-07 8.8923876e-08 2.5152385e-08 5.3327573e-09
0.01570252 0.0037816395 6.255722e-05 5.854533e-05 1.880966e-05 8.371383e-06 9.004705e-06 2.248796e-06
6.3969296e-06 5.0663434e-06 1.0731883e-05 4.528733e-06 4.030465e-06 4.0585414e-06 2.9645953e-06 2.9340417e-06
1.9590937e-06 1.3878573e-06 6.3072326e-07 3.4078848e-08
00000000: 2a03 673c b638 663b fa79 0239 66b2 b138
00000010: dd06 4438 a115 8337 cc7c dc37 4bce cf36
00000020: eae4 6037 1079 4537 4cd7 8737 20c8 3937
00000030: f77a 3b37 7934 c536 f930 8d36 db52 b436
00000040: 5857 4c36 ddba a435 cc73 5535 2499 5933
00000050: 511a 0e3b 1604 083a 074e 5c37 60e3 2437
00000060: 77e6 2d36 3c70 ce35 3937 7135 b928 1f35
00000070: 9bc3 a535 ba28 b035 be47 b735 d419 8e35
00000080: 58e6 6735 8023 2635 a650 4e35 ae1c 7f35
00000090: 9eb1 c734 6bf6 be33 ae0e d832 6e3b b731
000000a0: 92a2 803c 62d5 773b 2731 8338 928e 7538
000000b0: 70c9 9d37 d172 0c37 ea12 1737 05ea 1636
000000c0: 35a5 d636 8fff a936 160d 3437 85f5 9736
000000d0: 6e3d 8736 9b2e 8836 5cf3 4636 74e6 4436
000000e0: f978 0336 6a46 ba35 f94e 2935 175e 1233

exp_avg f4 [16, 3]
-0.0015130179 0.0033567275 -0.0027755531 -0.00051563745 0.0026013635 -0.0016632 9.9379595e-06 5.4159318e-05
-4.4908364e-05 0.0024922232 -0.0043308935 0.002934477 1.3852237e-05 2.2920383e-05 -1.0056641e-05 0.0031137695
-0.00047035402 0.0016424332 5.4199627e-05 -0.0002291653 0.0001932042 -0.00031811904 0.00034718637 -0.00020996237
2.1084325e-05 -3.3821696e-05 4.2323172e-05 0.00012290142 6.564999e-05 4.5760127e-05 9.882821e-05 7.148294e-05
-0.00020826083 -0.0015722875 0.0016271306 -0.0014524187 -0.00030032633 0.00066151144 -0.0004611958 -0.0015755318
0.001111238 -0.0029718645 0.00088737404 -0.00065022265 0.0007473919 0.000115980496 4.74903e-05 4.187492e-05
00000000: 7550 c6ba 8bfc 5b3b 0ee6 35bb d82b 07ba
00000010: a37b 2a3b bbff d9ba 36bb 2637 2029 6338
00000020: fd5b 3cb8 9154 233b 2bea 8dbb 5b50 403b
00000030: e866 6837 2645 c037 f2b8 28b7 6210 4c3b
00000040: d999 f6b9 ea46 d73a 6854 6338 184c 70b9
00000050: dc96 4a39 37c9 a6b9 9106 b639 5829 5cb9
00000060: 3ede b037 c5db 0db8 2984 3138 19df 0039
00000070: 92ad 8938 90ee 3f38 fe41 cf38 1ce9 9538
00000080: 9760 5ab9 3715 ceba 7145 d53a 165f beba
00000090: 1e75 9db9 4869 2d3a a7cc f1b9 1382 ceba
000000a0: f6a6 913a 9dc3 42bb aa9e 683a b473 2aba
000000b0: 9fec 433a 8e3a f338 5230 4738 daa2 2f38

exp_avg_sq f4 [16, 3]
2.8328064e-05 3.947408e-05 2.2531663e-05 9.749334e-05 0.00014163998 3.8333295e-05 3.8127464e-08 1.0348483e-08
2.48057e-08 2.8826522e-05 4.4527147e-05 1.721911e-05 7.948622e-09 7.692525e-09 1.8625515e-08 1.4167524e-05
1.2036404e-05 9.892586e-06 3.3676292e-06 1.3693481e-06 4.3985074e-06 9.172557e-06 1.2866944e-05 1.5548456e-05
3.526007e-08 8.29171e-09 3.7103757e-08 5.680279e-07 6.31974e-08 3.7146697e-07 2.2046227e-06 2.6582386e-06
2.767736e-06 9.354144e-06 2.3618344e-05 4.996173e-06 1.3371588e-06 9.3499096e-07 1.536751e-06 5.7218975e-05
3.1923177e-05 3.972837e-05 4.326506e-06 3.4585128e-06 3.1830293e-06 2.5511035e-08 3.169629e-08 4.0843688e-08
00000000: 0ea2 ed37 f890 2538 6102 bd37 5775 cc38
00000010: 3185 1439 10c8 2038 97c1 2333 1cc9 3132
00000020: 5014 d532 7cd0 f137 a9c2 3a38 c271 9037
00000030: 698e 0832 1528 0432 f1fd 9f32 0db1 6d37
00000040: f6ef 4937 55f8 2537 6eff 6136 71ca b735
00000050: e496 9336 d5e3 1937 1bdf 5737 0e6e 8237
00000060: db70 1733 5473 0e32 035c 1f33 947a 1835
00000070: 23b7 8733 086e c734 21f3 1336 3164 3236
00000080: 58bd 3936 beef 1c37 0220 c637 cda4 a736
00000090: 6d78 b335 17fc 7a35 5d42 ce35 68fe 6f38
000000a0: 40e5 0538 03a2 2638 672c 9136 cc18 6836
000000b0: 079c 5536 5c23 db32 7022 0833 1c6c 2f33

exp_avg f4 [16]
0.0020470938 -0.0001346254 -5.765664e-05 -0.0061560227 -7.124184e-05 0.005309071 0.00011991414 0.0010557082
-1.9217474e-05 -0.0003425272 -0.0011118792 0.0019759503 0.0012959716 -0.004911504 -0.0013034935 -0.00011325466
00000000: 8928 063b 3b2a 0db9 59d4 71b8 76b8 c9bb
00000010: ac67 95b8 b7f7 ad3b 6a7a fb38 b05f 8a3a
00000020: 3635 a1b7 3995 b3b9 7abc 91ba f27e 013b
00000030: 97dd a93a aff0 a0bb fcd9 aaba 2283 edb8

exp_avg_sq f4 [16]
0.00057323126 0.004388062 1.4620686e-07 0.0011880213 3.358841e-08 0.00015207277 6.82193e-06 6.282636e-05
1.3626033e-07 1.7991233e-07 2.352884e-05 0.00053517846 8.175027e-06 0.00085312 9.385802e-05 1.875183e-07
00000000: e644 163a bbc9 8f3b 09fd 1c34 61b7 9b3a
00000010: d942 1033 b975 1f39 efe7 e436 a5c1 8338
00000020: f44e 1234 ed2d 4134 cd5f c537 384b 0c3a
00000030: 7927 0937 eaa3 5f3a a4d5 c438 a358 4934

exp_avg f4 [16, 16]
-0.0002466215 -0.00027362205 0.0002388643 6.344941e-05 0.0002904107 0.00045435084 0.00025005208 -0.0005139286
0.0002992246 -0.00040902317 -0.00031839145 -0.00047629842 -0.0004410525 0.0004392317 -0.00043265545 0.00022243685
-0.00045953612 -7.956332e-05 0.00037774452 -4.158306e-05 0.00056889054 -0.0011820417 0.0011697449 -0.00052729103
0.00065895385 -0.001055566 0.00017699864 -0.00022305397 0.00066740566 -0.0007466074 0.00017225108 0.00080976286
5.8372494e-05 4.3236247e-05 -2.8774655e-05 -2.5875532e-05 1.5053814e-05 -1.1983722e-08 3.336844e-05 1.6306367e-05
-2.011852e-05 -2.7825057e-05 -3.137706e-05 -1.3627545e-05 1.7029484e-05 -2.730738e-05 -6.14591e-06 -1.0997844e-05
-0.0005352415 -0.0009424177 0.00032428582 -0.000946165 0.00046702384 0.00068291713 -0.00018413983 -0.00038784218
0.000691485 7.2982104e-05 -0.0002456509 -0.0012833896 -0.0015216805 0.000456218 -0.001431969 -0.0006744195
-4.3712407e-06 -3.7088043e-06 2.2157749e-06 -2.0624948e-06 8.544446e-06 1.3564197e-05 5.7205575e-06 -9.640342e-06
5.6912563e-06 -7.332712e-06 -8.397607e-06 -1.6957269e-05 -1.34169395e-05 7.3559872e-06 -1.3528031e-05 -1.1608807e-06
0.0006991177 -0.00063649175 0.00029474014 8.787076e-05 -0.00020416948 0.0022006982 -0.00057150814 -0.0007890851
6.8424306e-05 -0.0006950569 -0.0014215577 -0.00023544699 -0.0012868418 0.002366668 -0.0010208682 0.0005614726
1.392513e-05 -5.2663967e-05 3.978016e-05 -3.4360255e-05 3.5446323e-05 1.6907894e-05 1.8289848e-05 -1.548752e-05
-6.2827494e-06 3.438574e-05 -2.8382758e-05 1.03018465e-05 -8.318376e-05 3.0934298e-05 -6.565374e-05 -4.2488584e-05
0.00014717491 0.00014376883 -7.563675e-05 -1.3324111e-05 6.0848033e-05 1.43426105e-05 0.00012524011 2.9383884e-05
-8.16947e-05 -6.3521235e-05 -8.9046065e-05 -2.481352e-05 5.271149e-05 -7.852745e-05 3.4782383e-06 -2.8449878e-05
7.2865805e-05 8.384302e-05 -2.3004333e-05 3.020576e-05 5.3849628e-05 1.7400722e-06 0.000111301335 -1.2660948e-05
-4.858135e-05 -5.680385e-05 -5.913031e-05 1.8887387e-06 4.1664567e-05 -3.7941223e-05 1.5209746e-05 1.5492817e-05
-2.0094216e-05 -6.7638786e-05 1.9962617e-05 -4.0165967e-05 2.0866648e-05 0.0001250007 -4.8925613e-05 -2.5309704e-05
1.1663234e-05 5.076112e-05 -4.1979227e-05 -7.534165e-05 -0.00015450365 9.008257e-05 -0.00011596978 -7.622616e-05
-8.5058346e-05 -5.015138e-05 0.00016267056 -5.267017e-05 0.00041295832 -5.1787734e-05 0.00057634333 -0.00034688617
0.00020750194 -0.00044199868 -0.000214521 -0.00033732763 -0.0001115166 -7.331562e-05 -0.00025675597 0.0001653911
-0.00027737877 0.00054562883 -0.0006612518 -0.00024916412 2.8314944e-05 0.00021122924 -0.00039231285 0.00063511997
-0.0002787333 0.0008913516 0.00043520477 -0.0008038976 -0.00021306162 -0.0008124228 -9.2933224e-05 -0.0011958393
0.00010971055 -0.0006120729 0.0004457866 -0.0002656587 0.00048957375 0.0007429072 0.00023253703 -0.00043564802
1.1255055e-05 0.00015093974 -0.0006019156 -0.00024457814 -0.0012161321 0.0007282076 -0.0009829471 -0.0003817323
0.00028544856 0.00096464565 0.00010107068 0.000938325 0.00033926553 -0.0016275147 0.0019177254 -0.00066203414
0.00029903481 -0.0022613965 -0.00012560935 0.0006445937 0.0023581313 -0.00090174616 0.0014427676 0.0022303392
0.00036411625 -0.00052697177 0.00030263723 -0.0001564231 0.00032659044 0.0014354363 -5.978363e-05 -0.0004653661
-0.00013457131 0.00011446478 -0.00092437 -0.00033798488 -0.001439888 0.0012461737 -0.0011097215 -0.00037664216
-3.923154e-06 -9.986921e-07 -5.8689466e-07 6.5759905e-06 -1.9978181e-06 1.5151306e-05 -7.4013647e-06 -2.2938545e-06
-2.3438993e-06 5.7627385e-06 -2.1150452e-06 -3.6506467e-06 -8.414337e-06 1.0330043e-05 -2.7730084e-06 -3.1203776e-06
00000000: fa4c 81b9 ee74 8fb9 a677 7a39 2510 8538
00000010: 4442 9839 f035 ee39 6c19 8339 2ab9 06ba
00000020: 3fe1 9c39 2972 d6b9 c7ed a6b9 b1b7 f9b9
00000030: 113d e7b9 ae48 e639 08d6 e2b9 f03d 6939
00000040: e5ed f0b9 3bdb a6b8 030c c639 7869 2eb8
00000050: 9921 153a bdee 9aba 2052 993a e739 0aba
00000060: a5bd 2c3a eb5a 8aba b698 3939 98e3 69b9
00000070: d6f4 2e3a f9b7 43ba 4c9e 3439 4446 543a
00000080: fdd4 7438 9158 3538 1a61 f1b7 480f d9b7
00000090: a48f 7c37 f7e0 4db2 17f5 0b38 a8c9 8837
000000a0: 31c4 a8b7 db69 e9b7 dd9a 03b8 dca1 64b7
000000b0: 8ada 8e37 2712 e5b7 f738 ceb6 6183 38b7
000000c0: 734f 0cba 950c 77ba e804 aa39 0f08 78ba
000000d0: e1da f439 cb05 333a a915 41b9 4c57 cbb9
000000e0: c644 353a f80d 9938 b5ca 80b9 6937 a8ba
000000f0: 2073 c7ba 8b30 ef39 e8b0 bbba 87cb 30ba
00000100: acac 92b6 c6e4 78b6 b9b2 1436 6469 0ab6
00000110: 1e5a 0f37 c891 6337 37f3 bf36 f4bc 21b7
00000120: 85f7 be36 840b f6b6 73e3 0cb7 753f 8eb7
00000130: 5119 61b7 73d3 f636 73f6 62b7 8fcf 9bb5
00000140: ff44 373a 3dda 26ba 5a87 9a39 4147 b838
00000150: 5416 56b9 9739 103b 43d1 15ba 9bda 4eba
00000160: 057f 8f38 7b34 36ba 9053 baba 52e2 76b9
00000170: 3fab a8ba 1a1a 1b3b a7ce 85ba ca2f 133a
00000180: fa9f 6937 81e3 5cb8 9fd9 2638 0b1e 10b8
00000190: 33ac 1438 6dd5 8d37 266d 9937 32eb 81b7
000001a0: 68d0 d2b6 6839 1038 8217 eeb7 18d6 2c37
000001b0: f172 aeb8 73bf 0138 95af 89b8 c535 32b8
000001c0: f752 1a39 a7c0 1639 2c9f 9eb8 9f8a 5fb7
000001d0: 1437 7f38 0ba1 7037 e352 0339 697d f637
000001e0: 8253 abb8 b436 85b8 3ebe bab8 a126 d0b7
000001f0: 8816 5d38 1baf a4b8 ae6b 6936 a6a7 eeb7
00000200: 88cf 9838 e1d4 af38 6ef9 c0b7 6062 fd37
00000210: 99dc 6138 6d8c e935 736a e938 5c6a 54b7
00000220: d4c3 4bb8 ab40 6eb8 b002 78b8 9180 fd35
00000230: fdc0 2e38 1423 1fb8 5d2d 7f37 92f6 8137
00000240: 0090 a8b7 4cd9 8db8 6575 a737 e177 28b8
00000250: c90a af37 9f12 0339 7a35 4db8 2d50 d4b7
00000260: 35ad 4337 56e8 5438 da12 30b8 be00 9eb8
00000270: 4202 22b9 b6ea bc38 cd34 f3b8 9cdb 9fb8
00000280: 5a61 b2b8 a259 52b8 8c92 2a39 2aea 5cb8
00000290: 5482 d839 a836 59b8 bf15 173a 46de b5b9
000002a0: e194 5939 0fbc e7b9 0bf1 60b9 59db b0b9
000002b0: 05de e9b8 06c1 99b8 349d 86b9 d66c 2d39
000002c0: 266d 91b9 8808 0f3a db57 2dba 3ea2 82b9
000002d0: e185 ed37 6b7d 5d39 57af cdb9 2e7e 263a
000002e0: f322 92b9 98a9 693a 322c e439 a8bc 52ba
000002f0: 4b69 5fb9 c5f8 54ba 25e5 c2b8 b5bd 9cba
00000300: 6714 e638 8473 20ba 77b8 e939 1b48 8bb9
00000310: bd56 003a a9bf 423a 2fd5 7339 b067 e4b9
00000320: 18d4 3c37 9445 1e39 dfc9 1dba b93a 80b9
00000330: 9f66 9fba 2fe5 3e3a 3bd6 80ba 3e23 c8b9
00000340: 42a8 9539 46e0 7c3a e8f5 d338 edf9 753a
00000350: 73df b139 5552 d5ba 305c fb3a 5c8c 2dba
00000360: c6c7 9c39 f033 14bb 01b6 03b9 f3f9 283a
00000370: e18a 1a3b 2963 6cba 3f1b bd3a e22a 123b
00000380: dbe6 be39 7a24 0aba 48ab 9e39 8205 24b9
00000390: 3a3a ab39 4025 bc3a 2fc0 7ab8 61fc f3b9
000003a0: b61b 0db9 d00c f038 6c51 72ba 9033 b1b9
000003b0: a0ba bcba a756 a33a 1374 91ba 0e78 c5b9
000003c0: a3a3 83b6 cd0a 86b5 188b 1db5 54a7 dc36
000003d0: 4112 06b6 5d32 7e37 3d59 f8b6 1ff0 19b6
000003e0: e24b 1db6 8c5d c136 33f0 0db6 a2fd 74b6
000003f0: 4d2b 0db7 324f 2d37 ec17 3ab6 ae67 51b6

exp_avg_sq f4 [16, 16]
4.0345407e-07 1.2064814e-06 8.8928516e-08 1.8398877e-07 4.6149583e-07 2.1743915e-06 2.3313282e-06 4.7147685e-07
1.3916913e-07 1.2647411e-06 3.639764e-07 3.351279e-07 2.1521519e-06 2.199303e-06 5.915716e-07 5.882016e-07
1.816042e-05 5.409963e-05 2.5909571e-06 7.983086e-06 3.3880886e-05 0.00012043169 0.00016908586 5.526801e-06
4.5350175e-06 8.426522e-05 9.04765e-06 4.239913e-06 0.000103680824 0.000109242195 1.810395e-05 3.7328675e-05
3.0287662e-08 1.6966753e-07 3.9784993e-08 6.523457e-08 6.6387415e-08 1.1076532e-07 2.831081e-08 1.5576508e-07
3.509319e-08 4.301174e-08 1.2209411e-07 1.11206454e-07 2.471766e-07 1.5369572e-07 1.8218277e-07 2.4508102e-09
1.2859684e-06 4.914105e-06 3.1969043e-07 2.1998849e-06 6.0145494e-06 1.1337483e-05 2.322229e-05 3.685785e-07
1.2045725e-06 1.2726987e-05 5.826336e-07 9.149093e-07 9.772164e-06 9.74775e-06 2.3285195e-06 5.1518664e-06
4.917932e-10 2.5370372e-09 7.042976e-10 1.1757542e-09 1.6459787e-09 1.5227504e-09 1.3179088e-09 2.7142555e-09
7.4001943e-10 1.2936954e-09 2.0209814e-09 2.0035578e-09 3.6407977e-09 2.0588702e-09 3.0187803e-09 1.1167696e-10
5.3686326e-06 2.574266e-05 1.4854412e-06 4.1334483e-06 3.0356107e-06 5.6720375e-05 3.520792e-05 3.9049287e-06
2.9430518e-07 1.784791e-05 8.026297e-06 5.1011166e-06 6.21946e-05 5.3662086e-05 2.1169006e-05 1.2592248e-05
5.039919e-07 1.039189e-06 2.947918e-07 5.167711e-07 9.712338e-07 1.3556271e-06 1.515051e-06 9.5287055e-07
2.3990168e-07 5.6215e-07 7.366832e-07 8.0676926e-07 1.3077921e-06 1.1471361e-06 8.992129e-07 9.3489234e-08
4.633031e-07 9.637927e-07 2.5579348e-07 2.4329427e-07 2.5022875e-06 2.827891e-06 7.5637217e-06 9.139629e-07
6.46041e-07 4.637154e-06 7.006308e-07 6.0734504e-07 2.096571e-06 2.353451e-06 7.284093e-07 1.2332227e-06
1.3989028e-08 8.834867e-08 2.7082551e-08 3.205042e-08 8.213922e-08 1.2480636e-07 1.18542914e-07 1.03905336e-07
3.4084852e-08 9.1430586e-08 7.4027845e-08 1.0348427e-07 2.0577045e-07 1.1173129e-07 1.590667e-07 1.8904549e-08
1.0143784e-07 4.582095e-07 5.1352544e-08 1.4217788e-07 3.061705e-08 3.9164678e-07 5.7720758e-08 2.4840782e-07
3.019718e-08 2.2634204e-08 2.366403e-07 1.4606762e-07 6.2525993e-07 5.2209487e-07 2.900339e-07 4.0732967e-08
4.7074005e-07 1.1497775e-06 1.2908058e-07 2.0380938e-07 2.0266107e-06 3.3927454e-06 7.2828802e-06 5.6912984e-07
4.2494898e-07 4.216091e-06 3.824626e-07 4.7270092e-07 2.5919364e-06 2.8911859e-06 5.893277e-07 1.3616101e-06
6.7181077e-07 1.7425433e-06 5.5573696e-07 8.418183e-07 5.1588604e-06 5.439217e-06 1.585206e-05 1.7181758e-06
1.2406308e-06 9.839837e-06 7.7105386e-07 1.7659213e-06 3.982824e-06 4.7426693e-06 1.3584306e-06 3.3255542e-06
3.5497337e-06 1.66816e-05 5.6278697e-07 2.0438936e-06 1.1610416e-05 4.844964e-05 6.325427e-05 1.031702e-06
1.6076922e-06 3.279032e-05 2.9834375e-06 1.588774e-06 4.148411e-05 4.3682496e-05 8.599108e-06 1.4162311e-05
3.0751118e-05 0.00010320892 2.3002017e-06 1.9937395e-05 2.2956689e-05 0.00019382425 0.00018182315 1.7533703e-05
1.1452676e-06 8.879431e-05 2.9719416e-05 1.2609927e-05 0.00019356597 0.00019497845 4.4867513e-05 5.478545e-05
3.2017072e-06 1.4257228e-05 5.3560757e-07 1.3247841e-06 1.1913543e-05 4.899801e-05 6.267937e-05 1.1697698e-06
1.9252802e-06 3.3290074e-05 2.6416158e-06 2.3489786e-06 4.1701864e-05 4.1642634e-05 9.995765e-06 1.4305453e-05
4.682195e-10 6.4915595e-10 1.0033653e-10 1.5346943e-10 1.7163004e-10 1.7717248e-09 1.1703529e-09 1.5829449e-10
2.5637117e-11 3.3539385e-10 2.8095137e-10 6.330092e-10 1.6992597e-09 1.352621e-09 4.3773665e-10 7.3625994e-10
00000000: 4e9a d834 63ee a135 f8f8 be33 738e 4534
00000010: 81c3 f734 c3eb 1136 ea73 1c36 491f fd34
00000020: 856e 1534 2cc0 a935 8968 c334 a1eb b334
00000030: b06d 1036 bd97 1336 7ecc 1e35 e8e4 1d35
00000040: 3457 9837 09e9 6238 4ee0 2d36 18ef 0537
00000050: 531b 0e38 4590 fc38 a44c 3139 dc72 b936
00000060: 812b 9836 8cb7 b038 5ccb 1737 9344 8e36
00000070: 386f d938 f518 e538 f0dd 9737 5c91 1c38
00000080: a315 0233 db2d 3634 10e0 2a33 1617 8c33
00000090: de90 8e33 e1dd ed33 2130 f332 6140 2734
000000a0: 5fb9 1633 e9bb 3833 f918 0334 65d0 ee33
000000b0: b1b3 8434 8f07 2534 059e 4334 1c6b 2831
000000c0: 8a99 ac35 d7e3 a436 eba1 ab34 bca1 1336
000000d0: 96d0 c936 1e36 3e37 7dcd c237 0be1 c534
000000e0: ccac a135 fe85 5537 4766 1c35 1798 7535
000000f0: 20f3 2337 448a 2337 a943 1c36 32de ac36
00000100: df2e 0730 0858 2e31 8a98 4130 2c98 a130
00000110: ba38 e230 0449 d130 cb21 b530 b085 3a31
00000120: 3d6a 4b30 dccd b130 7be1 0a31 f6ae 0931
00000130: 9731 7a31 077c 0d31 f272 4f31 8a94 f52e
00000140: 3424 b436 f1f1 d737 5f5f c735 0db2 8a36
00000150: 65b7 4b36 0ae7 6d38 37ac 1338 1507 8336
00000160: ff00 9e34 18b8 9537 afa8 0637 422a ab36
00000170: 796e 8238 3a13 6138 1894 b137 4b43 5337
00000180: 0f4a 0735 437a 8b35 e043 9e34 3db8 0a35
00000190: 575b 8235 fef2 b535 c258 cb35 c4c8 7f35
000001a0: d6cb 8034 a7e6 1635 7cc0 4535 c390 5835
000001b0: 6587 af35 4cf7 9935 7161 7135 40c4 c833
000001c0: e5bb f834 aa5b 8135 fd53 8934 1c9e 8234
000001d0: f9ec 2736 ccc6 3d36 e0cb fd36 0d57 7535
000001e0: 996b 2d35 d998 9b36 fb12 3c35 6f08 2335
000001f0: d1b2 0c36 fbef 1d36 e887 4335 3685 a535
00000200: 6554 7032 32ba bd33 29a3 e832 cfa7 0933
00000210: 8464 b033 8302 0634 a891 fe33 9022 df33
00000220: b164 1233 7f58 c433 3df9 9e33 143b de33
00000230: c0f1 5c34 edf0 ef33 eccb 2a34 8b63 a232
00000240: 0bd6 d933 d6ff f534 b88e 5c33 8fa9 1834
00000250: cd7f 0333 8643 d234 a5e8 7733 e95c 8534
00000260: 27b2 0133 246d c232 3117 7e34 c3d6 1c34
00000270: 89d7 2735 1626 0c35 f5b5 9b34 5ff2 2e33
00000280: 05ba fc34 0e52 9a35 6699 0a34 b2d6 5a34
00000290: e800 0836 ecae 6336 775f f436 4ec6 1835
000002a0: 8b24 e434 f277 8d36 4255 cd34 85c7 fd34
000002b0: 21f1 2d36 3206 4236 4b32 1e35 91c0 b635
000002c0: 7c56 3435 55e1 e935 f42d 1535 50f9 6135
000002d0: 461a ad36 8582 b636 0afa 8437 129c e635
000002e0: c083 a635 c715 2537 6bfa 4e35 9804 ed35
000002f0: 33a4 8536 3823 9f36 5253 b635 962c 5f36
00000300: f637 6e36 77ef 8b37 6d12 1735 d329 0936
00000310: 5bca 4237 6836 4b38 61a7 8438 0379 8a35
00000320: e2c7 d735 5788 0938 1137 4836 dc3d d535
00000330: 39ff 2d38 b937 3738 e344 1037 aa9a 6d37
00000340: c3fa 0038 de71 d838 2a5d 1a36 3b3f a737
00000350: 1d93 c037 4d3d 4b39 c8a7 3e39 5715 9337
00000360: 18b7 9935 1537 ba38 f64d f937 398f 5337
00000370: f8f7 4a39 2173 4c39 2030 3c38 6ec9 6538
00000380: e9dc 5636 5432 6f37 acc6 0f35 3ccf b135
00000390: 47e0 4737 3683 4d38 bb72 8338 fc00 9d35
000003a0: 1034 0136 f2a0 0b38 9d46 3136 25a3 1d36
000003b0: 09e9 2e38 70a9 2e38 7cb3 2737 7401 7037
000003c0: 05b4 0030 4a70 3230 72a4 dc2e cebd 282f
000003d0: 90b5 3c2f 0681 f330 22da a030 f00b 2e2f
000003e0: a881 e12d 7d62 b82f 6474 9a2f 1000 2e30
000003f0: 638b e930 1fe7 b930 f5a5 f02f b061 4a30

exp_avg f4 [16]
-0.00024448487 0.0001882782 -1.1407096e-05 -0.00047249804 -8.767131e-06 -0.00042964861 -1.45199765e-05 -4.549377e-05
-2.7475317e-05 -5.2280862e-05 -0.00015501032 -0.00035732295 -0.00038694486 0.00053114 -0.0005399863 -4.4794742e-06
00000000: 342e 80b9 8b6c 4539 1b61 3fb7 9db9 f7b9
00000010: 8a16 13b7 7642 e1b9 d39a 73b7 90d0 3eb8
00000020: cb7a e6b7 2648 5bb8 448a 22b9 1357 bbb9
00000030: dcde cab9 343c 0b3a de8d 0dba 644e 96b6

exp_avg_sq f4 [16]
3.4460356e-07 6.339138e-06 9.378081e-08 6.3989216e-07 1.6000741e-09 5.72418e-06 6.2266713e-07 4.066161e-07
5.803635e-08 1.8050787e-07 2.4739055e-07 7.886285e-07 2.4728142e-06 1.9290954e-05 2.1945852e-06 5.58455e-10
00000000: f401 b934 c8b4 d436 8c64 c933 0ec5 2b35
00000010: 9ae9 db30 5512 c036 5c25 2735 e44c da34
00000020: a443 7933 a0d1 4134 19d1 8434 23b2 5335
00000030: a0f2 2536 02d3 a137 b046 1336 c781 1930

exp_avg f4 [5, 16]
0.0019373244 -0.00044399995 1.6341766e-06 0.00011588873 3.2056178e-05 -0.0025343543 -0.00028803427 -0.00045200207
-3.857335e-05 -0.0001011461 9.715384e-05 0.00073621195 0.00013354812 0.0008070875 0.00082279876 9.8326964e-05
0.0006622222 -0.00017245245 -7.6169654e-06 0.00039402553 3.6737035e-06 -5.4388896e-05 -0.00023113277 0.00017312897
3.0846048e-05 -5.0975145e-06 0.00016369001 0.00049473066 -0.0008681431 -4.4087064e-05 0.00088246376 -1.8547262e-05
-0.0030647083 -0.0016104055 -3.0745206e-05 -0.0022155487 5.947085e-06 0.00036131422 0.000111876245 -1.6204194e-05
-1.27705325e-05 -2.4716972e-05 -0.00022907456 0.0013805898 0.00035105905 0.0020548713 -0.00025000755 3.6840513e-05
-0.00058133027 -3.1879652e-05 -1.8577208e-05 0.0042093387 3.1224794e-05 0.00046366412 9.043706e-05 0.0002064873
4.0310875e-05 -1.6655964e-05 0.00042222327 -0.0013803231 0.00037198648 -0.0008927921 -0.0007986338 -1.2164805e-05
0.001046487 0.0022587294 5.5304925e-05 -0.0025036978 -7.290135e-05 0.0017637633 0.0003168518 8.859216e-05
-1.9812644e-05 0.00014761623 -0.00045398693 -0.0012312134 1.1547578e-05 -0.0019250759 -0.00065661507 -0.00010445537
00000000: d2ed fd3a aac8 e8b9 e155 db35 4a09 f338
00000010: 0f74 0638 6917 26bb 4e03 97b9 b1fa ecb9
00000020: d2c9 21b8 661e d4b8 12bf cb38 59fe 403a
00000030: 0d09 0c39 ba92 533a 17b1 573a e334 ce38
00000040: fb98 2d3a 5ad4 34b9 3c95 ffb6 3695 ce39
00000050: bf89 7636 a21f 64b8 3b5c 72b9 f489 3539
00000060: b160 0138 510b abb6 34a4 2b39 d0b0 013a
00000070: 1994 63ba 20ea 38b8 2455 673a f195 9bb7
00000080: 46d9 48bb 3e14 d3ba 6af4 00b8 bd32 11bb
00000090: 128d c736 c66e bd39 1a9f ea38 3eee 87b7
000000a0: 0541 56b7 4b57 cfb7 bc33 70b9 e8f4 b43a
000000b0: 590e b839 05ab 063b 7213 83b9 3385 1a38
000000c0: 6a64 18ba 84b6 05b8 40d6 9bb7 7eee 893b
000000d0: 5ef7 0238 f217 f339 07a9 bd38 8384 5839
000000e0: 7913 2938 69b8 8bb7 d95d dd39 f5eb b4ba
000000f0: 2e07 c339 430a 6aba 685b 51ba 7117 4cb7
00000100: 472a 893a 3107 143b 36f7 6738 1415 24bb
00000110: 9de2 98b8 132e e73a 211f a639 8eca b938
00000120: 5433 a6b7 6ec9 1a39 1805 eeb9 ab60 a1ba
00000130: 78bc 4137 d452 fcba b120 2cba 0d0f dbb8

exp_avg_sq f4 [5, 16]
2.212052e-05 3.3467066e-05 1.1219216e-08 1.1584909e-05 2.5719789e-08 9.890205e-06 5.3906497e-06 8.074962e-06
1.9532411e-08 3.4255913e-07 1.9538172e-06 5.2294226e-06 1.1467652e-06 2.013956e-05 3.5186927e-06 3.4676916e-08
1.0489587e-05 7.869788e-06 8.076617e-09 2.7121703e-06 3.8032148e-08 5.451288e-06 9.079098e-06 7.25807e-06
4.059473e-08 2.3650499e-07 3.8356693e-06 3.4950713e-06 4.5489955e-06 3.2896053e-06 4.1816133e-06 1.7441488e-08
3.3294782e-05 3.477107e-05 1.4848854e-08 1.12008565e-05 3.868321e-08 7.6225006e-06 7.752904e-06 1.387903e-05
3.471492e-08 3.6613986e-07 2.8650902e-06 4.5721176e-06 1.6029668e-06 1.6424321e-05 1.2177476e-06 3.0088902e-08
1.608068e-05 5.5034147e-06 1.166789e-08 2.6822523e-05 3.246434e-08 1.0944233e-05 1.26458635e-05 7.257307e-06
5.1911236e-08 1.2095963e-07 3.2894816e-06 7.3699134e-06 1.9852437e-06 2.1424416e-05 7.426364e-06 2.0081105e-08
3.4162702e-05 5.7377474e-05 2.7773673e-08 1.383273e-05 4.6244907e-08 1.4908237e-05 8.579054e-06 1.8466473e-05
3.1741557e-08 3.941566e-07 3.003215e-06 9.920902e-06 2.6575092e-06 2.1395426e-05 9.3321e-06 5.3427897e-08
00000000: 748f b937 fd5e 0c38 a2be 4032 ce5c 4237
00000010: 6aee dc32 1bee 2537 54e1 b436 b379 0737
00000020: 3ac8 a732 f8e8 b734 531e 0336 6678 af36
00000030: 8dea 9935 60f1 a837 ae22 6c36 acef 1433
00000040: 6ffc 2f37 7b08 0437 56c1 0a32 bb02 3636
00000050: ca58 2333 35ea b636 6e52 1837 598a f336
00000060: 615a 2e33 fff1 7d34 26b4 8036 de8c 6a36
00000070: 93a3 9836 fdc2 5c36 c94f 8c36 3dd2 9532
00000080: 00a6 0b38 27d7 1138 f319 7f32 50eb 3b37
00000090: a424 2633 c8c4 ff36 7812 0237 fbd9 6837
000000a0: 7519 1533 e191 c434 e045 4036 316a 9936
000000b0: 8525 d735 f6c6 8937 7d71 a335 193b 0133
000000c0: ffe4 8637 f9a9 b836 ec73 4832 ee00 e137
000000d0: eb6e 0b33 1f9d 3737 9229 5437 cb83 f336
000000e0: 02f5 5e33 21e1 0134 ddc0 5c36 134b f736
000000f0: 3a3a 0536 95b8 b337 fb2f f936 d17e ac32
00000100: ec49 0f38 98a8 7038 f492 ee32 1f13 6837
00000110: d09e 4633 641e 7a37 c2ee 0f37 73e8 9a37
00000120: 3654 0833 789c d334 d78a 4936 f371 2637
00000130: a957 3236 547a b337 1091 1c37 9878 6533

exp_avg f4 [5]
-6.383102e-05 0.00026194708 -0.00016434245 0.00024938516 -0.00028315443
00000000: 05dd 85b8 f155 8939 5753 2cb9 e9bf 8239
00000010: 5874 94b9

exp_avg_sq f4 [5]
4.965841e-06 1.00670895e-05 1.04977435e-05 5.380311e-06 6.1456717e-06
00000000: 40a0 a636 d2e5 2837 771f 3037 8588 b436
00000010: eb36 ce36
