tests/results/over-squashing-spec/2025-05-06/14-40-05-212637-over-squashing-spec/13/ckpt/324.ckpt (torch, 237202 bytes, 31 tensors)

model.encoder.node_encoder.encoder.weight f4 [16, 5]
0	0xbe3a0bce	-0.18168566
1	0x3f74e7fa	0.9566647
2	0x3f753f88	0.95800066
3	0xbf820265	-1.0156981
4	0xbf6ab36a	-0.91680014
5	0x3f33a849	0.7017866
6	0xbf89cbb4	-1.076529
7	0x3f7e8f44	0.99437356
8	0x3dc0bd1a	0.09411068
9	0xbf68512c	-0.9074886
10	0xbde348a0	-0.110978365
11	0xbe683cd4	-0.22679454
12	0x3f5d54e1	0.8645764
13	0xbf0cc182	-0.5498277
14	0xbdf556ee	-0.11979471
15	0xbf226998	-0.63442373
16	0xbf2d1966	-0.6761688
17	0x3f42c424	0.76080537
18	0x3f14a9c5	0.5807155
19	0xbf18b360	-0.59648705
20	0x3e5c1165	0.2149101
21	0x3ec3a2fb	0.38210282
22	0xbf590a62	-0.8478147
23	0x3f4fa6ff	0.8111419
24	0x3f81e0da	1.0146744
25	0xbf70445e	-0.9385432
26	0xbe41c149	-0.18921389
27	0x3f84ab34	1.0364747
28	0x3ed0e3f9	0.4079893
29	0xbfa0f3e8	-1.2574434
30	0xbfa0e935	-1.2571169
31	0x3f0e127d	0.5549696
32	0x3dcfdf33	0.10149994
33	0x3f50ad57	0.81514496
34	0x3f93243b	1.1495432
35	0x3df2e2ca	0.11859663
36	0x3ed8fc69	0.42380074
37	0xbeb3af79	-0.35094813
38	0x3f56116c	0.83620334
39	0xbf84f4ad	-1.0387169
40	0x3f86aaf1	1.0520917
41	0xbf67f493	-0.90607566
42	0x3f337694	0.7010281
43	0xbed7e60a	-0.42167693
44	0x3f59a9b4	0.8502457
45	0xbeafd2b4	-0.3434044
46	0x3f0277a0	0.50963783
47	0xbf2c8e08	-0.6740422
48	0xbf6a42f3	-0.91508406
49	0x3f7a6741	0.978138
50	0xbee34c51	-0.44394162
51	0x3e1b2f33	0.15154724
52	0xbf8a0812	-1.0783713
53	0x3f222208	0.6333318
54	0x3f1acbcd	0.60467225
55	0x3f3cfecf	0.7382631
56	0xbf448e31	-0.76779467
57	0x3f68e4bc	0.9097402
58	0xbf946955	-1.1594645
59	0x3f1eb460	0.6199398
60	0xbfcb1a76	-1.586745
61	0x3e06cfa6	0.13165149
62	0xbf173211	-0.5906077
63	0x3e886678	0.26640677
64	0xbeb9e6a8	-0.3630879
65	0xbf9244c9	-1.1427242
66	0x3e879f52	0.2648874
67	0xbec1b304	-0.3783189
68	0x3f958a1b	1.1682771
69	0x3f85f2ca	1.0464718
70	0x3f479d24	0.7797415
71	0xbf949705	-1.1608588
72	0xbf8e1478	-1.1099997
73	0xbf30ff37	-0.69139427
74	0xbf3e40ae	-0.74317443
75	0x3df97001	0.12179566
76	0x3f40aa8c	0.75260234
77	0xbecbbf4e	-0.3979439
78	0x3da60a12	0.081073895
79	0x3f28a9f8	0.6588435

model.encoder.node_encoder.encoder.bias f4 [16]
0	0x3ef952e6	0.4869606
1	0xbfad0d5c	-1.3519702
2	0xbfe4ffe8	-1.7890596
3	0x3fbd3e0d	1.4784561
4	0xbf329ce0	-0.6977062
5	0xbe1c95b7	-0.15291487
6	0x3faf3631	1.3688413
7	0xbcd4cc9e	-0.025976475
8	0x3f10894a	0.56459486
9	0x3f5cb149	0.86208016
10	0x3fc4f872	1.538832
11	0x3f8f51c3	1.1196827
12	0xbfeb051a	-1.8360932
13	0x3fa080b2	1.2539275
14	0xbf126079	-0.57178456
15	0xbfb2bcf0	-1.3963909

model.gnn_layers.0.factor_split f4 [16, 2]
0	0x3f800000	1.0
1	0x3f800000	1.0
2	0x3f800000	1.0
3	0x3f800000	1.0
4	0x3f800000	1.0
5	0x3f800000	1.0
6	0x3f800000	1.0
7	0x3f800000	1.0
8	0x3f800000	1.0
9	0x3f800000	1.0
10	0x3f800000	1.0
11	0x3f800000	1.0
12	0x3f800000	1.0
13	0x3f800000	1.0
14	0x3f800000	1.0
15	0x3f800000	1.0
16	0x3f800000	1.0
17	0x3f800000	1.0
18	0x3f800000	1.0
19	0x3f800000	1.0
20	0x3f800000	1.0
21	0x3f800000	1.0
22	0x3f800000	1.0
23	0x3f800000	1.0
24	0x3f800000	1.0
25	0x3f800000	1.0
26	0x3f800000	1.0
27	0x3f800000	1.0
28	0x3f800000	1.0
29	0x3f800000	1.0
30	0x3f800000	1.0
31	0x3f800000	1.0

model.gnn_layers.0.filter.filter.distance_expansion.offset f4 [20]
0	0x00000000	0.0
1	0x3f86bca2	1.0526316
2	0x4006bca2	2.1052632
3	0x404a1af3	3.1578948
4	0x4086bca2	4.2105265
5	0x40a86bca	5.263158
6	0x40ca1af3	6.3157897
7	0x40ebca1c	7.3684216
8	0x4106bca2	8.421053
9	0x41179436	9.473684
10	0x41286bca	10.526316
11	0x4139435e	11.578947
12	0x414a1af2	12.631578
13	0x415af286	13.68421
14	0x416bca1b	14.736842
15	0x417ca1af	15.789474
16	0x4186bca2	16.842106
17	0x418f286c	17.894737
18	0x41979436	18.947369
19	0x41a00000	20.0

model.gnn_layers.0.filter.filter.linear.0.weight f4 [3, 20]
0	0x3edb7514	0.4286276
1	0xbf262d74	-0.64913106
2	0xbfb6ea9c	-1.4290347
3	0x3f88ccd3	1.0687507
4	0xbdd132c3	-0.1021476
5	0xbefd812e	-0.4951262
6	0xbe80949d	-0.25113383
7	0x3c96ed7d	0.01842379
8	0x3d28ce1c	0.041212186
9	0xbe3ebba1	-0.18626262
10	0xbdaa51ec	-0.083164066
11	0x3e67f820	0.22653246
12	0xbe244ed6	-0.16045699
13	0xbeb69384	-0.3565942
14	0x3d0c9c17	0.034328546
15	0x3d1ba62f	0.038000282
16	0xbeacc32e	-0.3374266
17	0xbf1adcbb	-0.6049306
18	0xbf4d6606	-0.802338
19	0xbf63ce27	-0.8898644
20	0x3f635fd7	0.88818115
21	0xbfc9661e	-1.5734289
22	0xbfbac171	-1.4590284
23	0x3fda03cb	1.7032408
24	0x3f05a645	0.5220683
25	0xbf7072b0	-0.93925
26	0xbe98dbfd	-0.29855338
27	0x3f33ecae	0.7028302
28	0x3f5567ab	0.8336131
29	0xbf52a5d1	-0.82284266
30	0xbd891465	-0.06693343
31	0x3f3275a3	0.6971075
32	0xbd0e333e	-0.034716837
33	0xbe3becb3	-0.18352012
34	0x3e4d5d6c	0.20055169
35	0x3f063f45	0.5244029
36	0x3f05cf86	0.5226978
37	0xbccbfe28	-0.024901465
38	0xbe85478f	-0.26031157
39	0xbdce87ea	-0.10084517
40	0x3ea7dc3e	0.3278522
41	0xbf87ca77	-1.0608662
42	0xbfd3f568	-1.6559267
43	0x3f895c59	1.0731307
44	0xbe726fbb	-0.23675434
45	0xbded9b75	-0.11601917
46	0x3d961fe2	0.073303
47	0xbccdec55	-0.025137106
48	0x3cbf15a4	0.023325749
49	0xbddf0598	-0.10889739
50	0x3c87b594	0.016566075
51	0x3cf13a1c	0.029446654
52	0xbe516258	-0.20447671
53	0x3dd3f71f	0.10349869
54	0x3e0fb29a	0.14032975
55	0x3eaf86db	0.34282574
56	0x3f090e80	0.5353775
57	0x3e01cfb4	0.12676889
58	0xbe2a6049	-0.16638292
59	0xbf844498	-1.0333433

model.gnn_layers.0.filter.filter.linear.1.weight f4 [16, 3]
0	0x3f7f090b	0.99623173
1	0x3fe3c99f	1.7795905
2	0x3ee21d2c	0.4416288
3	0x3fa8e443	1.319466
4	0x3f9616d5	1.1725718
5	0x3f8650dd	1.0493428
6	0xbe6de97b	-0.23233597
7	0x3f9fda4c	1.2488494
8	0xbe5283d8	-0.20558107
9	0x3ff363f3	1.9014877
10	0x3feda2df	1.8565329
11	0x3fdea1c9	1.7393123
12	0x3ef21692	0.47282845
13	0x3f9eebbf	1.2415694
14	0x3fb43908	1.4079905
15	0x3e9002b3	0.2812706
16	0x3fbacf9b	1.4594606
17	0x3f21516a	0.63014853
18	0x3f8e6773	1.112532
19	0x40074b08	2.1139545
20	0x3fe5076b	1.7892889
21	0xbfa98b60	-1.3245659
22	0xbfe06cdd	-1.7533222
23	0xbfbedf2b	-1.4911855
24	0xbda90f36	-0.082548544
25	0x3f95f9da	1.1716874
26	0xbd80c9a0	-0.06288457
27	0x3f93e7a6	1.1555068
28	0x3ff38214	1.9024072
29	0x3fa44b0b	1.2835401
30	0x3ed7362f	0.42033526
31	0x3f888231	1.0664731
32	0x3f0fea9b	0.56217355
33	0x3fb5243b	1.4151682
34	0x3fb23ca2	1.3924754
35	0x3f69e2b8	0.9136157
36	0x3fce8354	1.6133828
37	0x3fa820aa	1.3134968
38	0x3f895cbe	1.0731428
39	0x3f9b1497	1.2115659
40	0x400043ca	2.0041375
41	0x3febc52a	1.8419545
42	0x3e880ff4	0.2657467
43	0xbf33abae	-0.7018384
44	0xbeff2e62	-0.49840075
45	0x3fce93fa	1.6138909
46	0x3ff6d0d9	1.9282485
47	0x3fb3be5e	1.404247

model.gnn_layers.0.filter.filter.linear.1.bias f4 [16]
0	0xbd8fc50f	-0.07020008
1	0x3eb965a4	0.36210358
2	0xbdfee1b4	-0.12445393
3	0x3dbd266a	0.092358425
4	0xbddd1fd9	-0.1079709
5	0xbc61ca04	-0.013781074
6	0x3da3e5ea	0.08002837
7	0x3d0b9bdd	0.03408419
8	0xbd7b3cf7	-0.061337437
9	0x3df01330	0.1172241
10	0x3cdc30ce	0.02687874
11	0xbe31b809	-0.1735536
12	0x3dafaa59	0.08577413
13	0x3e4c6a0a	0.19962326
14	0xbd4f33ed	-0.05058663
15	0xbe9ce01e	-0.30639738

model.gnn_layers.0.feature_transform.layer_real.lin1.weight f4 [16, 16]
0	0x3f9f84e5	1.2462431
1	0xbfa2dbaa	-1.2723286
2	0xbfaba1dd	-1.3408772
3	0x3f5a33d3	0.8523533
4	0xbee1b89c	-0.44086158
5	0x3f62d0e8	0.88600016
6	0x3f9e550f	1.2369708
7	0x3f9bf7f2	1.2185042
8	0xbf41493e	-0.75502384
9	0x3fa1c79d	1.2639042
10	0x3f9febd4	1.2493844
11	0x3f4ef935	0.8084901
12	0xbf93d202	-1.1548464
13	0x3f8b2376	1.0870197
14	0xbf94d96d	-1.1628853
15	0xbf350dce	-0.7072419
16	0xbf23a9ab	-0.6393077
17	0x3f10c4f8	0.5655055
18	0x3dc0383a	0.09385724
19	0x3f8c1351	1.0943395
20	0x3c870308	0.016480938
21	0x3ea075a0	0.3133974
22	0x3c8bfe92	0.017089162
23	0x3fc0bacf	1.505701
24	0x3e082193	0.13294058
25	0xbf091d91	-0.5356074
26	0x3e8abe02	0.2709809
27	0xbda0dba5	-0.07854394
28	0xbd10772b	-0.035269897
29	0x3e270ac0	0.16312695
30	0x3b8bbf2e	0.0042647338
31	0xbe788912	-0.24271038
32	0xbf9a50b1	-1.2055875
33	0xbf7821db	-0.9692666
34	0xbf17bdb7	-0.59273857
35	0x3f7fd1f1	0.9992972
36	0x3e33ccef	0.17558645
37	0x3d52a398	0.051425546
38	0x3f51c0fe	0.8193511
39	0x3f392a97	0.7233061
40	0xbebfe00c	-0.37475622
41	0x3e5dd836	0.21664509
42	0x3f57a44c	0.8423507
43	0xbf64de9e	-0.89402187
44	0xbe0293e2	-0.12751725
45	0x3f49aefd	0.78782636
46	0x3d54ede4	0.051984683
47	0xbf661b94	-0.8988583
48	0x3fb7831b	1.4336885
49	0x3fd68d86	1.676194
50	0x3f30bbc4	0.6903651
51	0x3f4f5689	0.8099142
52	0xbf92ba44	-1.1463094
53	0x3fdb64cf	1.7140139
54	0x3f238a0e	0.6388253
55	0xbfc55610	-1.5416889
56	0x3f834022	1.0253947
57	0xbdf7115b	-0.12063857
58	0xbfb35107	-1.4009103
59	0x3fc43305	1.532807
60	0xbf598b27	-0.84977955
61	0xbf1c3871	-0.6102362
62	0xbf7b73e0	-0.98223686
63	0xbf5fbcf5	-0.873977
64	0x3f7c313e	0.9851264
65	0x3ef5eb80	0.48031235
66	0x3c49c414	0.012314815
67	0x3f53d2cb	0.8274352
68	0xbf780603	-0.96884173
69	0x3f80f957	1.0076092
70	0x3d820f0c	0.06350526
71	0xbedf5732	-0.43621212
72	0x3e6014e9	0.21882977
73	0xbea35461	-0.31900313
74	0x3e0ef2ec	0.13959855
75	0x3f736a5b	0.9508416
76	0x3d9cd025	0.07656888
77	0xbe269247	-0.16266738
78	0x3d47fe95	0.048826773
79	0xbfa77bca	-1.3084652
80	0xbe87096f	-0.26374385
81	0x3ed69efd	0.41918173
82	0xbcb4803b	-0.022033801
83	0xbf023d60	-0.508749
84	0x3f0d9fc3	0.553219
85	0xbecedb3e	-0.40401644
86	0xbeba996b	-0.36445174
87	0xbedce7c6	-0.4314558
88	0x3ec81b2a	0.39083225
89	0xbe4baa70	-0.19889235
90	0xbe3d5e51	-0.1849301
91	0xbf220254	-0.632848
92	0x3cdfa372	0.027299616
93	0xbea967d6	-0.33087033
94	0xbef684e4	-0.48148263
95	0x3f19a6c8	0.60020113
96	0x3ff01d32	1.875891
97	0xbfa94d26	-1.3226669
98	0xbdedba4e	-0.116078004
99	0xbf27ed74	-0.655967
100	0xbe7f6069	-0.24939121
101	0xbe4f8a44	-0.20267588
102	0x3db3b340	0.087744236
103	0x3fe50b44	1.7894063
104	0xbf8855fd	-1.0651242
105	0x3f96a441	1.1768876
106	0xbe1a8603	-0.15090184
107	0xbecffb7d	-0.40621558
108	0x3ef9d992	0.48798805
109	0xbce098d3	-0.027416622
110	0xbf1510db	-0.58228844
111	0x3f6456c7	0.8919491
112	0x3f3ac6ee	0.7295979
113	0xbfe6a644	-1.801949
114	0xbfd881cb	-1.691461
115	0x3fc025fe	1.5011594
116	0x3f4c08c4	0.79700875
117	0xbfaa7bd6	-1.3319042
118	0x3ffac3c5	1.9590994
119	0xbf6f5742	-0.9349252
120	0x3fc5fef3	1.5468429
121	0x3fd0e41d	1.6319615
122	0x3fd16e38	1.6361761
123	0x3fea30aa	1.8296101
124	0xbfd36d01	-1.651764
125	0x40065b3a	2.099318
126	0xbfd1a6c9	-1.6379024
127	0xbffd63fa	-1.9796135
128	0xbe333fad	-0.17504759
129	0x3f225682	0.6341325
130	0xbe63b7f4	-0.22238141
131	0xbf42cd0b	-0.7609412
132	0x3ec0e3f8	0.37673926
133	0xbdfb73e4	-0.12277964
134	0xbecb088e	-0.39654964
135	0xbec5feb2	-0.3867088
136	0x3f0de556	0.55428064
137	0xbe433344	-0.19062525
138	0xbcad9078	-0.021187052
139	0xbf184955	-0.59486896
140	0xbdbebcc0	-0.09313345
141	0xbe63f3c6	-0.22260961
142	0xbf114f88	-0.5676198
143	0x3d412ab0	0.04715985
144	0x3f0d8bc2	0.5529138
145	0xbfa409fe	-1.2815549
146	0xbf4bff17	-0.7968611
147	0x3e35b186	0.17743501
148	0x3ebe6031	0.37182763
149	0xbf9e06a1	-1.2345773
150	0x3f8b8de2	1.0902674
151	0xbf9bf985	-1.2185522
152	0x3ed778a6	0.42084235
153	0x3f9ab0ca	1.2085202
154	0x3fa3f661	1.2809564
155	0x3f848477	1.0352925
156	0xbf05b7a6	-0.5223335
157	0x3fa203ff	1.265747
158	0xbf21f36a	-0.63262045
159	0x3d75d8f6	0.060021363
160	0xbf94ec71	-1.1634656
161	0xbe604cc8	-0.2190429
162	0xbf0f10a2	-0.55884755
163	0x3fb027a0	1.3762093
164	0x3e672f09	0.22576536
165	0x3ed3c265	0.4135925
166	0x3f4f9ec2	0.8110162
167	0x3f79400f	0.9736337
168	0x3d5f9ba6	0.054591797
169	0x3bd093be	0.0063652685
170	0x3f360031	0.7109404
171	0xbf0a9706	-0.54136693
172	0xbc997dac	-0.018736683
173	0x3f5fa6bf	0.8736381
174	0xbdaa76f8	-0.08323473
175	0xbfa755b1	-1.3073026
176	0x3e0acab9	0.13553895
177	0xbf3e9df8	-0.7445979
178	0x3dd25fb1	0.10272158
179	0x3eac3482	0.3363381
180	0xbf16d9aa	-0.5892588
181	0xbe135889	-0.14389242
182	0xbcfc061c	-0.030764632
183	0x3f2299ff	0.6351623
184	0xbef1ac87	-0.4720194
185	0x3dc4a43c	0.09601638
186	0xbe377478	-0.17915523
187	0xbcec25d2	-0.028826628
188	0x3ed519d7	0.41621277
189	0xbdb40425	-0.08789853
190	0x3f02b2a5	0.5105384
191	0x3e40373e	0.18771073
192	0x3e8f2fa4	0.27966034
193	0x3efa65d7	0.48905823
194	0xbf168e7b	-0.5881116
195	0x3ed62ba3	0.41830167
196	0xbf172684	-0.59043145
197	0xbf0c3d96	-0.5478147
198	0xbf4c5f8e	-0.79833305
199	0xbf05a6cf	-0.52207655
200	0x3f698e19	0.9123245
201	0x3ec70b1c	0.38875663
202	0x3e4203a1	0.18946697
203	0x3fb3a14c	1.4033599
204	0xbf23a4bc	-0.6392324
205	0xbf6bfdce	-0.9218415
206	0x3f278eaa	0.65452063
207	0xbf1b27f1	-0.6060782
208	0xbf531a55	-0.82462054
209	0xbef95655	-0.4869868
210	0xbf376d88	-0.71651506
211	0x3fccf493	1.6012138
212	0xbe2ed358	-0.17072809
213	0x3f68bdc1	0.9091454
214	0x3f0ef251	0.55838495
215	0x402230a9	2.53422
216	0xbf3c21a0	-0.7348881
217	0xbf806737	-1.0031499
218	0x3f080a12	0.53140366
219	0xbf342484	-0.7036822
220	0x3e199528	0.14998305
221	0x3e9df88f	0.30853698
222	0xbd9ab55c	-0.07554123
223	0xbf669b25	-0.9008048
224	0x3da3e90c	0.080034345
225	0xbe20cb78	-0.15702617
226	0x3ea81890	0.3283124
227	0x3ead125b	0.33803067
228	0xbe698884	-0.22805983
229	0x3ed45b98	0.4147613
230	0xbe16386a	-0.14669958
231	0xbde67d52	-0.11254372
232	0xbef417ef	-0.4767451
233	0x3e472442	0.19447425
234	0xbed007d1	-0.40630963
235	0x3d4b1a5d	0.04958569
236	0x3e5de484	0.21669203
237	0xbee42aa2	-0.44563776
238	0x3eb0711f	0.34461305
239	0x3df987a7	0.12184077
240	0x3e64123c	0.22272581
241	0xbdb9f281	-0.09079457
242	0xbe8879e8	-0.26655507
243	0xbf20b43f	-0.62775034
244	0xbc939f38	-0.018020257
245	0xbffbe204	-1.967835
246	0xbf1d2ba3	-0.6139471
247	0x3fbe4816	1.4865749
248	0x3f457548	0.7713208
249	0x3e9ee5a8	0.3103459
250	0x3ec5d8cd	0.38641968
251	0x3ed5870d	0.41704598
252	0xbf2df049	-0.6794477
253	0xbf32b64d	-0.6980942
254	0x3e8f7f5e	0.2802686
255	0xbd105b9d	-0.03524362

model.gnn_layers.0.feature_transform.layer_real.lin1.bias f4 [16]
0	0x3f7d1bbf	0.9887046
1	0x3d77b8a7	0.060478833
2	0x3f1889e4	0.59585404
3	0x3f589edc	0.846174
4	0x3ed67973	0.41889533
5	0xbd28856b	-0.041142862
6	0x3e868cb1	0.26279214
7	0x3fd7b7e1	1.685299
8	0xbeec80bf	-0.46191975
9	0x3f852684	1.0402379
10	0x3f226260	0.6343136
11	0xbc49fbde	-0.012328116
12	0x3f2070fa	0.6267239
13	0x3ef51ad6	0.47872037
14	0xbd2cc17b	-0.042176705
15	0x3ecbfe33	0.39842376

model.post_mp.mlp.1.weight f4 [5, 16]
0	0xbf7bad6a	-0.98311484
1	0xbe9e8be5	-0.30966106
2	0x3ec5e046	0.3864767
3	0xbf532241	-0.8247414
4	0x3f11facb	0.57023305
5	0x3eeb98da	0.46015054
6	0x3e7f6235	0.24939807
7	0xbf1117c4	-0.5667689
8	0xbc30c796	-0.0107897725
9	0xbf78cee2	-0.9719068
10	0xbf2cbc19	-0.67474514
11	0xbf7de062	-0.99170506
12	0xbf9e21b2	-1.2354033
13	0xbf866d63	-1.0502132
14	0x3f3064fc	0.6890409
15	0xc006b944	-2.1050577
16	0x3fc92771	1.5715162
17	0x3f705095	0.9387296
18	0x3df9a9db	0.121906005
19	0xbf8ed445	-1.115853
20	0x3f170968	0.5899873
21	0x3cddebff	0.02709007
22	0x3ff5a810	1.9191914
23	0xbfa097e3	-1.2546352
24	0x3f2874c4	0.6580317
25	0x3f088992	0.53334916
26	0xbf09451e	-0.5362109
27	0x3f9766dc	1.1828265
28	0x3f99d5b4	1.2018342
29	0xbf323379	-0.6960979
30	0xbe9ebef3	-0.31005058
31	0x3e70595b	0.23471586
32	0x3f8940c7	1.0722893
33	0xbebe520e	-0.37171978
34	0x3f5e6f73	0.8688881
35	0x3fdf388f	1.7439135
36	0xbf8e1c8a	-1.110246
37	0xbf69dd11	-0.91352946
38	0xbf39b071	-0.72534853
39	0x3f7ac43c	0.9795568
40	0x3eaa6c74	0.33285868
41	0xbf988e42	-1.1918414
42	0xbea63420	-0.32461643
43	0xbf90fca6	-1.1327102
44	0x3e2c5026	0.16827449
45	0xbf829c87	-1.0204018
46	0xbeb6e153	-0.35718784
47	0x3fdb78ca	1.7146237
48	0xbf8e8ce1	-1.1136743
49	0xbf947cfb	-1.1600641
50	0xbf455ec5	-0.7709773
51	0xbf517047	-0.81811947
52	0x3eb9722d	0.36219922
53	0xbf6e32e7	-0.9304642
54	0xbfa2d2ed	-1.272062
55	0xbfcd27f6	-1.602782
56	0x3e8160bc	0.25269115
57	0xbf4e33a9	-0.8054758
58	0x3f33682c	0.7008083
59	0x3fa70324	1.3047833
60	0x3f50d498	0.8157439
61	0x3fe92eff	1.8217467
62	0x3d971aae	0.073781356
63	0x3f8c77d5	1.097407
64	0xbf97750c	-1.1832595
65	0x3f6fa184	0.9360583
66	0xbe0630d2	-0.13104561
67	0xbf628303	-0.8848116
68	0x3f030a3c	0.5118749
69	0x3f86ed84	1.0541234
70	0xbfd1973b	-1.6374277
71	0x3ff2e027	1.8974656
72	0xbf80d5ba	-1.0065224
73	0x3fbd5f0f	1.4794635
74	0x3d91b265	0.07114104
75	0xbf8b84ae	-1.0899866
76	0x3ed6e56d	0.41971913
77	0xbf910827	-1.1330613
78	0xbe5ebee6	-0.2175251
79	0x3df11880	0.11772251

model.post_mp.mlp.1.bias f4 [5]
0	0x3daa6b68	0.08321267
1	0x3e507669	0.2035767
2	0x3b05c8e8	0.002041394
3	0xbdb65e1d	-0.089046694
4	0x3d4475ae	0.04796379

exp_avg f4 [16, 5]
0	0x3a186fef	0.0005815019
1	0xbb03af33	-0.002009344
2	0xba80f2fd	-0.0009838041
3	0x3a5dd6d5	0.00084624934
4	0x3a3798ff	0.0007003694
5	0xb88d1921	-6.7280846e-05
6	0x3a1ac7ce	0.0005904407
7	0xb98d1573	-0.00026909597
8	0x39553ca8	0.00020335859
9	0x39794108	0.00023770717
10	0xb9341a25	-0.00017175877
11	0xb9237670	-0.00015589013
12	0xb9e24edd	-0.00043164837
13	0xb898f442	-7.2934214e-05
14	0xb8dd5662	-0.00010554191
15	0x3a558300	0.00081448257
16	0x3a3f4d0a	0.00072975515
17	0xbab2322f	-0.0013595278
18	0x39505391	0.00019867557
19	0x39f7da90	0.00047274353
20	0xb95ed014	-0.00021249085
21	0xb9627e81	-0.00021600166
22	0x3a13549d	0.00056202133
23	0xb977a386	-0.00023616673
24	0xb9b65b4c	-0.00034781767
25	0x39bcd80e	0.00036019128
26	0xb895c8c7	-7.142271e-05
27	0xba2f3628	-0.000668379
28	0xb9a8bfcb	-0.00032186354
29	0x37c9db99	2.4063325e-05
30	0x3988d77f	0.00026100499
31	0xbaab2614	-0.0013057613
32	0xb9bbdaa6	-0.00035830325
33	0xb9888ff4	-0.00026047195
34	0xb9ac8bf8	-0.0003291068
35	0xbbfc6745	-0.0077027404
36	0xbc0d5632	-0.008626508
37	0xbbb092f4	-0.005388612
38	0xbc055416	-0.008137723
39	0xbb9f5af9	-0.0048631397
40	0xb823b13a	-3.9027283e-05
41	0x3a148008	0.000566483
42	0x389b4a0d	7.404769e-05
43	0x39b09695	0.00033681528
44	0x3920d3e4	0.00015337724
45	0x3b7df0b5	0.003874821
46	0x3b11d079	0.0022249504
47	0x3b830e39	0.003999498
48	0x3b851b43	0.0040620877
49	0x3b1f92d6	0.0024348996
50	0x38784853	5.9195165e-05
51	0x37ebff09	2.8132943e-05
52	0x39b50a3c	0.00034530635
53	0xb975f9c1	-0.00023458061
54	0xb9361e80	-0.00017368235
55	0x39605a5e	0.00021395969
56	0x39f25db5	0.00046227654
57	0x38b7ba7b	8.760855e-05
58	0x3a280b1b	0.0006410346
59	0x39ca7a4a	0.00038619555
60	0x39fff3ef	0.00048819135
61	0xb9beab8a	-0.0003636743
62	0xb96101ff	-0.00021458416
63	0xb9b9a7f0	-0.00035411073
64	0xb992d557	-0.0002800624
65	0x392778ae	0.00015971318
66	0xb99adfad	-0.0002953982
67	0xb909e23e	-0.0001314962
68	0xba9856d1	-0.0011622553
69	0xb9f8ccca	-0.00047454826
70	0xb96d2fc6	-0.00022619878
71	0x39b9b7be	0.00035422848
72	0x39b6e06d	0.00034880955
73	0x3851270e	4.9865856e-05
74	0x392d6b97	0.00016538646
75	0x3ac94f41	0.0015358703
76	0x395adc56	0.00020872182
77	0x3a514c06	0.00079840457
78	0x3a3dc3f4	0.0007238977
79	0x3a199bbd	0.00058596936

exp_avg_sq f4 [16, 5]
0	0x3a77039c	0.000942284
1	0x3a873ba6	0.0010317459
2	0x3a7f9e84	0.00097510987
3	0x3a77047c	0.00094229705
4	0x3a7a4d43	0.0009548256
5	0x3833705d	4.2781572e-05
6	0x383624f0	4.3426582e-05
7	0x3838fb19	4.410287e-05
8	0x3835a488	4.3306994e-05
9	0x38364262	4.3454005e-05
10	0x3791c9f4	1.7379389e-05
11	0x3791c2a7	1.7375989e-05
12	0x37954e1a	1.7798553e-05
13	0x378b1044	1.6577666e-05
14	0x37925dbf	1.744821e-05
15	0x3917e1b7	0.00014484568
16	0x39170ef6	0.00014406056
17	0x39420b2c	0.00018505444
18	0x3913d5f9	0.00014098723
19	0x3916d341	0.00014383813
20	0x3811d672	3.477041e-05
21	0x3812c216	3.498987e-05
22	0x382a531d	4.0608564e-05
23	0x3816f54c	3.5991237e-05
24	0x38142f1e	3.532983e-05
25	0x37a0f475	1.918732e-05
26	0x37976060	1.804548e-05
27	0x37ac347d	2.052844e-05
28	0x37956240	1.7807935e-05
29	0x37a4be6c	1.9638996e-05
30	0x384bd842	4.8600377e-05
31	0x3841eb70	4.6234054e-05
32	0x383e490d	4.5367564e-05
33	0x383e447e	4.536332e-05
34	0x3840ce47	4.5968478e-05
35	0x3ae9fb22	0.0017851333
36	0x3ae9ef86	0.0017847873
37	0x3ae9dbdb	0.0017842011
38	0x3aecb409	0.0018059026
39	0x3aec9759	0.0018050476
40	0x389a079b	7.344709e-05
41	0x389b1ed9	7.396722e-05
42	0x389919c6	7.300409e-05
43	0x389a5021	7.3582174e-05
44	0x3899db30	7.3364354e-05
45	0x3a611202	0.0008585752
46	0x3a5a8322	0.00083355804
47	0x3a607eec	0.00085638347
48	0x3a616b84	0.000859909
49	0x3a63f274	0.0008695491
50	0x37b23d2c	2.1247739e-05
51	0x37ae5295	2.0780872e-05
52	0x37ba8eb0	2.2239372e-05
53	0x37a74c63	1.9943522e-05
54	0x37b0979e	2.1051437e-05
55	0x39168513	0.00014354689
56	0x3918af7a	0.0001456122
57	0x3917f78e	0.00014492703
58	0x391dbf57	0.00015043966
59	0x39178a95	0.00014452108
60	0x38c87d20	9.5600495e-05
61	0x38a6fc9a	7.9625475e-05
62	0x38a67b1a	7.938426e-05
63	0x38a84d0e	8.025217e-05
64	0x38a67647	7.937528e-05
65	0x38b93e57	8.833099e-05
66	0x38b40db6	8.585623e-05
67	0x38b58994	8.6563785e-05
68	0x38be87c5	9.085195e-05
69	0x38b77129	8.747198e-05
70	0x380300dd	3.1233638e-05
71	0x3804b455	3.16392e-05
72	0x3806baef	3.2122185e-05
73	0x38003d95	3.057493e-05
74	0x37fef16b	3.0391579e-05
75	0x380f6d58	3.419569e-05
76	0x3815a99a	3.5682322e-05
77	0x38153022	3.5569195e-05
78	0x3812efc7	3.5032423e-05
79	0x38142750	3.5322562e-05

exp_avg f4 [16]
0	0x3a1fe619	0.0006099656
1	0x3a6158da	0.0008596309
2	0x3a02f958	0.00049962616
3	0xbab148ee	-0.0013525763
4	0x397a8536	0.00023891483
5	0x37634b13	1.3547734e-05
6	0xbacdc29b	-0.0015698256
7	0xbc35dfbe	-0.011100708
8	0x394c7e2c	0.00019501959
9	0x3b000f05	0.0019540202
10	0xb9f72ef7	-0.00047146503
11	0xb943dcaa	-0.00018678853
12	0x3a5ea468	0.00084931264
13	0xba9711cc	-0.001152569
14	0x3a00d50b	0.00049145584
15	0x3aecc9b3	0.0018065482

exp_avg_sq f4 [16]
0	0x39143521	0.00014134172
1	0x36ee0760	7.0938113e-06
2	0x378e056b	1.6930242e-05
3	0x38b401ad	8.583381e-05
4	0x3787a03b	1.6167867e-05
5	0x37ca4e95	2.411687e-05
6	0x37b26227	2.126496e-05
7	0x3a082974	0.0005194165
8	0x3780924c	1.5326914e-05
9	0x393bf407	0.00017924617
10	0x3750bdb5	1.2441936e-05
11	0x386e79f9	5.6857218e-05
12	0x3832c962	4.262606e-05
13	0x37c83931	2.386849e-05
14	0x37c4d871	2.346581e-05
15	0x37bb997e	2.2363613e-05

exp_avg f4 [3, 20]
0	0x3add1e6f	0.0016870032
1	0x3b9aa98e	0.0047199195
2	0x3a077bae	0.0005168271
3	0xba2441c3	-0.0006265903
4	0x3a1180ca	0.0005550502
5	0xb9d388e8	-0.0004034706
6	0xb8d696d0	-0.00010232406
7	0x397d31eb	0.00024146556
8	0xb96fc97e	-0.00022867878
9	0x37d187ce	2.497798e-05
10	0x38ad759b	8.2711886e-05
11	0xb904d39e	-0.00012667335
12	0x37f5da04	2.9307797e-05
13	0x37a0edcc	1.918422e-05
14	0x36c7ab0a	5.9505737e-06
15	0x38c634df	9.451224e-05
16	0xb8e312c5	-0.000108276996
17	0xb9a90de4	-0.0003224454
18	0xb95968f0	-0.00020733825
19	0xb7f85c4a	-2.960688e-05
20	0xb8868a55	-6.415384e-05
21	0x3bb68d58	0.0055710487
22	0x3a3627c5	0.0006948675
23	0xba48e4a5	-0.0007663465
24	0x3a5a4988	0.0008326997
25	0xba121973	-0.000557325
26	0xb8d11f2f	-9.971705e-05
27	0x39b4e90f	0.00034505918
28	0xb9a80ed0	-0.00032054493
29	0x3886c054	6.425442e-05
30	0x38ebd6f2	0.0001124571
31	0xb930d8b3	-0.00016865395
32	0x389d6788	7.5056276e-05
33	0x38a7f9d0	8.009712e-05
34	0x38f3239d	0.000115937764
35	0x394fb04b	0.00019806733
36	0xb923c0b5	-0.0001561668
37	0xb9ef9a7f	-0.0004570074
38	0xb99fccbb	-0.0003047938
39	0xb89d23ee	-7.493036e-05
40	0x3aea2e8c	0.0017866655
41	0x3b9b31c0	0.0047361553
42	0x3a0d2aa9	0.000538508
43	0xba1cc07a	-0.0005979609
44	0x3a0e5761	0.00054298906
45	0xb9d0d856	-0.00039834034
46	0xb8beb4d6	-9.093589e-05
47	0x3971ebb6	0.0002307136
48	0xb96aaaeb	-0.00022379651
49	0x3801973e	3.0896852e-05
50	0x389874e3	7.269697e-05
51	0xb8f8a07d	-0.00011855455
52	0x38385267	4.394576e-05
53	0x383e2366	4.5332497e-05
54	0x38776f4e	5.899305e-05
55	0x38fd66c8	0.000120831246
56	0xb8c234d3	-9.26048e-05
57	0xb991dfbb	-0.00027823247
58	0xb93b8900	-0.00017884746
59	0xb7ffc491	-3.0489902e-05

exp_avg_sq f4 [3, 20]
0	0x3ad8aad5	0.0016530404
1	0x39def598	0.0004252612
2	0x3712e92f	8.75657e-06
3	0x3758d3ba	1.29239e-05
4	0x36c02e1b	5.7274133e-06
5	0x365f29ab	3.3253843e-06
6	0x36cbfdb3	6.079406e-06
7	0x35efbc88	1.7861757e-06
8	0x367937ed	3.7136444e-06
9	0x36490bb4	2.9958146e-06
10	0x36e71183	6.886375e-06
11	0x3654f6de	3.1734157e-06
12	0x360dbd2b	2.1120748e-06
13	0x35f0f43a	1.7952473e-06
14	0x35f9dd61	1.8616375e-06
15	0x36a9e37e	5.063076e-06
16	0x36347e9d	2.6895789e-06
17	0x354f21af	7.7162525e-07
18	0x34a6e54c	3.1086745e-07
19	0x330e33a2	3.310891e-08
20	0x3b258293	0.002525483
21	0x3a5bc9b0	0.0008384241
22	0x38c5e278	9.435875e-05
23	0x3805c902	3.1896874e-05
24	0x37fa5534	2.9841998e-05
25	0x370d716b	8.430662e-06
26	0x37a8d8ca	2.0128111e-05
27	0x3717c0e1	9.0452095e-06
28	0x3798cf52	1.8216353e-05
29	0x36992330	4.5638517e-06
30	0x375701fa	1.2815459e-05
31	0x3738776f	1.0995062e-05
32	0x36d8e11c	6.463508e-06
33	0x371bf844	9.296524e-06
34	0x37159ebe	8.918052e-06
35	0x36ceb6e9	6.160572e-06
36	0x36500a2e	3.100034e-06
37	0x3621be10	2.41015e-06
38	0x359fc841	1.1904705e-06
39	0x33b566ab	8.4471445e-08
40	0x3a6d747d	0.00090581906
41	0x3980da8c	0.00024576893
42	0x3703a0c3	7.845639e-06
43	0x371da137	9.395465e-06
44	0x3683de8d	3.9300126e-06
45	0x366416c3	3.3987897e-06
46	0x3673bd27	3.6319923e-06
47	0x352fa5b6	6.543372e-07
48	0x35b9a2e5	1.3830983e-06
49	0x363267f9	2.6584587e-06
50	0x36ad868a	5.171464e-06
51	0x35e94723	1.7380556e-06
52	0x35cd5a7a	1.5300022e-06
53	0x35a28193	1.2107652e-06
54	0x35d073fa	1.5530961e-06
55	0x36820320	3.8746657e-06
56	0x36039908	1.9609597e-06
57	0x354e34f4	7.6818037e-07
58	0x348deb11	2.643433e-07
59	0x32adff6e	2.0256007e-08

exp_avg f4 [16, 3]
0	0xba0869a7	-0.00052037317
1	0xba96e6bb	-0.0011512855
2	0xb965884f	-0.00021889921
3	0xb8027f05	-3.111271e-05
4	0xb8950133	-7.105097e-05
5	0xb8e1e879	-0.000107721375
6	0xb8dd9676	-0.00010566127
7	0xb964d788	-0.00021824066
8	0xb9f26ed3	-0.00046240407
9	0xb9a954d6	-0.000322974
10	0xba4179e6	-0.000738053
11	0xba2e0a0e	-0.00066390715
12	0xb8c0290c	-9.162919e-05
13	0xb96d4d1b	-0.00022630805
14	0xb92886ff	-0.00016072018
15	0xb6b106ff	-5.2758255e-06
16	0xb7368926	-1.0879978e-05
17	0x366d34d9	3.5346513e-06
18	0xb96ab578	-0.00022383581
19	0xb9ebafc8	-0.0004495366
20	0xb9d480da	-0.00040531793
21	0x3a447669	0.0007494451
22	0x3a91401e	0.001108173
23	0x39a731ee	0.00031889923
24	0xb74ca698	-1.2198136e-05
25	0xb7372d17	-1.0918148e-05
26	0x377b181e	1.4966381e-05
27	0xb9026e6c	-0.00012438901
28	0xb9f1e7ce	-0.0004613981
29	0xb99e33e9	-0.00030174784
30	0xb941ec35	-0.00018493908
31	0xb999d0ea	-0.00029338087
32	0x38fc012d	0.000120165154
33	0xb7411834	-1.1509332e-05
34	0xb79daf10	-1.8797378e-05
35	0xb69dec8c	-4.7065023e-06
36	0xb9011694	-0.0001231081
37	0xba026a20	-0.00049749203
38	0xba98bc04	-0.0011652713
39	0xb8da16e5	-0.000103993145
40	0xb9bab16a	-0.00035608868
41	0xba33442d	-0.0006838467
42	0x367fc7b6	3.8114208e-06
43	0x36e31ea4	6.768694e-06
44	0xb648c217	-2.9915298e-06
45	0xb8d0eb00	-9.961985e-05
46	0xb9a85c5a	-0.00032112264
47	0xb9b37b2b	-0.00034233308

exp_avg_sq f4 [16, 3]
0	0x3737c0b1	1.09525145e-05
1	0x38890659	6.5338514e-05
2	0x387d7baa	6.043507e-05
3	0x32c7cbb8	2.325929e-08
4	0x344248c8	1.8094136e-07
5	0x348db79b	2.6396887e-07
6	0x370ec63d	8.5100155e-06
7	0x37902336	1.7182534e-05
8	0x38225d6d	3.871082e-05
9	0x3631a14f	2.646895e-06
10	0x3782a604	1.5574515e-05
11	0x36f4ff57	7.301492e-06
12	0x352d91a0	6.4659434e-07
13	0x36353374	2.7001051e-06
14	0x358c9856	1.0475148e-06
15	0x348c4a3f	2.6131053e-07
16	0x35517b28	7.8037783e-07
17	0x33f2a18e	1.129839e-07
18	0x343dd75f	1.7680348e-07
19	0x3556aff9	7.9977286e-07
20	0x34c9854c	3.7536154e-07
21	0x36075797	2.0167552e-06
22	0x37929c9c	1.7477483e-05
23	0x368817ec	4.0559007e-06
24	0x35496662	7.502732e-07
25	0x35b7bea6	1.3690048e-06
26	0x34ac40c6	3.2084625e-07
27	0x3665bcff	3.423367e-06
28	0x37c6b9fb	2.3690043e-05
29	0x37abbde8	2.047322e-05
30	0x36783dbb	3.6990812e-06
31	0x36cd7895	6.1235137e-06
32	0x3760c49f	1.339722e-05
33	0x33a6b79a	7.763374e-08
34	0x35c2127d	1.4459507e-06
35	0x340c3eb2	1.3061324e-07
36	0x370559a8	7.9482925e-06
37	0x38a94ffa	8.073445e-05
38	0x37c4fcba	2.3482706e-05
39	0x35870694	1.0060198e-06
40	0x368816ee	4.055785e-06
41	0x368fb333	4.2825936e-06
42	0x3205e8e7	7.794575e-09
43	0x33589feb	5.0436864e-08
44	0x32d39591	2.4631648e-08
45	0x342f52f1	1.6328319e-07
46	0x34597f2d	2.0255966e-07
47	0x34020faf	1.2112899e-07

exp_avg f4 [16]
0	0xbb094c7d	-0.0020950132
1	0x392cc0eb	0.00016475066
2	0x3a73f8e9	0.0009306805
3	0x3990c1ca	0.00027610204
4	0xb704fe9f	-7.927097e-06
5	0xb82f7524	-4.1832347e-05
6	0x3956ea15	0.00020495833
7	0x3adc17b9	0.0016791738
8	0xb89df864	-7.53261e-05
9	0xb8c6df95	-9.483021e-05
10	0xba94106a	-0.0011296396
11	0xb802f1a7	-3.121947e-05
12	0x3b1e09a3	0.002411463
13	0x3aaa2367	0.0012980521
14	0x37dd4947	2.6379375e-05
15	0x393ee629	0.00018205553

exp_avg_sq f4 [16]
0	0x3a163cf4	0.00057311286
1	0x35aec000	1.301989e-06
2	0x399cb16a	0.00029886822
3	0x388e4229	6.783411e-05
4	0x359f8845	1.1886083e-06
5	0x34ae42f2	3.2458735e-07
6	0x358bc854	1.041461e-06
7	0x3600aa91	1.917277e-06
8	0x35715c13	8.991348e-07
9	0x39839eec	0.00025104673
10	0x38fb5e77	0.00011986208
11	0x33ec6083	1.1007162e-07
12	0x3951d8bd	0.00020012535
13	0x388aa63a	6.611315e-05
14	0x3328d09c	3.9305277e-08
15	0x3591d9bb	1.086671e-06

exp_avg f4 [16, 16]
0	0xb9378172	-0.00017500462
1	0x39635a22	0.00021681984
2	0x3938b523	0.00017615086
3	0xb912feac	-0.00014018518
4	0x387c800b	6.020073e-05
5	0xb79e46d9	-1.8868059e-05
6	0xb9827100	-0.00024879724
7	0xb777f778	-1.4779966e-05
8	0xb6b1d4b0	-5.299771e-06
9	0xb8ea42a6	-0.00011170404
10	0xb916b3d0	-0.000143721
11	0xb8a7e7e7	-8.006376e-05
12	0x39547c5f	0.00020264227
13	0xb940c879	-0.00018385229
14	0x398bdbaf	0.00026675823
15	0x38b8da44	8.814459e-05
16	0x385ad8e4	5.2177245e-05
17	0xb9178c95	-0.00014452853
18	0xb90a7b82	-0.00013206716
19	0xb677b05a	-3.6908518e-06
20	0x3920f543	0.00015350156
21	0xb92418ee	-0.00015649546
22	0x398f5c88	0.00027344027
23	0xb7c389c1	-2.3309958e-05
24	0x395f0a28	0.00021270721
25	0x38187ffa	3.635881e-05
26	0x389ab322	7.376658e-05
27	0x39191cd7	0.0001460196
28	0xb9e05dae	-0.00042794406
29	0x394aeee2	0.00019353212
30	0xb9eb48c2	-0.00044876902
31	0x38aeb449	8.330547e-05
32	0x37ad7cbc	2.0681291e-05
33	0x380138c8	3.080888e-05
34	0x381bb1d3	3.712049e-05
35	0xb810fe99	-3.4569388e-05
36	0x3794a51d	1.7719862e-05
37	0xb7147f81	-8.851174e-06
38	0xb78bebfe	-1.6679984e-05
39	0xb672bd26	-3.617091e-06
40	0x37d8b394	2.583283e-05
41	0xb7c72622	-2.3740406e-05
42	0xb85005bf	-4.9596416e-05
43	0x373bd49a	1.1195569e-05
44	0xb805b45a	-3.1877637e-05
45	0xb804e77c	-3.168684e-05
46	0xb83d795f	-4.5174147e-05
47	0x381ed429	3.7867725e-05
48	0xb988c42f	-0.0002608611
49	0xb9270394	-0.00015927694
50	0xb8faf430	-0.000119664124
51	0xb99c0f84	-0.000297662
52	0x39afa63e	0.0003350246
53	0xb9a6faf7	-0.0003184897
54	0xb7d1c6c3	-2.5007297e-05
55	0x3896afed	7.185326e-05
56	0xb88e0a77	-6.773037e-05
57	0x38ac4e30	8.216163e-05
58	0x391ecf23	0.00015145219
59	0xb95b496f	-0.00020912824
60	0x38262c64	3.9618826e-05
61	0x3884df98	6.335898e-05
62	0x38da4689	0.00010408188
63	0x397cf0d0	0.00024122302
64	0xb8b60735	-8.679779e-05
65	0x37a524d7	1.9686688e-05
66	0x3840f708	4.6006433e-05
67	0xb908175f	-0.00012978677
68	0x3854a7d0	5.0701026e-05
69	0xb8293578	-4.0342537e-05
70	0xb91960a4	-0.00014627218
71	0x380e806e	3.3975048e-05
72	0xb9003a19	-0.00012228674
73	0x3701a5ad	7.727574e-06
74	0xb769df05	-1.3939808e-05
75	0xb9140168	-0.00014114904
76	0x395a4e9c	0.00020819384
77	0xb8bf09af	-9.1093934e-05
78	0x39620647	0.00021555378
79	0x3897babc	7.235023e-05
80	0x3324d498	3.837758e-08
81	0x36d20014	6.258497e-06
82	0x3702a49e	7.786932e-06
83	0xb6a96eec	-5.0495055e-06
84	0x362e06f1	2.593206e-06
85	0x3687160b	4.0258797e-06
86	0xb6a9bd7b	-5.058651e-06
87	0x36488040	2.9876974e-06
88	0xb6bbbb30	-5.594826e-06
89	0xb6cee713	-6.166179e-06
90	0xb6f32312	-7.246047e-06
91	0xb70a0664	-8.226929e-06
92	0x37205a40	9.557756e-06
93	0xb6a0d8f7	-4.7936296e-06
94	0xb4e47382	-4.2552352e-07
95	0x36cf95ad	6.1865053e-06
96	0xb9cd9645	-0.00039212606
97	0x39daae7b	0.00041710198
98	0x3999f5de	0.0002936562
99	0xb927fd6a	-0.00016020765
100	0x399fcd61	0.00030479862
101	0xb8b361ff	-8.553638e-05
102	0xb8d90060	-0.00010347436
103	0xb8b3097b	-8.537151e-05
104	0x399b9e7f	0.00029681993
105	0xb9ab51f6	-0.00032676727
106	0xb988e061	-0.00026107117
107	0x3721fe3a	9.6555395e-06
108	0xb7e903a8	-2.7777467e-05
109	0xb8809058	-6.130402e-05
110	0xb8b7d8db	-8.7665125e-05
111	0x39808b54	0.0002451787
112	0xb773cbd6	-1.4531388e-05
113	0x39307c44	0.0001683096
114	0x392e2713	0.0001660849
115	0xb8fecf61	-0.00012150291
116	0x37a68773	1.9851816e-05
117	0x38654fa4	5.4672026e-05
118	0xb952e3a0	-0.00020111958
119	0x384f149e	4.9371847e-05
120	0xb8b5f7ad	-8.676886e-05
121	0xb8f923cb	-0.00011879912
122	0xb92ee7f8	-0.00016680348
123	0xb90630ca	-0.00012797411
124	0x39403b39	0.00018332609
125	0xb93bdfb9	-0.00017917053
126	0x38fdb5b0	0.00012097822
127	0x38cd325c	9.784542e-05
128	0x368c6879	4.1844874e-06
129	0xb74720d7	-1.186897e-05
130	0xb78c0f7e	-1.6696515e-05
131	0x3715c2a8	8.926414e-06
132	0x36f9b256	7.4415393e-06
133	0xb707d961	-8.0972395e-06
134	0x37c7b35a	2.3806166e-05
135	0x35893752	1.0223396e-06
136	0x378b88f2	1.6633861e-05
137	0x359c4e37	1.1645669e-06
138	0x3735fc5c	1.0847198e-05
139	0x37554439	1.2711674e-05
140	0xb81b2d05	-3.6996807e-05
141	0x379de2a2	1.8821393e-05
142	0xb80c8c01	-3.350899e-05
143	0xb5c2fa4e	-1.4526975e-06
144	0xb8180c60	-3.625115e-05
145	0x397ed7a3	0.00024303659
146	0x390fb20b	0.00013703869
147	0xb833ad9e	-4.283862e-05
148	0x3826d773	3.9778137e-05
149	0x38589673	5.163853e-05
150	0xb91b7113	-0.00014824075
151	0x38583d9e	5.15558e-05
152	0x38940fea	7.060154e-05
153	0xb95ba38a	-0.0002094639
154	0xb94071df	-0.00018352967
155	0xb7c1469a	-2.304027e-05
156	0xb81d840d	-3.75547e-05
157	0xb9142483	-0.00014127982
158	0xb75231d0	-1.2528573e-05
159	0x388838b1	6.495545e-05
160	0x38498ab2	4.8051304e-05
161	0x37a13090	1.921531e-05
162	0x381552b7	3.5601402e-05
163	0xb848ec8e	-4.7904025e-05
164	0xb7719559	-1.4399492e-05
165	0xb715a154	-8.918654e-06
166	0xb87a91b4	-5.974034e-05
167	0xb4ad691b	-3.2300235e-07
168	0xb6a03281	-4.774251e-06
169	0x361c5f01	2.330111e-06
170	0xb853ee73	-5.0528393e-05
171	0x36f4a818	7.2913354e-06
172	0xb64ccee3	-3.0518793e-06
173	0xb895cb02	-7.142687e-05
174	0x379df00d	1.882764e-05
175	0x37cc3429	2.4342984e-05
176	0xb81ef6c5	-3.7899958e-05
177	0x38ae90c4	8.323931e-05
178	0x38c4ad81	9.378326e-05
179	0xb8869574	-6.417456e-05
180	0x37f630d5	2.9348224e-05
181	0x37677544	1.3795976e-05
182	0xb8a0d764	-7.669514e-05
183	0xb5f701d1	-1.8403463e-06
184	0xb7af55ef	-2.0901642e-05
185	0xb85a7bcf	-5.2090556e-05
186	0xb8a687c1	-7.940783e-05
187	0xb854fd47	-5.078062e-05
188	0x38ca682b	9.6515134e-05
189	0xb88af28b	-6.62553e-05
190	0x3841312f	4.606059e-05
191	0x387a22e7	5.963715e-05
192	0x38922dfe	6.970389e-05
193	0xb9dc7a0a	-0.00042052596
194	0xb96fd3c6	-0.00022871708
195	0x38d19bca	9.9949146e-05
196	0x39e6f0a3	0.00044048307
197	0xb91bd39d	-0.00014860784
198	0x3a7f425b	0.0009737366
199	0xb8482c81	-4.7725163e-05
200	0x3994ac8f	0.00028357326
201	0x3842e8e0	4.6470086e-05
202	0x396c6522	0.00022544389
203	0x38c5bd00	9.428896e-05
204	0xba2742a5	-0.0006380475
205	0x3a48ec54	0.000766461
206	0xbab34308	-0.0013676593
207	0x398d77c1	0.0002698284
208	0x390f1fae	0.00013649344
209	0x38ccd51c	9.767173e-05
210	0x399859c8	0.00029058591
211	0xb99547eb	-0.00028473078
212	0xb816cf85	-3.5956054e-05
213	0xb85c0458	-5.2456133e-05
214	0xb986c25f	-0.0002570329
215	0xb90426e1	-0.00012602984
216	0xb7ed466c	-2.8285394e-05
217	0x3899b18f	7.3286814e-05
218	0xb98dcb8e	-0.00027045276
219	0x380b417b	3.3201166e-05
220	0x393f60aa	0.0001825119
221	0xb9a3c4e3	-0.00031236475
222	0x39092953	0.00013080733
223	0x39373999	0.00017473697
224	0xb587888d	-1.0098025e-06
225	0x3523c7de	6.1013077e-07
226	0xb4913011	-2.7043328e-07
227	0x351a34df	5.744641e-07
228	0x35be6826	1.4186414e-06
229	0xb53b0ac7	-6.967861e-07
230	0x35f4556e	1.820428e-06
231	0xb4da474f	-4.0657548e-07
232	0x362f85db	2.6154946e-06
233	0xb59012ce	-1.0734309e-06
234	0xb3185ed1	-3.5476493e-08
235	0x35b92a5e	1.3795905e-06
236	0xb6577755	-3.2106957e-06
237	0x35c7e259	1.4892531e-06
238	0xb65549f8	-3.1782529e-06
239	0x34ef57af	4.4581017e-07
240	0x37c879b4	2.389853e-05
241	0xb6134d85	-2.194983e-06
242	0x39358e20	0.00017314451
243	0x375aac81	1.3033977e-05
244	0xb80c8acb	-3.3507862e-05
245	0x39627d68	0.00021599757
246	0x389c2e0b	7.447236e-05
247	0xb7332e54	-1.0680018e-05
248	0xb98a8f79	-0.00026428307
249	0xb7081091	-8.110089e-06
250	0xb86eb323	-5.6910456e-05
251	0xb96ce1bc	-0.00022590806
252	0x39f605e7	0.00046925174
253	0x388aa1ac	6.6104665e-05
254	0xb81a4a6e	-3.678578e-05
255	0x386d2c77	5.6546614e-05

exp_avg_sq f4 [16, 16]
0	0x36a8d515	5.031596e-06
1	0x35fa8431	1.8664924e-06
2	0x364bd3e2	3.037269e-06
3	0x3542b12a	7.252844e-07
4	0x3648a3e3	2.9897717e-06
5	0x34f3ef03	4.543618e-07
6	0x36166ac8	2.2413897e-06
7	0x339724e7	7.038198e-08
8	0x35d24213	1.5665449e-06
9	0x35ff6cf8	1.9030695e-06
10	0x35a4615d	1.2247289e-06
11	0x34a2c0d1	3.0315144e-07
12	0x36cec1e2	6.1618493e-06
13	0x357e77a0	9.479645e-07
14	0x373c1fc2	1.1213067e-05
15	0x35cd22b3	1.5283789e-06
16	0x337a4d3f	5.8277916e-08
17	0x3516de62	5.6202964e-07
18	0x35b3353f	1.3352036e-06
19	0x34b1bf83	3.3108162e-07
20	0x3656ee2f	3.2027126e-06
21	0x3582d040	9.746364e-07
22	0x3685bbff	3.9855945e-06
23	0x318ced1a	4.1014916e-09
24	0x3651420e	3.1181876e-06
25	0x3445d4ed	1.8424517e-07
26	0x35305a8a	6.569686e-07
27	0x35436fe4	7.2805983e-07
28	0x3725d794	9.88496e-06
29	0x361860fc	2.2706217e-06
30	0x37634cc6	1.354813e-05
31	0x35b15851	1.3213231e-06
32	0x3376b570	5.7441355e-08
33	0x34052823	1.2401192e-07
34	0x3556b2d5	7.998145e-07
35	0x3470106b	2.2357715e-07
36	0x35cd6262	1.5302323e-06
37	0x34c771d1	3.714945e-07
38	0x35d15f0d	1.5599377e-06
39	0x32cb0854	2.3636098e-08
40	0x35c6149c	1.4758148e-06
41	0x339cadd0	7.2959324e-08
42	0x35088dee	5.0870483e-07
43	0x348ef3a3	2.662683e-07
44	0x36856cc9	3.976373e-06
45	0x355d59cb	8.245958e-07
46	0x36bd8a5f	5.6487474e-06
47	0x35075607	5.0416605e-07
48	0x3627abd7	2.4984963e-06
49	0x35968c10	1.1216634e-06
50	0x35bf8a4b	1.4270857e-06
51	0x364b0c83	3.025664e-06
52	0x3722470d	9.672495e-06
53	0x35ecfff4	1.7657862e-06
54	0x36241624	2.4450792e-06
55	0x340dbb41	1.3199771e-07
56	0x36670ebf	3.4430266e-06
57	0x35ce0e73	1.5352401e-06
58	0x35a97bde	1.2627531e-06
59	0x3610ce98	2.1577926e-06
60	0x36cf3849	6.175633e-06
61	0x35a4fe9b	1.2293052e-06
62	0x37933cb7	1.7552038e-05
63	0x36ce42f3	6.1470723e-06
64	0x355b7863	8.1759043e-07
65	0x35dfd193	1.6675789e-06
66	0x36c3cc91	5.8352675e-06
67	0x35bc4984	1.4028487e-06
68	0x3577710b	9.217917e-07
69	0x3555ff62	7.9720314e-07
70	0x36b594c0	5.411537e-06
71	0x321bd220	9.069964e-09
72	0x36704508	3.5802968e-06
73	0x353a782b	6.9465267e-07
74	0x36633a19	3.3859453e-06
75	0x3626625f	2.4793187e-06
76	0x3778dac0	1.4832884e-05
77	0x3654904b	3.1674451e-06
78	0x372f21ab	1.0438652e-05
79	0x341c9ea9	1.4586352e-07
80	0x3460b0d0	2.092595e-07
81	0x34b19208	3.307507e-07
82	0x365baa1c	3.273256e-06
83	0x343a88dc	1.7372389e-07
84	0x35bed6b6	1.4218592e-06
85	0x351f2094	5.9279523e-07
86	0x36174f1e	2.2546806e-06
87	0x32b02938	2.050784e-08
88	0x36295123	2.523019e-06
89	0x34ba32d4	3.4682182e-07
90	0x35f9e449	1.8618385e-06
91	0x35601a8c	8.3485133e-07
92	0x37016fca	7.715027e-06
93	0x3591bf9b	1.0859106e-06
94	0x36e8cb5f	6.9378143e-06
95	0x33ac2ac8	8.017156e-08
96	0x34c3b4c2	3.64531e-07
97	0x366bf663	3.5161145e-06
98	0x36e07d69	6.69032e-06
99	0x35665dc8	8.5818147e-07
100	0x369e2ec2	4.7142103e-06
101	0x364ddc30	3.0675546e-06
102	0x378251dd	1.5535328e-05
103	0x32b1861d	2.06665e-08
104	0x3721db26	9.647372e-06
105	0x34800677	2.3846562e-07
106	0x365b0e3c	3.2641829e-06
107	0x36898fdb	4.099665e-06
108	0x381c598e	3.7276703e-05
109	0x3725689d	9.859124e-06
110	0x381a2aa6	3.675618e-05
111	0x353cb8de	7.0304475e-07
112	0x31cf2c31	6.029517e-09
113	0x3470102a	2.2357622e-07
114	0x34fb253e	4.677949e-07
115	0x342f8a5b	1.6348478e-07
116	0x3297a32a	1.7652912e-08
117	0x333c6693	4.386545e-08
118	0x34f3d648	4.5418187e-07
119	0x3217045c	8.790348e-09
120	0x33d7663d	1.0030315e-07
121	0x34225dc9	1.5121545e-07
122	0x34c78c58	3.7168752e-07
123	0x34106527	1.3447844e-07
124	0x34f22972	4.5106168e-07
125	0x34b0dd94	3.2943774e-07
126	0x34327ada	1.6622235e-07
127	0x3348bcbd	4.6737785e-08
128	0x341ce2ee	1.4611189e-07
129	0x34c0775a	3.5849627e-07
130	0x360b0174	2.071346e-06
131	0x3432b226	1.6642352e-07
132	0x356e4c54	8.877298e-07
133	0x34ce9ea7	3.8485925e-07
134	0x35dbc24d	1.637332e-06
135	0x32d8b6c8	2.5228829e-08
136	0x35d8ea82	1.6161505e-06
137	0x3494a462	2.7686752e-07
138	0x35a0c746	1.1978925e-06
139	0x352d1185	6.4473016e-07
140	0x36b2b52a	5.3259037e-06
141	0x3560330b	8.352078e-07
142	0x369ccfe0	4.673362e-06
143	0x334022de	4.4735195e-08
144	0x35129ee0	5.462043e-07
145	0x369315a3	4.3834602e-06
146	0x361ada21	2.3074756e-06
147	0x35864066	1.000252e-06
148	0x3665207d	3.414257e-06
149	0x359d8cd3	1.1738397e-06
150	0x36806c0e	3.8272765e-06
151	0x34b05bb6	3.2849283e-07
152	0x35a0ed9a	1.199008e-06
153	0x367f7023	3.8063233e-06
154	0x361f8f1c	2.3776147e-06
155	0x354ebcdf	7.7015824e-07
156	0x361e3bf4	2.3578732e-06
157	0x3622a678	2.4236779e-06
158	0x36d1a6ea	6.2481167e-06
159	0x361223f0	2.1776614e-06
160	0x33695776	5.4329085e-08
161	0x3398188c	7.0825166e-08
162	0x35140683	5.514377e-07
163	0x34712e59	2.2461735e-07
164	0x3599da1e	1.1462869e-06
165	0x34a609bb	3.092699e-07
166	0x3598b258	1.1376787e-06
167	0x31ea8734	6.825667e-09
168	0x35907289	1.076217e-06
169	0x3377bbff	5.768015e-08
170	0x34c67b80	3.6970232e-07
171	0x34503d53	1.9393819e-07
172	0x36436c23	2.9120208e-06
173	0x35251fe9	6.1513725e-07
174	0x368c03ba	4.172759e-06
175	0x34f27cb7	4.5166755e-07
176	0x35d0bc0e	1.5551939e-06
177	0x362f9edd	2.6169503e-06
178	0x36e24582	6.7434166e-06
179	0x365a71c1	3.2550745e-06
180	0x3498812b	2.8406188e-07
181	0x34497c82	1.876488e-07
182	0x365abacb	3.259326e-06
183	0x310586ca	1.9430666e-09
184	0x35abfea7	1.2814606e-06
185	0x35f847c1	1.8498323e-06
186	0x3687c441	4.0461605e-06
187	0x36491103	2.9961236e-06
188	0x37187f4b	9.089544e-06
189	0x3614ca40	2.2171444e-06
190	0x3606b2fb	2.0071736e-06
191	0x35ca94fd	1.5093534e-06
192	0x36bfa9be	5.712004e-06
193	0x37d104e5	2.491702e-05
194	0x38ebd4bd	0.00011245299
195	0x36dff92e	6.674926e-06
196	0x38e31b0d	0.00010829242
197	0x3815a6d2	3.567973e-05
198	0x394c3abf	0.0001947684
199	0x3419c151	1.4319563e-07
200	0x39245903	0.00015673418
201	0x36345b54	2.687525e-06
202	0x3883ca0e	6.2842024e-05
203	0x385a0d49	5.1987623e-05
204	0x3a048618	0.0005055382
205	0x38e25d77	0.00010793929
206	0x3a16d914	0.0005754393
207	0x378dea1e	1.691753e-05
208	0x357ab177	9.33905e-07
209	0x36e7dfbf	6.910384e-06
210	0x37a29958	1.9383311e-05
211	0x3603235d	1.9541105e-06
212	0x378fa28c	1.712262e-05
213	0x3706a378	8.025083e-06
214	0x382556b6	3.941982e-05
215	0x34360b18	1.6954107e-07
216	0x37ee71de	2.8424834e-05
217	0x35188d92	5.6830424e-07
218	0x37214670	9.612748e-06
219	0x372f3e73	1.0445353e-05
220	0x38d454bb	0.0001012473
221	0x37c52ebb	2.350599e-05
222	0x38e20650	0.000107776956
223	0x36544d2b	3.163538e-06
224	0x308c1268	1.0191572e-09
225	0x3043e31a	7.126332e-10
226	0x31ea61cc	6.8214145e-09
227	0x30019100	4.7135984e-10
228	0x31c6c2bb	5.7846967e-09
229	0x30e7851b	1.6845293e-09
230	0x31f08b76	7.000774e-09
231	0x2f04d76e	1.2081866e-10
232	0x31f0b83f	7.0058657e-09
233	0x30c3e346	1.4252712e-09
234	0x31a04deb	4.665471e-09
235	0x3101c977	1.888649e-09
236	0x32cfcf12	2.4192136e-08
237	0x318197cd	3.771652e-09
238	0x32c7ba25	2.3251298e-08
239	0x310fb864	2.0914053e-09
240	0x347cdeca	2.3550379e-07
241	0x35ada7a3	1.2938293e-06
242	0x36276bd5	2.4947706e-06
243	0x35dd4f95	1.6488945e-06
244	0x34d0bcf2	3.8880495e-07
245	0x3347285b	4.637e-08
246	0x35b7cdcf	1.3694461e-06
247	0x308ab715	1.0092857e-09
248	0x34a2e451	3.0340973e-07
249	0x352ad884	6.3645007e-07
250	0x35ef236a	1.7817194e-06
251	0x3585d516	9.971288e-07
252	0x36389561	2.7505087e-06
253	0x359dfc88	1.1770908e-06
254	0x34f999c2	4.6491738e-07
255	0x35b45463	1.3435605e-06

exp_avg f4 [16]
0	0xb8e28b1e	-0.000108024324
1	0x389190be	6.941099e-05
2	0xb76f0b55	-1.4248149e-05
3	0xb848cbc8	-4.7873502e-05
4	0xb8775118	-5.8964913e-05
5	0xb695392b	-4.4472013e-06
6	0xb92a6555	-0.00016250213
7	0xb8c3816c	-9.322431e-05
8	0x3714e7ad	8.875429e-06
9	0xb887ce7b	-6.4757616e-05
10	0xb75de3d7	-1.3225675e-05
11	0xb85694b2	-5.116006e-05
12	0x38f8c3e0	0.00011862046
13	0xb8f38a29	-0.00011612877
14	0x347519e5	2.2826823e-07
15	0xb8a64177	-7.9276906e-05

exp_avg_sq f4 [16]
0	0x365b628b	3.2690903e-06
1	0x349d2362	2.9269273e-07
2	0x344b8305	1.8953513e-07
3	0x359a884d	1.1513563e-06
4	0x360252bc	1.9419667e-06
5	0x355d05bf	8.233728e-07
6	0x35e90952	1.7362565e-06
7	0x347372bd	2.267288e-07
8	0x351a2a66	5.743117e-07
9	0x3602e9b2	1.9507538e-06
10	0x340033a5	1.1939717e-07
11	0x36535a89	3.1494149e-06
12	0x37d1fa3e	2.503127e-05
13	0x369a9c09	4.6077225e-06
14	0x313e9f61	2.7739235e-09
15	0x35616896	8.3971224e-07

exp_avg f4 [5, 16]
0	0x393757a5	0.0001748489
1	0xb79e7f3b	-1.8894314e-05
2	0xb7dd14a8	-2.6354872e-05
3	0x399ac7c7	0.00029522015
4	0xb8958f29	-7.131539e-05
5	0xb724c186	-9.82022e-06
6	0x399a4f6e	0.0002943235
7	0x3906949d	0.00012834599
8	0x36870c58	4.0247505e-06
9	0x3942165b	0.0001850961
10	0x37fe7f92	3.0338564e-05
11	0x379722b8	1.801677e-05
12	0x3a6d2f9b	0.0009047926
13	0x39548f3a	0.00020271252
14	0xb662667a	-3.3736274e-06
15	0x39ebebe3	0.00044998442
16	0xba50a473	-0.0007959075
17	0xb875de68	-5.8619684e-05
18	0x37da85d7	2.604995e-05
19	0x39c40ae4	0.00037392147
20	0xb897d592	-7.240022e-05
21	0x36a9b6e1	5.0578824e-06
22	0xba44d769	-0.0007508905
23	0x3a17f527	0.00057967234
24	0xb6a5b4a3	-4.938412e-06
25	0xba1a161e	-0.00058779295
26	0x37c0a111	2.2963186e-05
27	0xb79eaa04	-1.8914237e-05
28	0xb9e7b6c0	-0.00044195913
29	0xb74bb721	-1.2142381e-05
30	0x363390f6	2.6757457e-06
31	0xb8d348c3	-0.00010074817
32	0xb933b3d8	-0.00017137767
33	0xb5f5192b	-1.8261247e-06
34	0xb92a87ad	-0.00016263007
35	0xba97a136	-0.001156843
36	0x39ae0786	0.00033193472
37	0x368b49c0	4.1511084e-06
38	0x39082312	0.00012983035
39	0x390667b9	0.00012817876
40	0x33e1dafb	1.0517211e-07
41	0x39d055d0	0.00039736787
42	0x39a06a66	0.0003059685
43	0x35ec13df	1.7589153e-06
44	0xb8f45f92	-0.00011652628
45	0x392254a0	0.00015481049
46	0x3628d23e	2.5156328e-06
47	0xb93c0973	-0.00017932597
48	0x39e84d46	0.00044308061
49	0x38cb110b	9.682969e-05
50	0x39168a3a	0.00014356608
51	0x38616c03	5.3744774e-05
52	0x379498e8	1.7714177e-05
53	0x3659fa0c	3.2481066e-06
54	0x3974d73b	0.00023349833
55	0x39a1a26e	0.00030829333
56	0xb64f09aa	-3.085103e-06
57	0x39532c88	0.00020139117
58	0xb9a01b84	-0.0003053808
59	0x30f6ea3f	1.7965432e-09
60	0xb94ae17a	-0.00019348218
61	0xba25912b	-0.0006315882
62	0x34b3ab9a	3.3466205e-07
63	0xb798e9d6	-1.82287e-05
64	0x39b72981	0.00034935403
65	0xb792b758	-1.7489932e-05
66	0x37a282cd	1.9372814e-05
67	0x39e38433	0.0004339531
68	0xb957f056	-0.0002059353
69	0xb630fc21	-2.6372802e-06
70	0x38c38927	9.323871e-05
71	0xba9602d3	-0.0011444933
72	0x3682a764	3.8937887e-06
73	0xb94d96f1	-0.00019606554
74	0xb8620bfb	-5.3893757e-05
75	0xb567b3fb	-8.631611e-07
76	0xb9203f05	-0.00015282266
77	0x39960d8d	0.00028620326
78	0xb6107291	-2.1524359e-06
79	0xb91f0c8c	-0.00015168096

exp_avg_sq f4 [5, 16]
0	0x36ce44ef	6.1473033e-06
1	0x340afea3	1.2944888e-07
2	0x36891ad5	4.086042e-06
3	0x3694cc26	4.4345097e-06
4	0x36d00298	6.199185e-06
5	0x3493902c	2.7485783e-07
6	0x34fe2149	4.7335405e-07
7	0x34eb5a3a	4.383781e-07
8	0x34c28536	3.623224e-07
9	0x36fed3b8	7.594437e-06
10	0x36fe3f63	7.577169e-06
11	0x3428cb6d	1.5720225e-07
12	0x38c4dc76	9.387072e-05
13	0x3636a6b4	2.7217147e-06
14	0x32be8f5b	2.2184102e-08
15	0x3450003a	1.9371592e-07
16	0x37ce119c	2.4565314e-05
17	0x34250edb	1.5372227e-07
18	0x3697e856	4.527198e-06
19	0x3743a35f	1.16609435e-05
20	0x370b91b0	8.318966e-06
21	0x348aa4d3	2.5824428e-07
22	0x35bbeb4f	1.400107e-06
23	0x361e45e1	2.358451e-06
24	0x3511465b	5.411909e-07
25	0x3679934f	3.7189636e-06
26	0x36bcdadc	5.628315e-06
27	0x34b7508a	3.4145006e-07
28	0x37f3995f	2.9039276e-05
29	0x3593dfa6	1.1017444e-06
30	0x3292ad8b	1.7075555e-08
31	0x338e00a7	6.612509e-08
32	0x372a8594	1.0163891e-05
33	0x340bfef7	1.303814e-07
34	0x366f500f	3.5660375e-06
35	0x37ebe866	2.8122402e-05
36	0x369b628a	4.6308314e-06
37	0x35119253	5.422964e-07
38	0x3462ee6d	2.1134629e-07
39	0x3542f7f1	7.2631434e-07
40	0x35313b70	6.602413e-07
41	0x37265e10	9.916272e-06
42	0x36a95ce4	5.0474064e-06
43	0x34316d8c	1.6524262e-07
44	0x36bb5835	5.583303e-06
45	0x35b01a1f	1.3120624e-06
46	0x3290d80c	1.6862053e-08
47	0x33f5af9e	1.1440646e-07
48	0x37597b1d	1.29628725e-05
49	0x346eceb1	2.2240671e-07
50	0x370788a8	8.078445e-06
51	0x365ee135	3.3211666e-06
52	0x36b14dd1	5.28407e-06
53	0x34ac5e69	3.210619e-07
54	0x34ae60ca	3.248045e-07
55	0x36a641ef	4.954861e-06
56	0x35121038	5.441284e-07
57	0x3738ed85	1.10225565e-05
58	0x37474058	1.18763055e-05
59	0x349d00cd	2.9244111e-07
60	0x378521a0	1.5870493e-05
61	0x36bcc404	5.625656e-06
62	0x32a6dc86	1.9425226e-08
63	0x33b31eca	8.3409375e-08
64	0x3716cbbd	8.988133e-06
65	0x33e96efc	1.0870096e-07
66	0x3639262c	2.7589367e-06
67	0x35c0e2e1	1.4371145e-06
68	0x35bf41f7	1.4249807e-06
69	0x34b73332	3.4123656e-07
70	0x343a4870	1.7348952e-07
71	0x371e277b	9.426726e-06
72	0x3518d960	5.6940735e-07
73	0x37ffee59	3.0509358e-05
74	0x367543d2	3.6547322e-06
75	0x33d08cae	9.711344e-08
76	0x370f86be	8.554836e-06
77	0x359ee19d	1.183758e-06
78	0x324f0694	1.20504815e-08
79	0x33f7720f	1.1522581e-07

exp_avg f4 [5]
0	0x3992b77a	0.0002798399
1	0xb6ae9934	-5.2034393e-06
2	0xb90a794c	-0.00013205892
3	0x390011b8	0.00012213632
4	0xb98ac8f5	-0.00026471136

exp_avg_sq f4 [5]
0	0x36bb3f8c	5.580432e-06
1	0x36dff344	6.6742377e-06
2	0x36992c3a	4.564904e-06
3	0x3783ca10	1.571051e-05
4	0x36913a8a	4.3281516e-06
