tests/results/over-squashing-spec/2025-05-06/14-41-52-264862-over-squashing-spec/14/ckpt/357.ckpt (torch, 237202 bytes, 31 tensors)

model.encoder.node_encoder.encoder.weight f4 [16, 5]
0	0x3dd229c6	0.10261874
1	0xbf641eb1	-0.8910933
2	0x3f8ffd44	1.1249166
3	0xbe4cda1e	-0.2000508
4	0x3b166eb4	0.0022954168
5	0x3f826d7d	1.0189663
6	0xbfbff36a	-1.4996159
7	0xbf8d9767	-1.1061829
8	0x3f144334	0.57915044
9	0x3ede8d0f	0.43466994
10	0xbf8b63b4	-1.0889802
11	0x3f98d5c1	1.1940233
12	0xbf2ec248	-0.682652
13	0x3ef00c51	0.46884397
14	0xbe8f7c27	-0.28024408
15	0xbf1fddab	-0.62447613
16	0xbf80976a	-1.0046208
17	0x3f8f8098	1.1211119
18	0x3f2e462f	0.6807584
19	0xbed9bfc3	-0.42529115
20	0xbf5bd863	-0.85877055
21	0x3f410297	0.75394577
22	0xbe9d342b	-0.30703864
23	0xbf745bc2	-0.9545251
24	0x3f2df7c6	0.679562
25	0xbf50dfb5	-0.8159135
26	0x3da1b280	0.07895374
27	0x3fab2a99	1.3372375
28	0xbdf0706e	-0.11740194
29	0xbf61a016	-0.88134897
30	0xbea3aa9c	-0.31966102
31	0xbd5d9253	-0.054094624
32	0x3f29f3f9	0.663879
33	0xbf79216d	-0.9731663
34	0x3f5607ba	0.8360554
35	0x3f936e34	1.1518006
36	0x3f1261c8	0.5718045
37	0xbf79b44a	-0.97540724
38	0xbea81486	-0.32828158
39	0x3ed637ee	0.41839546
40	0x3f3cc752	0.7374164
41	0xbeeb999d	-0.46015635
42	0x3e53fa51	0.20700957
43	0xbd30cc22	-0.043163426
44	0x3f86df01	1.0536805
45	0xbd2531e6	-0.04033079
46	0xbd29cb37	-0.041453566
47	0x3d2134f8	0.039357156
48	0xbf2c8cd6	-0.674024
49	0x3f522647	0.82089657
50	0x3f928f10	1.1449909
51	0x3f11f4ae	0.57013977
52	0xbe9b3699	-0.30315092
53	0xbf8fbbc0	-1.1229172
54	0xbf2147ec	-0.6300037
55	0x3e4d67ea	0.20059171
56	0x3d03d3a7	0.03218427
57	0x3f86b7e4	1.0524869
58	0xbf48f0e5	-0.78492576
59	0xbe7eae51	-0.24871184
60	0xbe91b041	-0.28454784
61	0x3ec8bc03	0.39205942
62	0xbe52f6c2	-0.20601943
63	0x3f5c7074	0.8610909
64	0xbf3339aa	-0.70009863
65	0x3f4d53ab	0.8020579
66	0x3f97413d	1.1816784
67	0xbf3eed3a	-0.7458073
68	0xbf47bc85	-0.7802203
69	0xbe7a8126	-0.24463329
70	0xbf8e46a1	-1.1115304
71	0x3f2f4d3f	0.68477243
72	0x3da80d01	0.08205605
73	0xbf2a8581	-0.6660996
74	0x3f9b9d2e	1.2157342
75	0xbf14225e	-0.5786494
76	0x3f22b44a	0.6355635
77	0x3f24df5b	0.64403313
78	0xbc99c725	-0.018771717
79	0x3f3706fd	0.7149504

model.encoder.node_encoder.encoder.bias f4 [16]
0	0xbfb051eb	-1.3774999
1	0xbeb1cf52	-0.34728485
2	0x3ff7bf98	1.9355345
3	0x3f2ff81d	0.68737966
4	0xbf783bb0	-0.96966076
5	0x3fd82857	1.6887311
6	0xbed1f35a	-0.41005975
7	0xbfec2611	-1.8449117
8	0x3fef0a84	1.8675084
9	0xbfe11de9	-1.7587253
10	0xbd459965	-0.04824199
11	0xbf88fbc7	-1.0701836
12	0x3fa1dee4	1.2646146
13	0xbf07558b	-0.52864903
14	0xbf1d0aca	-0.6134459
15	0x3f3e5135	0.7434266

model.gnn_layers.0.factor_split f4 [16, 2]
0	0x3f800000	1.0
1	0x3f800000	1.0
2	0x3f800000	1.0
3	0x3f800000	1.0
4	0x3f800000	1.0
5	0x3f800000	1.0
6	0x3f800000	1.0
7	0x3f800000	1.0
8	0x3f800000	1.0
9	0x3f800000	1.0
10	0x3f800000	1.0
11	0x3f800000	1.0
12	0x3f800000	1.0
13	0x3f800000	1.0
14	0x3f800000	1.0
15	0x3f800000	1.0
16	0x3f800000	1.0
17	0x3f800000	1.0
18	0x3f800000	1.0
19	0x3f800000	1.0
20	0x3f800000	1.0
21	0x3f800000	1.0
22	0x3f800000	1.0
23	0x3f800000	1.0
24	0x3f800000	1.0
25	0x3f800000	1.0
26	0x3f800000	1.0
27	0x3f800000	1.0
28	0x3f800000	1.0
29	0x3f800000	1.0
30	0x3f800000	1.0
31	0x3f800000	1.0

model.gnn_layers.0.filter.filter.distance_expansion.offset f4 [20]
0	0x00000000	0.0
1	0x3f86bca2	1.0526316
2	0x4006bca2	2.1052632
3	0x404a1af3	3.1578948
4	0x4086bca2	4.2105265
5	0x40a86bca	5.263158
6	0x40ca1af3	6.3157897
7	0x40ebca1c	7.3684216
8	0x4106bca2	8.421053
9	0x41179436	9.473684
10	0x41286bca	10.526316
11	0x4139435e	11.578947
12	0x414a1af2	12.631578
13	0x415af286	13.68421
14	0x416bca1b	14.736842
15	0x417ca1af	15.789474
16	0x4186bca2	16.842106
17	0x418f286c	17.894737
18	0x41979436	18.947369
19	0x41a00000	20.0

model.gnn_layers.0.filter.filter.linear.0.weight f4 [3, 20]
0	0xbee12e2d	-0.43980542
1	0x3f858d24	1.0433698
2	0x3f86254f	1.0480136
3	0xbfab276b	-1.3371404
4	0x3ef7d484	0.48404324
5	0x3ec02ffd	0.37536612
6	0x3df6bb2b	0.12047418
7	0xbd5146f6	-0.051093064
8	0xbea421ad	-0.32056943
9	0x3ed7f966	0.42182463
10	0x3d620ee6	0.05518999
11	0xbe908059	-0.28222921
12	0x3c2b179e	0.0104426425
13	0x3dfa9ee5	0.12237338
14	0xbe89c5ed	-0.26908818
15	0xbd9ab514	-0.07554069
16	0xbea439c0	-0.3207531
17	0xbf1c6193	-0.61086386
18	0xbee090e4	-0.43860543
19	0x3e22fb3d	0.15916152
20	0x3f2d3079	0.6765209
21	0xbf8d6496	-1.1046321
22	0xbf859a0d	-1.0437638
23	0x3fc60860	1.5471306
24	0x3e5968f4	0.21231443
25	0xbf5558ae	-0.8333844
26	0x3dcba5c4	0.09943727
27	0x3effa11f	0.49927613
28	0x3edc1d1f	0.42990968
29	0xbf6fd914	-0.9369061
30	0xbe11cdeb	-0.14238708
31	0x3e2cd08f	0.16876434
32	0xbd6a629c	-0.057222947
33	0xbedca7a9	-0.43096665
34	0xbe1a5094	-0.150698
35	0x3b04241b	0.0020163122
36	0xbe48f370	-0.19624114
37	0xbf56baba	-0.8387867
38	0xbea3ee95	-0.3201796
39	0xbf234530	-0.63777447
40	0xbed13a01	-0.40864566
41	0x3f428acf	0.75993055
42	0x3f89f6ba	1.077842
43	0xbfcd304d	-1.6030365
44	0xbd8232cf	-0.06357347
45	0x3f142b48	0.5787854
46	0x3c5cfd41	0.013488115
47	0xbf076638	-0.5289035
48	0xbf1f6bd1	-0.6227389
49	0x3eb37d8e	0.35056728
50	0x3ab7374d	0.0013978273
51	0xbf2184dc	-0.6309335
52	0x3d800fee	0.06253038
53	0xbd6274e5	-0.05528726
54	0xbec7f0b7	-0.39050838
55	0xbf07c63b	-0.5303685
56	0xbea0cdeb	-0.31407103
57	0xbeaddab7	-0.3395593
58	0xbdbd21a7	-0.09234934
59	0x3ea5d453	0.32388553

model.gnn_layers.0.filter.filter.linear.1.weight f4 [16, 3]
0	0x3f17e858	0.59338903
1	0xbfc42ed9	-1.5326797
2	0x3fc8306e	1.563978
3	0x3f2ab1c4	0.666775
4	0x3f68251d	0.9068163
5	0xbef5fa9f	-0.4804277
6	0x3f91c8f7	1.1389455
7	0xbfb1fb26	-1.390477
8	0x3ffa9f6e	1.9579904
9	0x3fdb80a7	1.7148637
10	0xbfcf69b8	-1.6204138
11	0x3f354734	0.7081177
12	0xbfd57101	-1.6675111
13	0x3f6163d9	0.8804298
14	0xbf076d85	-0.5290149
15	0xbff17789	-1.8864604
16	0x3fcb2459	1.5870467
17	0xbfc76083	-1.5576328
18	0xbfc1b1b3	-1.5132354
19	0x3fbd7f16	1.4804409
20	0xbfc63b19	-1.5486785
21	0x3f7d4bfe	0.9894408
22	0xbfd640f4	-1.6738572
23	0x3feda3fa	1.8565667
24	0x3fc61ac5	1.547692
25	0xc00437ca	-2.065905
26	0x3ffc6704	1.9718938
27	0xbe863aad	-0.2621664
28	0x3f93b121	1.153843
29	0xbf7e614a	-0.993672
30	0xbea28636	-0.3174302
31	0x3f91bc63	1.1385616
32	0xbf1d03da	-0.61334
33	0x3fa4a535	1.2862917
34	0xbf8cf006	-1.1010749
35	0x3fc0450d	1.5021073
36	0x3fca4c97	1.5804623
37	0xbf453e4e	-0.77048194
38	0x3e0927eb	0.13394134
39	0xbfe4f05a	-1.788585
40	0x3fc7072f	1.5549067
41	0xbfb01786	-1.3757179
42	0x3fcb291f	1.5871924
43	0xbfdd9c4e	-1.7313325
44	0x3f8bdccd	1.0926758
45	0xbf74b509	-0.9558874
46	0x3ea873a9	0.32900742
47	0x3da17ad5	0.078847565

model.gnn_layers.0.filter.filter.linear.1.bias f4 [16]
0	0x3bc1e757	0.0059174704
1	0xbed3d5ea	-0.4137414
2	0xbc60d4f4	-0.013722647
3	0xbc176f19	-0.009242796
4	0x3dc5001d	0.09619162
5	0x3d9b7df8	0.07592386
6	0x3d82ab4a	0.06380327
7	0x3cdcc095	0.026947299
8	0xbda8eead	-0.08248649
9	0xbd5f4662	-0.05451048
10	0xbe1a3827	-0.15060483
11	0xbdd7d3fc	-0.1053848
12	0x3d5fd891	0.054649893
13	0x3ddeb74a	0.10874803
14	0xbd6abab6	-0.057306968
15	0x3dcb9dab	0.09942182

model.gnn_layers.0.feature_transform.layer_real.lin1.weight f4 [16, 16]
0	0xbf41ae63	-0.7565672
1	0xbf5cfc37	-0.8632235
2	0x3f9ec5be	1.2404096
3	0x3dcdace5	0.10042743
4	0x3f9d172a	1.2272694
5	0x3f370a09	0.7149969
6	0xbf23638c	-0.6382377
7	0xbf13cb2f	-0.5773191
8	0xbcda7ab8	-0.026669845
9	0xbeb3d98c	-0.35126913
10	0xbf324760	-0.6964016
11	0xbf7712e6	-0.9651321
12	0x3f68d724	0.9095328
13	0xbf12696d	-0.57192117
14	0x3fa799a3	1.3093761
15	0x3f221350	0.6331072
16	0x3ee6e405	0.4509584
17	0xbe8f288c	-0.27960622
18	0xbf0e94f4	-0.55696034
19	0xbf04943a	-0.51788676
20	0x3e91c8cd	0.2847351
21	0x3d2705c9	0.040777
22	0x3f175b72	0.5912391
23	0x3f04e9d9	0.51919323
24	0xbe925011	-0.2857671
25	0x3ebd533f	0.36977574
26	0x3e4fd959	0.20297755
27	0x3e9f4398	0.31106257
28	0xbeb02dec	-0.34410036
29	0x3f058e3c	0.5217016
30	0x3ee3af02	0.44469458
31	0xbc2db193	-0.010601419
32	0xbf9b9b63	-1.2156795
33	0xbfc5c5a7	-1.5450944
34	0x3fb28f1f	1.3949927
35	0xbff91f97	-1.9462765
36	0x3fa7784c	1.3083587
37	0x3f60bf6f	0.87792104
38	0xbf2a91b9	-0.66628605
39	0x3de69dc9	0.11260564
40	0xbdb1fe39	-0.08691067
41	0xbf402079	-0.7504955
42	0x3f99aefc	1.2006526
43	0xbf3d6fa5	-0.7399848
44	0x3f7bc990	0.98354435
45	0x4003d9d1	2.0601695
46	0x3ec4a8f3	0.38410148
47	0x3df74e1a	0.120754436
48	0xbd1ac2ef	-0.03778356
49	0xbf95ef17	-1.171359
50	0x3f4e132c	0.80498004
51	0x3f824832	1.0178282
52	0xbfc542c8	-1.5411005
53	0x3f856c38	1.0423651
54	0xbf5c7f74	-0.8613198
55	0xbfa958c8	-1.3230219
56	0x3f270290	0.65238285
57	0xbf778af5	-0.96696407
58	0xbf50ee81	-0.8161393
59	0xbd99402f	-0.07482945
60	0x3fa6b798	1.3024778
61	0xbf9b95d4	-1.2155099
62	0xbf87e38e	-1.0616319
63	0x3f0cf1a8	0.5505624
64	0xbc5d7a11	-0.013517872
65	0x3d58ee67	0.052961733
66	0xbeb72dad	-0.35777035
67	0xbebe6e85	-0.37193695
68	0x3dd13fe0	0.10217261
69	0xbe2e973e	-0.17049882
70	0xbd1c6787	-0.03818467
71	0xbebfed6f	-0.37485835
72	0xbe8a668e	-0.27031368
73	0x3dc053b3	0.09390964
74	0x3de92286	0.11383538
75	0x3d0f8e43	0.03504778
76	0x3f31efc2	0.69506466
77	0xbe0dffca	-0.13867107
78	0x3ea8697a	0.32892972
79	0xbe091910	-0.13388467
80	0x3f8f9bfa	1.1219475
81	0xbf2da77f	-0.67833704
82	0xbee6ced4	-0.45079672
83	0x3fac1d21	1.344639
84	0xbf56d21e	-0.83914363
85	0x3fbb06bf	1.4611434
86	0x3f9c1e57	1.2196759
87	0xbfdccedc	-1.7250628
88	0x3e9d3ef8	0.30712104
89	0xbf50dbd2	-0.8158542
90	0xbe6165f0	-0.22011542
91	0x3fc0c8ed	1.5061318
92	0xbd89eba9	-0.06734402
93	0xbfae3499	-1.3609802
94	0xbf665e12	-0.8998729
95	0x3dc11f7f	0.094298355
96	0xbf7bfd9c	-0.9843385
97	0x3f65d6c5	0.8978084
98	0x3faed63f	1.3659133
99	0x3f91f01a	1.1401398
100	0xbf9dd923	-1.233189
101	0x3f9cf6d2	1.2262824
102	0xbf9ebc72	-1.2401259
103	0xbf82c72a	-1.021703
104	0x3f9ce7e2	1.2258265
105	0xbfa715c2	-1.3053515
106	0xbf7427cb	-0.9537322
107	0xbfa96b79	-1.3235923
108	0x3f8fec03	1.12439
109	0xbf83175a	-1.0241501
110	0xbf950300	-1.164154
111	0xbeb34783	-0.35015497
112	0xbf90886d	-1.1291634
113	0xbf797d86	-0.9745716
114	0x3f17d02a	0.5930201
115	0xbf78edaf	-0.97237676
116	0x3f08db3c	0.53459525
117	0x3f0468b5	0.5172227
118	0xbe9540bf	-0.2915096
119	0x3f09c02f	0.53808874
120	0x3ec9b63e	0.39396852
121	0xbe513531	-0.20430447
122	0x3fd60425	1.6720015
123	0xbe8ce466	-0.27518004
124	0x3f0e8415	0.5567029
125	0x3fa042a3	1.2520336
126	0x3e6ebee8	0.23315012
127	0x3cfc3654	0.030787624
128	0xbeeb10c1	-0.4591122
129	0xbd5e6e0b	-0.054304164
130	0x3f0d753b	0.55257004
131	0x3f07b74a	0.5301405
132	0x3f82dc16	1.0223415
133	0x3eec9108	0.462044
134	0x3f068de5	0.52560264
135	0xbfb0e758	-1.38206
136	0xbde20184	-0.11035445
137	0xbe663cb2	-0.22484091
138	0xbe1a97f2	-0.15097025
139	0xbec1fa5b	-0.3788632
140	0xbeb5d867	-0.35516664
141	0xbfab85c1	-1.3400193
142	0x3f8976a0	1.0739326
143	0xbe081364	-0.13288647
144	0xbf38a236	-0.72122514
145	0xbf80a971	-1.005171
146	0x3f84735d	1.0347706
147	0xbec53231	-0.38514856
148	0x3f24320b	0.6413886
149	0x3e840cfa	0.2579115
150	0xbf1f0434	-0.6211579
151	0xbe8b782b	-0.27240118
152	0xbec56a0e	-0.38557476
153	0xbe466568	-0.19374621
154	0xbf2c4ab0	-0.67301464
155	0xbe1afa13	-0.15134458
156	0x3f580edc	0.84397674
157	0x3d0616e4	0.032736674
158	0x3f02fe0a	0.5116888
159	0x3ee14e39	0.44004992
160	0xbf99168e	-1.1960008
161	0x3f0c3566	0.5476898
162	0x3f6ca69a	0.92441714
163	0x3f3bf8a3	0.73426265
164	0xbf773605	-0.965668
165	0x3f55877b	0.8340985
166	0xbf8174e9	-1.0113803
167	0xbfac2e6a	-1.3451664
168	0x3f54d2d1	0.8313418
169	0xbf85dfe2	-1.0458949
170	0xbf14e6a9	-0.5816446
171	0xbf9e0255	-1.2344462
172	0x3f9d9ec4	1.2314076
173	0xbf4f52b2	-0.8098556
174	0xbf476ff4	-0.779052
175	0x3e2a6851	0.16641356
176	0xbf658720	-0.8965931
177	0x3ee41f8b	0.44555315
178	0x3f911015	1.1333033
179	0x3f6b8d82	0.920128
180	0xbf1dfb01	-0.61711127
181	0x3e3c238d	0.18372937
182	0xbf68865d	-0.9083002
183	0xbf74d190	-0.95632267
184	0x3f114541	0.567463
185	0xbf01ef22	-0.5075551
186	0xbf92e625	-1.1476485
187	0xbfc0be2e	-1.5058038
188	0x3f7a1c65	0.97699577
189	0xbfc26db5	-1.518973
190	0x3dfd319a	0.12362976
191	0x3e23cf53	0.15997057
192	0xbcb53442	-0.022119645
193	0x3e806aee	0.2508158
194	0xbd82766e	-0.06370245
195	0x3bcb468a	0.0062034773
196	0x3e9290a2	0.2862597
197	0xbe54e38c	-0.20789927
198	0x3e67d015	0.22637971
199	0xbeb2d8d1	-0.34931043
200	0xbdffe3e5	-0.12494639
201	0x3bba6c27	0.0056891623
202	0xbe2e234b	-0.1700565
203	0xbec77e61	-0.38963607
204	0x3c87be59	0.016570257
205	0xbe98384d	-0.29730454
206	0x3f41e44e	0.7573899
207	0xbe60985e	-0.21933123
208	0xbf90b139	-1.1304084
209	0xbfc64d28	-1.5492296
210	0x3f824277	1.0176533
211	0x3f9451bc	1.1587443
212	0xbf914610	-1.1349506
213	0x3fac9c56	1.348521
214	0xbf6bf1a9	-0.9216562
215	0xbf8e34ed	-1.1109902
216	0x3f991f63	1.1962703
217	0xbf97aca1	-1.1849557
218	0xbf930656	-1.1486309
219	0xbf7cb10e	-0.98707664
220	0x3f958f7c	1.1684413
221	0xbf8a0b4f	-1.0784701
222	0xbf4ae579	-0.792564
223	0x3fa9cfb1	1.3266507
224	0xbf88fdfa	-1.0702507
225	0x3f7fac88	0.99872637
226	0x3f1f8cb7	0.6232409
227	0x3efe2fb6	0.49645776
228	0xbfad9cf5	-1.3563524
229	0x3ef50aac	0.47859704
230	0xbf8ee213	-1.1162742
231	0xbe99c635	-0.30034032
232	0x3f73ab34	0.9518311
233	0xbfa0408f	-1.2519702
234	0x3ebeea2d	0.37288037
235	0xbf9e5b32	-1.2371581
236	0x3fa97ee4	1.3241849
237	0xbe36f28c	-0.17865962
238	0xbf5904d6	-0.84773004
239	0xbe8128df	-0.25226495
240	0x3e445044	0.19171244
241	0x3edf601c	0.43628013
242	0x3ec40a16	0.38288945
243	0x3f25c48c	0.6475303
244	0x3e48166d	0.19539805
245	0xbe05ed13	-0.13078718
246	0x3f5eceee	0.870345
247	0xbee80152	-0.45313507
248	0x3efeea25	0.49788013
249	0x3e2c359b	0.16817324
250	0xbebbd49a	-0.3668564
251	0xbf2b29b4	-0.6686051
252	0xbf255186	-0.6457752
253	0xbf3651fa	-0.71218836
254	0xbd4b2893	-0.04959924
255	0x3e75c746	0.24001798

model.gnn_layers.0.feature_transform.layer_real.lin1.bias f4 [16]
0	0x3f2acf02	0.6672212
1	0xbf167002	-0.5876466
2	0x3f58ec6d	0.8473576
3	0x3f54804c	0.83008265
4	0xbe51207d	-0.2042255
5	0x3f18486b	0.594855
6	0x3f4068ad	0.7515972
7	0x3ec5b276	0.38612717
8	0x3f19d989	0.6009756
9	0xbeba3102	-0.36365515
10	0x3f440986	0.7657703
11	0x3f82ff60	1.0234184
12	0x3e5d28f0	0.21597648
13	0x3f8e4005	1.1113287
14	0x3f88fd9b	1.0702394
15	0x3f229c90	0.63520145

model.post_mp.mlp.1.weight f4 [5, 16]
0	0xbf8ef685	-1.1168982
1	0xbee6957d	-0.45035926
2	0x3ed917b3	0.42400894
3	0x3f0f2f43	0.5593149
4	0x3fa57de7	1.2929047
5	0xbe91a849	-0.28448704
6	0xbf20dfc3	-0.62841433
7	0x3f7ec1c1	0.99514395
8	0x3fac6fb4	1.3471589
9	0x3f5ac20b	0.85452336
10	0x3f7347d8	0.950315
11	0xbefc2738	-0.49248672
12	0x3e8a57cf	0.27020118
13	0x3f4b6ad2	0.7945987
14	0x3fa2dd55	1.2723795
15	0xbdc3c847	-0.09559684
16	0x3f85c441	1.0450517
17	0x3ed44241	0.41456798
18	0xbff00561	-1.8751642
19	0x3f8c70a1	1.0971872
20	0xbf335cda	-0.70063555
21	0xbf847bca	-1.0350277
22	0x3e9157b7	0.28387234
23	0x400911c2	2.1417089
24	0x3e7a0161	0.24414589
25	0xbfaedf8d	-1.3661972
26	0x3f2d3801	0.6766358
27	0xbf188d06	-0.59590185
28	0x3f86b143	1.0522846
29	0x3fae248c	1.3604903
30	0xbf1b1dd5	-0.60592395
31	0xbe539819	-0.2066349
32	0xbf7f3982	-0.99697125
33	0x3e56f41a	0.20991555
34	0x3f9abec0	1.2089462
35	0xbfa3a253	-1.2783912
36	0x3f1f2ef4	0.6218102
37	0x3fc4cb04	1.5374455
38	0x3f8d5ce7	1.1043977
39	0xbf831ae4	-1.0242581
40	0xbf786654	-0.9703114
41	0xbc2135cf	-0.009839489
42	0x3dffcbb5	0.12490026
43	0xbfbab2a7	-1.458577
44	0x3e5e2cef	0.21696828
45	0xbf982607	-1.1886605
46	0xbed1d535	-0.40982977
47	0x3b8f21c3	0.0043680384
48	0x3cfc3736	0.030788045
49	0x3f328325	0.6973136
50	0x3fb5443d	1.416145
51	0xbf25da7b	-0.647865
52	0x3e8ccc46	0.27499598
53	0xbf5b55a3	-0.85677546
54	0xbf9c75bf	-1.2223433
55	0xbff6efd6	-1.9291942
56	0x3f658217	0.89651626
57	0xbeb2df86	-0.3493616
58	0xbf5711c2	-0.8401147
59	0x3f6dc6cf	0.9288148
60	0xbcba6890	-0.022754937
61	0xbf8a6d1f	-1.0814551
62	0x3f5e32f5	0.86796504
63	0xbe460848	-0.19339097
64	0x3e913a53	0.2836481
65	0xbf89df02	-1.0771182
66	0x3f4c7c06	0.79876745
67	0x3f7653a9	0.96221405
68	0xbf9bd9b8	-1.2175817
69	0xbf73f469	-0.95294815
70	0x3fa727bb	1.3059
71	0x3dad97f9	0.08476252
72	0xbff7ab97	-1.934924
73	0x3f5313ea	0.8245226
74	0xbea7fdf8	-0.3281095
75	0x3f2cc160	0.67482567
76	0xbf8f5231	-1.1196958
77	0xbef3a79d	-0.47588816
78	0xbf8e3f75	-1.1113116
79	0x3f3ed61c	0.74545455

model.post_mp.mlp.1.bias f4 [5]
0	0xbc500519	-0.012696528
1	0xbdd11bc9	-0.10210378
2	0xbe2ae83f	-0.16690157
3	0xbea120a0	-0.31470203
4	0xbd69187f	-0.056908127

exp_avg f4 [16, 5]
0	0xb75579de	-1.2724164e-05
1	0x3a537777	0.0008066813
2	0xba0bfc76	-0.0005340049
3	0x38f85c73	0.000118427815
4	0x3a31382e	0.00067603856
5	0x39243700	0.00015660748
6	0x3a5afe3b	0.00083539233
7	0x3a0567d0	0.00050890166
8	0x38d01426	9.921966e-05
9	0xb80ff4c8	-3.4321827e-05
10	0xb9cf87a8	-0.00039583188
11	0xbb00233e	-0.0019552256
12	0xb996268c	-0.0002863895
13	0xb9e1378c	-0.0004295673
14	0xba397a02	-0.00070753705
15	0x3ab4870b	0.0013773156
16	0x3b09fe94	0.0021056281
17	0x3905786d	0.0001272873
18	0x3822c4ff	3.8807277e-05
19	0x3acee470	0.0015784632
20	0x391d4293	0.00014997488
21	0xba064857	-0.0005122474
22	0x394b314c	0.00019377953
23	0x39f0345c	0.00045815378
24	0xba10060b	-0.00054940645
25	0xb9c11d0b	-0.00036833467
26	0xb9ca13ae	-0.00038543105
27	0xbad167fd	-0.0015976425
28	0xb86da59d	-5.6659443e-05
29	0xb98004b5	-0.0002441757
30	0x3a5e8e61	0.0008489844
31	0x39ee8106	0.00045491027
32	0xb9d60e5d	-0.00040827962
33	0x3b1fca36	0.0024382002
34	0xbaf0eada	-0.0018380538
35	0x39edeaf7	0.00045379225
36	0x3a37f0d0	0.000701678
37	0x3a22bd2d	0.0006207999
38	0x39a893c3	0.00032153548
39	0x3aa22705	0.0012371248
40	0xb88c3aba	-6.686659e-05
41	0x39943346	0.0002826696
42	0x3722101d	9.659704e-06
43	0x397d5872	0.00024160909
44	0xbabda7cf	-0.0014469567
45	0x380f2229	3.412567e-05
46	0x39bde1f3	0.00036217234
47	0x3896f973	7.199021e-05
48	0x392d7f80	0.00016546063
49	0xb8bf0d98	-9.110122e-05
50	0xbafcf5b6	-0.0019299302
51	0xbafc890d	-0.0019266919
52	0xbabf2bda	-0.0014585212
53	0xba13fc4e	-0.00056452013
54	0xba4f4497	-0.0007906644
55	0xbb1201f8	-0.0022279005
56	0xbb06ec71	-0.0020587707
57	0xbb3ea50a	-0.002909007
58	0xba89081f	-0.0010454691
59	0xb949f774	-0.00019261037
60	0xb9628304	-0.00021601847
61	0xb9f384d5	-0.0004644754
62	0xb91d6b7c	-0.00015012728
63	0xb9e3a6a9	-0.00043420985
64	0xb89caac5	-7.470468e-05
65	0xbb9a5f2e	-0.0047110533
66	0xbbbad8ff	-0.0057021375
67	0xbb532825	-0.0032219973
68	0xbb2a085d	-0.0025944926
69	0xbaf821e8	-0.0018931003
70	0x3ab1ae53	0.0013555981
71	0xb9cb8980	-0.00038821623
72	0x397726fb	0.00023570277
73	0x3aa24c02	0.0012382271
74	0xbae9cc96	-0.0017837461
75	0x393313f1	0.00017078199
76	0xb833b2a0	-4.2843283e-05
77	0x38096aab	3.2762688e-05
78	0x37c546d4	2.3517212e-05
79	0x3885116a	6.345178e-05

exp_avg_sq f4 [16, 5]
0	0x396a3040	0.00022333954
1	0x396601c2	0.00021935164
2	0x3970fd0e	0.00022982454
3	0x3967ca38	0.00022105209
4	0x3946b9d7	0.00018951982
5	0x372cc6dd	1.02983e-05
6	0x37187a85	9.088432e-06
7	0x371094a2	8.617675e-06
8	0x370d3311	8.416145e-06
9	0x37044eaa	7.8861285e-06
10	0x387c46c0	6.0147373e-05
11	0x388bdaf4	6.66882e-05
12	0x387cc2a0	6.026274e-05
13	0x3879d93b	5.9568538e-05
14	0x3862d9a9	5.408531e-05
15	0x39138323	0.00014067865
16	0x391b26b2	0.00014796367
17	0x3913ba57	0.0001408843
18	0x3910bc3c	0.00013803033
19	0x39132347	0.00014032154
20	0x384161be	4.6105815e-05
21	0x38397871	4.4219607e-05
22	0x383b92d5	4.4721022e-05
23	0x3845822e	4.70897e-05
24	0x3815877d	3.565055e-05
25	0x380ba8e9	3.3297492e-05
26	0x380807d5	3.243222e-05
27	0x381a0059	3.6716785e-05
28	0x380af072	3.3125696e-05
29	0x3803bf86	3.1411204e-05
30	0x39b768b7	0.000349825
31	0x39b8ea83	0.0003526994
32	0x39ba1724	0.00035493926
33	0x39e4c836	0.00043636718
34	0x39b864a6	0.00035170204
35	0x384ff1a3	4.9577688e-05
36	0x38490c59	4.7933634e-05
37	0x384d3c31	4.8931866e-05
38	0x384ae07b	4.8369617e-05
39	0x38009972	3.0660485e-05
40	0x3710d466	8.632522e-06
41	0x3710f9de	8.641246e-06
42	0x370d9636	8.439229e-06
43	0x3717c138	9.045289e-06
44	0x36fa1082	7.4525024e-06
45	0x37e616c3	2.7428736e-05
46	0x37ebba6e	2.8100996e-05
47	0x37e5903f	2.7366097e-05
48	0x37f0b7a9	2.8695753e-05
49	0x37e2441c	2.6973015e-05
50	0x385821a3	5.152974e-05
51	0x38515176	4.990535e-05
52	0x3847e6aa	4.766012e-05
53	0x384d307a	4.8920956e-05
54	0x381557ca	3.560613e-05
55	0x391b33f1	0.00014801302
56	0x391a3b79	0.0001470874
57	0x39227e17	0.00015496496
58	0x39223936	0.00015470837
59	0x38f874f8	0.00011847349
60	0x37578f36	1.28483425e-05
61	0x375eb34d	1.3273978e-05
62	0x3755f0bb	1.2751839e-05
63	0x376fdb47	1.4296565e-05
64	0x375c786e	1.3141062e-05
65	0x3a48e888	0.00076640444
66	0x3a515a47	0.00079861697
67	0x3a4c8f21	0.000780331
68	0x3a4b2004	0.0007748606
69	0x3a293db5	0.00064560334
70	0x3980740b	0.0002450052
71	0x39704288	0.00022912968
72	0x396dc50f	0.00022675491
73	0x39750bdd	0.0002336944
74	0x397f4563	0.00024344544
75	0x36ea682a	6.9858697e-06
76	0x36ac3fc6	5.1334237e-06
77	0x36ada917	5.1754864e-06
78	0x36aa7419	5.0799104e-06
79	0x36a79944	4.9948303e-06

exp_avg f4 [16]
0	0x3a8aa7fc	0.0010578628
1	0x38a045e5	7.6424134e-05
2	0xbab68fbc	-0.0013928334
3	0xba53056e	-0.00080498203
4	0x3a385589	0.00070317887
5	0xbab65d40	-0.0013913289
6	0x392a3283	0.0001623128
7	0x3b1028dc	0.002199701
8	0xba6b7acc	-0.0008982837
9	0x3a8ebc9e	0.0010889953
10	0xbaa1da64	-0.0012348411
11	0xb9942805	-0.00028258577
12	0xba83052c	-0.0009996048
13	0xbb00d6f9	-0.0019659384
14	0x3a35057e	0.00069054205
15	0xb973508d	-0.00023204293

exp_avg_sq f4 [16]
0	0x381301c7	3.5049186e-05
1	0x35b461c1	1.3439495e-06
2	0x37a5c4c9	1.9761168e-05
3	0x37e7ff1a	2.7656137e-05
4	0x3786719a	1.6026945e-05
5	0x37d28f11	2.5100571e-05
6	0x3871b015	5.7622867e-05
7	0x37c4a6a2	2.3442615e-05
8	0x379a8749	1.8421228e-05
9	0x370a96a0	8.260511e-06
10	0x37cb7f51	2.4258772e-05
11	0x37b795bc	2.1885025e-05
12	0x36b7ccba	5.4776583e-06
13	0x393b76ff	0.00017878039
14	0x3819d85a	3.6679536e-05
15	0x36000ebb	1.908206e-06

exp_avg f4 [3, 20]
0	0xbb1028cb	-0.002199697
1	0xbbf63f1f	-0.007514849
2	0xba137bfa	-0.0005626079
3	0x3a8e5af6	0.0010860849
4	0xba61f223	-0.000861915
5	0x3a478311	0.0007610778
6	0x38953677	7.1150185e-05
7	0xb99875bc	-0.00029079418
8	0x3a29184f	0.00064504606
9	0x3993502d	0.0002809776
10	0x37b23965	2.124598e-05
11	0xb930b126	-0.00016850661
12	0xb9e7f0db	-0.00044239205
13	0xb8c4a622	-9.376953e-05
14	0xb84d3a76	-4.8930255e-05
15	0xba07a154	-0.0005173881
16	0xba1eab1e	-0.000605272
17	0xb9316c8e	-0.00016920475
18	0x38a9d33a	8.097892e-05
19	0x381a1063	3.6731723e-05
20	0x3a80ca59	0.0009825929
21	0x3bfeef45	0.007779988
22	0x3a276614	0.0006385755
23	0xba9b9929	-0.0011871207
24	0x3a852363	0.0010157641
25	0xba56d202	-0.0008194746
26	0xb8ab0784	-8.155315e-05
27	0x39c7e09c	0.00038123585
28	0xba232464	-0.0006223379
29	0xb8f0b873	-0.00011478448
30	0x39c1fa76	0.00036998437
31	0x3a346c4a	0.00068825914
32	0x3a575eea	0.00082157424
33	0x396a9099	0.00022369846
34	0x3830c371	4.214369e-05
35	0x39bf33bc	0.00036468904
36	0x39a4eef7	0.0003145856
37	0xb7b6c575	-2.1788039e-05
38	0xb911aa6d	-0.00013891766
39	0xb8547685	-5.065512e-05
40	0x3b7c9602	0.003854156
41	0xbb9c7d23	-0.0047756596
42	0xb9e884f0	-0.00044349534
43	0x3a6f204d	0.00091219397
44	0xba846034	-0.0010099472
45	0x3a36e8aa	0.00069774187
46	0x37e1814a	2.6882295e-05
47	0xb9ca4605	-0.0003858061
48	0x3a06e3ae	0.0005145621
49	0x37a783f4	1.9969397e-05
50	0xb9e60899	-0.00043875424
51	0xba41a2fc	-0.0007386652
52	0xba56eea9	-0.0008199015
53	0xb97f5079	-0.00024348673
54	0xb89b94b7	-7.418676e-05
55	0xb989a665	-0.0002625465
56	0xb89fe64b	-7.624606e-05
57	0x39a8a819	0.000321687
58	0x39ff1c01	0.00048658255
59	0x3989fd27	0.0002631929

exp_avg_sq f4 [3, 20]
0	0x3bb9d3b1	0.0056709875
1	0x3ab4ad9b	0.0013784649
2	0x37a186b6	1.9255425e-05
3	0x37bf0b4e	2.2774238e-05
4	0x3729db50	1.0124248e-05
5	0x36f0d0f4	7.1768827e-06
6	0x36a046ef	4.7766293e-06
7	0x36018eb8	1.9305571e-06
8	0x36a4092c	4.8886486e-06
9	0x366e0f4d	3.547367e-06
10	0x36b59473	5.411502e-06
11	0x36800b36	3.8160024e-06
12	0x3629c57e	2.5297918e-06
13	0x36ad66c7	5.1677666e-06
14	0x3675d271	3.6630338e-06
15	0x368628f3	3.9982783e-06
16	0x361a1372	2.2959107e-06
17	0x3601a4b6	1.9318372e-06
18	0x35583238	8.053935e-07
19	0x333b8bc6	4.3666454e-08
20	0x3c2e4433	0.010636377
21	0x3b2889bb	0.002571686
22	0x383759b9	4.371416e-05
23	0x384298be	4.6395457e-05
24	0x37968668	1.7943981e-05
25	0x3704d67a	7.91775e-06
26	0x37655b11	1.3670667e-05
27	0x369e2eb5	4.7142044e-06
28	0x370f338d	8.535467e-06
29	0x369c328c	4.6550467e-06
30	0x36d39ec8	6.3067746e-06
31	0x36d56321	6.359435e-06
32	0x37201b4d	9.5431e-06
33	0x36c88ebf	5.9770823e-06
34	0x36bee58d	5.6891645e-06
35	0x366f4662	3.5654743e-06
36	0x360ba119	2.0806385e-06
37	0x35c84091	1.4919952e-06
38	0x353d8835	7.0606194e-07
39	0x337b0b6a	5.8450873e-08
40	0x3c010ce1	0.007876606
41	0x3aff92dc	0.0019498724
42	0x3804cfe6	3.1664873e-05
43	0x380acbe4	3.3091652e-05
44	0x37488b7f	1.1953408e-05
45	0x36bdde3e	5.6585113e-06
46	0x370281dc	7.778839e-06
47	0x36333261	2.6702403e-06
48	0x36bdde99	5.6585527e-06
49	0x364a3cfd	3.0135845e-06
50	0x36c9e3c5	6.0167827e-06
51	0x3649d561	3.0075537e-06
52	0x36857129	3.9768825e-06
53	0x3693ff1d	4.4106405e-06
54	0x3639f309	2.7708613e-06
55	0x36327df6	2.6597386e-06
56	0x35bc7763	1.4041838e-06
57	0x35251a72	6.1505773e-07
58	0x34c42901	3.653768e-07
59	0x33565510	4.990312e-08

exp_avg f4 [16, 3]
0	0xb99bc961	-0.00029713943
1	0x39b65611	0.0003477787
2	0xb99d8bfe	-0.00030049676
3	0x35cbd47c	1.518652e-06
4	0x350147e7	4.8160877e-07
5	0x35520d93	7.825085e-07
6	0xba3d5d7d	-0.00072237087
7	0x3a3e7e8f	0.00072667835
8	0xb9af5408	-0.0003344121
9	0xba5a0987	-0.000831746
10	0x3a02d913	0.0004991453
11	0xba0e9410	-0.0005438933
12	0x389710ca	7.203368e-05
13	0x381e5c50	3.775611e-05
14	0x3817488a	3.6068763e-05
15	0x3a2169e6	0.00061574427
16	0xba153266	-0.0005691409
17	0x39d0f67a	0.0003985649
18	0x3a9cff4c	0.001197794
19	0xba43cd0a	-0.0007469213
20	0x3a25d904	0.00063265883
21	0xb99dd3cc	-0.00030103175
22	0x3a02e28c	0.00049928646
23	0xb97c6e7d	-0.00024073753
24	0xb8d6507a	-0.00010219305
25	0x39d7b396	0.00041141798
26	0xb974cb8d	-0.00023345482
27	0x3a6a395e	0.000893494
28	0x39008cbe	0.00012259462
29	0x39d52101	0.00040651116
30	0xb7ac9051	-2.05712e-05
31	0xba68226a	-0.0008855226
32	0x388ab6fd	6.614437e-05
33	0x37adadfc	2.0704225e-05
34	0x397add48	0.00023924292
35	0xb9505e9a	-0.00019871668
36	0xb8818d3b	-6.1775056e-05
37	0xb5b599fb	-1.3530365e-06
38	0xb818036c	-3.624281e-05
39	0x3a073f4a	0.0005159272
40	0xba0312c6	-0.0005000051
41	0x3a001e13	0.0004887294
42	0xba888f4a	-0.001041868
43	0x3a548528	0.0008107
44	0xba2059b3	-0.0006116882
45	0xb9493fdc	-0.00019192643
46	0xb9deb6f3	-0.00042479447
47	0xb831fceb	-4.2435637e-05

exp_avg_sq f4 [16, 3]
0	0x3732c428	1.0655298e-05
1	0x3757868c	1.2846325e-05
2	0x36b1d54f	5.2998435e-06
3	0x330e84dd	3.318279e-08
4	0x33bda8b2	8.831684e-08
5	0x3323bc21	3.8122497e-08
6	0x3713db38	8.812924e-06
7	0x37492aad	1.199047e-05
8	0x36932b51	4.385984e-06
9	0x3683c506	3.927041e-06
10	0x37401303	1.1448518e-05
11	0x36b75dab	5.4647294e-06
12	0x33178c63	3.5285108e-08
13	0x32bc107f	2.1893582e-08
14	0x329eea67	1.8500215e-08
15	0x36ab27ff	5.1008533e-06
16	0x36ccdc34	6.105309e-06
17	0x364df7d9	3.0691647e-06
18	0x3744cf5d	1.1730791e-05
19	0x3765fb3b	1.3707958e-05
20	0x36e51492	6.8271265e-06
21	0x3570216a	8.945559e-07
22	0x3559141c	8.086806e-07
23	0x3494357b	2.760606e-07
24	0x3699f8ae	4.5887055e-06
25	0x361f1ba3	2.3708933e-06
26	0x3589bf05	1.0262889e-06
27	0x3671a5e7	3.6008366e-06
28	0x364b568b	3.0299732e-06
29	0x3533f528	6.7039446e-07
30	0x3787d3f9	1.6191962e-05
31	0x3794b4de	1.7727198e-05
32	0x3708af13	8.146994e-06
33	0x36986801	4.5420607e-06
34	0x36695828	3.477102e-06
35	0x35df8edd	1.6656373e-06
36	0x32427763	1.1319432e-08
37	0x32782c28	1.444554e-08
38	0x324f529e	1.2067771e-08
39	0x37347ce0	1.0757911e-05
40	0x3777c9ef	1.4769364e-05
41	0x3709444f	8.181741e-06
42	0x36f56089	7.312807e-06
43	0x37d554e8	2.5431116e-05
44	0x3760a6d1	1.339028e-05
45	0x36e19523	6.7228843e-06
46	0x36be6fbd	5.6754493e-06
47	0x36936b9d	4.393469e-06

exp_avg f4 [16]
0	0x3af3d38d	0.0018602476
1	0x36ecb765	7.054698e-06
2	0xba0f0772	-0.00054561265
3	0xbb2bd2ee	-0.0026218253
4	0x399d403d	0.00029993235
5	0x3a64a5c4	0.0008722211
6	0x3b901537	0.0043970603
7	0x3aae5fd2	0.0013303703
8	0x3b95824b	0.0045626513
9	0x3b97613f	0.004619747
10	0xbaf36393	-0.0018569104
11	0x3b7cdf0e	0.00385851
12	0xb94b95d0	-0.00019415398
13	0xba79172b	-0.00095020485
14	0xbb6d7ea3	-0.0036238811
15	0xbae15242	-0.0017190652

exp_avg_sq f4 [16]
0	0x39ed9078	0.000453118
1	0x34975f96	2.819549e-07
2	0x39a060b2	0.00030589622
3	0x39900930	0.00027472666
4	0x3529700a	6.3120444e-07
5	0x392c98cc	0.0001646012
6	0x39d5006e	0.00040626846
7	0x38794e91	5.9439397e-05
8	0x3964e340	0.00021828432
9	0x39667b93	0.00021980544
10	0x393ca251	0.00017989545
11	0x39a95d90	0.000323039
12	0x3482606a	2.4284537e-07
13	0x39b395e8	0.0003425323
14	0x397435e6	0.00023289732
15	0x38687a75	5.5427157e-05

exp_avg f4 [16, 16]
0	0x3913c4df	0.00014092353
1	0x390fe56c	0.00013723009
2	0xb97252ba	-0.00023109737
3	0x3813a261	3.519876e-05
4	0xb8d25b23	-0.00010030556
5	0xb88fb328	-6.852142e-05
6	0xb6d40a9f	-6.319329e-06
7	0x389fa576	7.61253e-05
8	0x36219a23	2.408059e-06
9	0x3835cf77	4.334698e-05
10	0x3844e5ba	4.694399e-05
11	0x38ab511a	8.169022e-05
12	0xb8a10492	-7.6779295e-05
13	0xb781e747	-1.5485695e-05
14	0xb901143e	-0.0001230994
15	0xb8d02d2e	-9.926628e-05
16	0x360f8488	2.1385804e-06
17	0x35cbd164	1.5185619e-06
18	0xb63b6f89	-2.7930093e-06
19	0xb50ea5f0	-5.3140593e-07
20	0x360252c9	1.9419697e-06
21	0xb6119a8a	-2.1696637e-06
22	0x34e17a9e	4.1998732e-07
23	0x35f03780	1.7897546e-06
24	0xb68e6cc4	-4.2445918e-06
25	0x3629914e	2.526754e-06
26	0x3496d969	2.8097864e-07
27	0x35b17be1	1.3223581e-06
28	0xb6088748	-2.0344323e-06
29	0x349e8ba5	2.9531398e-07
30	0x350490c1	4.9384477e-07
31	0xb637e80a	-2.740419e-06
32	0x38bc2ff3	8.97347e-05
33	0x39d26949	0.00040132765
34	0xb8ae99be	-8.325603e-05
35	0x3997fad7	0.00028987855
36	0xb909e5dc	-0.00013150967
37	0x386d5f88	5.6594174e-05
38	0xb805e5b1	-3.1923588e-05
39	0xb9a01fea	-0.00030541356
40	0x38900b37	6.868544e-05
41	0xb8a141f0	-7.68936e-05
42	0xb957580d	-0.000205368
43	0xb91da720	-0.00015034946
44	0xb746ca00	-1.18487515e-05
45	0xb9becfd9	-0.00036394483
46	0xb917ddc6	-0.00014483099
47	0xb94fcc0d	-0.00019817073
48	0x388cb41a	6.709267e-05
49	0x38be8555	9.084741e-05
50	0xb943917d	-0.00018650848
51	0xb95c17af	-0.00020989658
52	0x39390d49	0.00017647924
53	0xb99b9f2e	-0.00029682502
54	0x388d33f9	6.7330846e-05
55	0x39a14ba9	0.00030764684
56	0xb91b2e7e	-0.00014799272
57	0x397530a5	0.00023383142
58	0x389a7c96	7.366498e-05
59	0x38944bcd	7.071309e-05
60	0xb9395af2	-0.00017676855
61	0x3922328c	0.00015468354
62	0x39007e1a	0.00012254008
63	0xb8ae5f96	-8.314771e-05
64	0x37bcc7e6	2.2504431e-05
65	0x37618cca	1.3443825e-05
66	0xb7edb551	-2.8337034e-05
67	0xb6d551ce	-6.357418e-06
68	0x37b168e6	2.1148891e-05
69	0xb7bf5864	-2.2810134e-05
70	0x360ff62d	2.1451954e-06
71	0x37aac3fd	2.0356843e-05
72	0xb85651ec	-5.109787e-05
73	0x37dd640a	2.6391837e-05
74	0x3686c50f	4.016452e-06
75	0x377ab92c	1.4944275e-05
76	0xb7a719bb	-1.9919933e-05
77	0x36afdf95	5.241435e-06
78	0x368c91c7	4.189296e-06
79	0xb800984f	-3.0659427e-05
80	0xb9304b1f	-0.00016812653
81	0x395deaa4	0.00021163613
82	0x38c35d29	9.315677e-05
83	0xb97ec52d	-0.00024296781
84	0x3930d7fb	0.00016865127
85	0xb9b74cf4	-0.00034961815
86	0xb8b447b9	-8.596428e-05
87	0x39830454	0.00024989492
88	0xb91d0eed	-0.00014978247
89	0x38d86f43	0.00010320407
90	0xb7b2b4a9	-2.130338e-05
91	0xb94306e0	-0.0001859921
92	0xb7a8750c	-2.0081665e-05
93	0x39068c88	0.00012831588
94	0x38d20361	0.0001001421
95	0xb9000202	-0.00012207779
96	0x396e4cd2	0.00022726067
97	0xb83b275b	-4.4620927e-05
98	0xb99b76b5	-0.00029652347
99	0xb9080306	-0.00012971097
100	0x396f74b0	0.00022836286
101	0xb941fce8	-0.00018500129
102	0x38f7ed3e	0.000118220676
103	0x3988ab30	0.00026067486
104	0xb9bd1925	-0.00036067623
105	0x3999d026	0.00029337517
106	0x38e52466	0.00010926351
107	0x397d227f	0.00024140811
108	0xb9721e1f	-0.0002309014
109	0x3914c3aa	0.0001418727
110	0x39033f89	0.00012516802
111	0xb90fa215	-0.00013697923
112	0x39762e30	0.00023477594
113	0x39900899	0.00027472226
114	0xb970d96d	-0.00022969181
115	0x38f5c946	0.000117200005
116	0x392ae0c0	0.0001629619
117	0xb9151440	-0.00014217291
118	0xb76a0228	-1.3947989e-05
119	0xb7a12d6f	-1.9213852e-05
120	0xba080436	-0.0005188616
121	0x3946657f	0.00018920562
122	0xb8f918d7	-0.00011877872
123	0x38325a4b	4.25226e-05
124	0xb91f24a9	-0.00015177079
125	0xb92c16e1	-0.00016411721
126	0xb65cd574	-3.29068e-06
127	0xb9c65df9	-0.00037835518
128	0x3831a885	4.2357035e-05
129	0xb9bdb858	-0.00036186236
130	0x38f4bad5	0.00011669627
131	0x397044cd	0.00022913814
132	0xba153515	-0.0005691809
133	0x39c7a9dd	0.00038082796
134	0xba23247d	-0.0006223394
135	0xb7e142e0	-2.6853231e-05
136	0xba1d1f82	-0.000599377
137	0xb9ff0963	-0.00048644384
138	0x3968c3a7	0.0002219813
139	0x39327dcc	0.00017022266
140	0x3a072a59	0.00051561516
141	0x393e4bdf	0.00018148076
142	0xba468a1d	-0.0007573681
143	0xb982a6e0	-0.00024919864
144	0x3911ee98	0.0001391716
145	0x38d50ca5	0.00010158987
146	0xb9818b62	-0.00024708646
147	0xb8822f20	-6.207661e-05
148	0x384efeef	4.9351653e-05
149	0xb9446875	-0.0001873093
150	0x3904a95a	0.0001265159
151	0x3932bbd0	0.00017045368
152	0x38bb2319	8.923392e-05
153	0x3943b378	0.00018663506
154	0xb7d1220b	-2.4930594e-05
155	0x38b0b098	8.425227e-05
156	0xb939b28c	-0.00017709489
157	0x350dbd65	5.28022e-07
158	0x38d04df8	9.932736e-05
159	0x380e3d7f	3.391271e-05
160	0x388c4e9f	6.6903645e-05
161	0xb80f121b	-3.411072e-05
162	0xb89e631b	-7.552487e-05
163	0xb7aec444	-2.083381e-05
164	0x384bdbb5	4.860359e-05
165	0xb8233140	-3.8908096e-05
166	0x38100450	3.433629e-05
167	0x38838e81	6.27311e-05
168	0xb8a1fb6a	-7.723908e-05
169	0x389c666a	7.457736e-05
170	0x369f45fd	4.746717e-06
171	0x388e1d96	6.7765985e-05
172	0xb85ce65d	-5.266663e-05
173	0x37ca775e	2.4135861e-05
174	0x382fc48a	4.1906293e-05
175	0xb6a5ad09	-4.937527e-06
176	0x38173822	3.6053483e-05
177	0xb9242381	-0.00015653485
178	0xb8a55c4d	-7.8850055e-05
179	0xb89e2290	-7.540465e-05
180	0xb8b837ca	-8.784195e-05
181	0x3749f374	1.2037217e-05
182	0xb7c531d6	-2.3507437e-05
183	0x391cbad3	0.00014946917
184	0x37c511c6	2.3492506e-05
185	0xb743af71	-1.1663754e-05
186	0x391c6317	0.00014914233
187	0x390c08fe	0.0001335479
188	0x377bfb1a	1.501923e-05
189	0x392a5528	0.00016244187
190	0xb8a8b440	-8.0444384e-05
191	0x38878de9	6.4637345e-05
192	0x37a2acdd	1.93924e-05
193	0xb7e04085	-2.6732925e-05
194	0xb734f507	-1.0785886e-05
195	0x36e3fe91	6.7947626e-06
196	0xb7841536	-1.5745503e-05
197	0x375dfb6d	1.3231166e-05
198	0xb8162f2a	-3.5806712e-05
199	0x3771c3d2	1.4410312e-05
200	0xb8ade47b	-8.291841e-05
201	0xb7322072	-1.0617181e-05
202	0x37c8566c	2.3882101e-05
203	0x37efc6de	2.8583625e-05
204	0x379a5812	1.8399242e-05
205	0x37bd0250	2.2531633e-05
206	0xb830cbdf	-4.215154e-05
207	0xb81778b4	-3.611362e-05
208	0x39310ee0	0.00016885577
209	0x37eeb282	2.8454935e-05
210	0xb9847518	-0.00025264244
211	0xb8c10a0b	-9.204828e-05
212	0x38c036a8	9.165454e-05
213	0xb9434bea	-0.0001862493
214	0x387169da	5.755746e-05
215	0x397280a0	0.00023126835
216	0xb93e5a46	-0.00018153441
217	0x39521442	0.00020034707
218	0x38562848	5.105909e-05
219	0x391ec290	0.00015140534
220	0xb92444ea	-0.00015665931
221	0x38baf7a8	8.915301e-05
222	0x38505eab	4.967923e-05
223	0xb8a6a1ad	-7.945611e-05
224	0x39a003f0	0.00030520512
225	0xb8e4de27	-0.00010913266
226	0xb9a03d3e	-0.00030563207
227	0xb8b173da	-8.461597e-05
228	0x39a7cea5	0.00032006684
229	0xb95cf1c6	-0.00021070903
230	0x390524fe	0.00012697649
231	0x3988e5c7	0.0002611114
232	0xba136ce7	-0.00056238327
233	0x39c50558	0.0003757875
234	0xb7e7f9d1	-2.7653676e-05
235	0x398f49af	0.00027329984
236	0xb97ffb02	-0.00024412203
237	0x38a4022b	7.820533e-05
238	0x396c3814	0.00022527605
239	0xb90cb01c	-0.00013417046
240	0x37c113a5	2.301654e-05
241	0xb7ebc4f1	-2.8105891e-05
242	0xb7b020b4	-2.0996064e-05
243	0x36b25929	5.315193e-06
244	0xb7d2b04b	-2.5116044e-05
245	0x36d5768a	6.3616944e-06
246	0xb7c4d5be	-2.3464552e-05
247	0x37b9bd29	2.2141803e-05
248	0xb82b5788	-4.0851097e-05
249	0xb6ba1c27	-5.5465093e-06
250	0x376502c6	1.3650109e-05
251	0x37fb384f	2.9947752e-05
252	0x3751e461	1.2510544e-05
253	0x3795f8ec	1.7878097e-05
254	0xb80603e6	-3.195172e-05
255	0xb708d589	-8.155949e-06

exp_avg_sq f4 [16, 16]
0	0x3617cc70	2.2619752e-06
1	0x363d7546	2.8231457e-06
2	0x36942662	4.415212e-06
3	0x348d5451	2.6324645e-07
4	0x35951073	1.1106152e-06
5	0x36079cd5	2.0207856e-06
6	0x35200fef	5.962783e-07
7	0x35ad216e	1.2899234e-06
8	0x36f190f5	7.199235e-06
9	0x3553de79	7.8927366e-07
10	0x3621554e	2.4040523e-06
11	0x357cd3ee	9.4185714e-07
12	0x354a6124	7.539222e-07
13	0x35184715	5.672785e-07
14	0x35ad09b7	1.2892332e-06
15	0x37177ff6	9.030095e-06
16	0x31147e7c	2.1608733e-09
17	0x30f75763	1.7996452e-09
18	0x316c88eb	3.4420349e-09
19	0x3013c20e	5.3754057e-10
20	0x310ee5ec	2.0794415e-09
21	0x315270b3	3.0623084e-09
22	0x304368e2	7.1089634e-10
23	0x30a96ef2	1.2327901e-09
24	0x324511ff	1.1471001e-08
25	0x31573ee0	3.1322358e-09
26	0x306243bb	8.231457e-10
27	0x30b0ac9a	1.2854742e-09
28	0x308b49f2	1.0134598e-09
29	0x2ff6a9c5	4.4867768e-10
30	0x3042f633	7.092666e-10
31	0x31c96f7b	5.862544e-09
32	0x35dc0369	1.639227e-06
33	0x35cb8729	1.5164015e-06
34	0x35b1be4b	1.324291e-06
35	0x34b15b9a	3.3035468e-07
36	0x34f78767	4.6105853e-07
37	0x35762417	9.169466e-07
38	0x34dc6464	4.1051237e-07
39	0x34eb341c	4.3810076e-07
40	0x365b2bc5	3.265902e-06
41	0x34e7ab53	4.3151758e-07
42	0x358b7b9f	1.0392286e-06
43	0x349c7eb5	2.9149456e-07
44	0x34d51c00	3.9694714e-07
45	0x3535d7fd	6.774206e-07
46	0x348defd2	2.643779e-07
47	0x365f2119	3.3248855e-06
48	0x344c8a0f	1.9049206e-07
49	0x34c0d1ec	3.5915525e-07
50	0x34c58b41	3.679543e-07
51	0x35b829a0	1.3721183e-06
52	0x349a683d	2.876058e-07
53	0x35adbaf2	1.2943913e-06
54	0x34461cfb	1.845073e-07
55	0x36079794	2.0204798e-06
56	0x357e5d1a	9.4757854e-07
57	0x35557361	7.951658e-07
58	0x34d4111a	3.950052e-07
59	0x3404f123	1.2381183e-07
60	0x3484ed3b	2.4759524e-07
61	0x355bbdd3	8.186009e-07
62	0x3520780b	5.977933e-07
63	0x359a77d8	1.1508773e-06
64	0x3325eb46	3.8631036e-08
65	0x32b0a0b1	2.056217e-08
66	0x337ea7f9	5.9291754e-08
67	0x32288ffb	9.811624e-09
68	0x330a0094	3.2131155e-08
69	0x336b9e52	5.4859193e-08
70	0x32418c8a	1.1266033e-08
71	0x32ef6494	2.7869e-08
72	0x34328068	1.6624256e-07
73	0x3370a180	5.6026238e-08
74	0x323e9093	1.1092328e-08
75	0x32bfd689	2.2332886e-08
76	0x32a9da11	1.9773355e-08
77	0x31e68c29	6.7098154e-09
78	0x3281dd16	1.5118115e-08
79	0x339b32cd	7.2269906e-08
80	0x3556d2bd	8.0027877e-07
81	0x35f806bd	1.8479401e-06
82	0x3529a543	6.3197893e-07
83	0x35b14993	1.3208941e-06
84	0x3548e50e	7.4839124e-07
85	0x3603a136	1.9614358e-06
86	0x3446f280	1.8528408e-07
87	0x35f9b156	1.8603557e-06
88	0x36faf1e8	7.478742e-06
89	0x353ec547	7.106759e-07
90	0x35cfe883	1.5490372e-06
91	0x34c48ed3	3.6611763e-07
92	0x34266c61	1.5499383e-07
93	0x353cba5e	7.030666e-07
94	0x35573de2	8.018379e-07
95	0x36f09b77	7.170656e-06
96	0x3510d61c	5.395575e-07
97	0x358089d6	9.576859e-07
98	0x357b60ef	9.3645843e-07
99	0x35075f54	5.043014e-07
100	0x359ba0f3	1.1595242e-06
101	0x34dc090a	4.098477e-07
102	0x3599a2ab	1.1446731e-06
103	0x35407476	7.1695047e-07
104	0x36268593	2.4813678e-06
105	0x35c41c8c	1.4611446e-06
106	0x3531aa2b	6.6185265e-07
107	0x3578387e	9.2469406e-07
108	0x354cf0e4	7.6346464e-07
109	0x3543547d	7.276611e-07
110	0x35a36f4c	1.2176838e-06
111	0x36195a34	2.2851282e-06
112	0x3514dc5c	5.545496e-07
113	0x34bc442c	3.506733e-07
114	0x35671e5b	8.609838e-07
115	0x345c7ca9	2.0534448e-07
116	0x34fe4374	4.7360265e-07
117	0x3540e5eb	7.186015e-07
118	0x3433d9de	1.6749934e-07
119	0x354e02ef	7.674525e-07
120	0x35dbeb72	1.6385295e-06
121	0x355c6c89	8.2114326e-07
122	0x34100a05	1.341469e-07
123	0x34a7dcd0	3.1266836e-07
124	0x34c9bfb1	3.757864e-07
125	0x3442ba97	1.8135539e-07
126	0x3453d036	1.9726653e-07
127	0x35672598	8.610891e-07
128	0x375e1aeb	1.32384985e-05
129	0x37e485ce	2.7242026e-05
130	0x37b1a28e	2.117574e-05
131	0x363571ce	2.7037345e-06
132	0x38183a0d	3.6293688e-05
133	0x37f111d5	2.8737742e-05
134	0x36e3f8c0	6.7940855e-06
135	0x36c694dc	5.9181893e-06
136	0x3919c3b7	0.00014664127
137	0x38068933	3.2075866e-05
138	0x3711b02c	8.683692e-06
139	0x36a6c915	4.9705945e-06
140	0x3782069a	1.5500282e-05
141	0x3591513c	1.0826984e-06
142	0x3745bdbf	1.1786294e-05
143	0x38a72133	7.9693644e-05
144	0x34661c81	2.1430789e-07
145	0x350fda6f	5.3589514e-07
146	0x34bf11ac	3.558938e-07
147	0x33958bb4	6.963765e-08
148	0x3477ce3a	2.3078692e-07
149	0x3495441b	2.7802966e-07
150	0x34155255	1.3906659e-07
151	0x34c57c91	3.6784743e-07
152	0x35eae737	1.7501651e-06
153	0x34a671e1	3.1002767e-07
154	0x34afe218	3.2760795e-07
155	0x3421ff14	1.508709e-07
156	0x344958d9	1.8751906e-07
157	0x342854ac	1.5677023e-07
158	0x33dafe94	1.01977236e-07
159	0x35fc45be	1.8795761e-06
160	0x34525338	1.9588049e-07
161	0x344f9340	1.9331947e-07
162	0x34802253	2.3866832e-07
163	0x34097066	1.280001e-07
164	0x340da80e	1.3192786e-07
165	0x34a0224e	2.9827282e-07
166	0x33af0642	8.150211e-08
167	0x338ff5a4	6.703638e-08
168	0x358a4bc6	1.0303854e-06
169	0x345986e4	2.0258773e-07
170	0x34808b95	2.3943417e-07
171	0x3432870d	1.6626673e-07
172	0x332d33cb	4.0326807e-08
173	0x33b8dc76	8.608269e-08
174	0x3481b66c	2.4160852e-07
175	0x3544fdc1	7.338495e-07
176	0x33ecd9a7	1.1029197e-07
177	0x350f5ddb	5.340823e-07
178	0x34b22655	3.3182974e-07
179	0x34105db4	1.3445134e-07
180	0x3494f515	2.774547e-07
181	0x34717a7b	2.2489432e-07
182	0x344e4fea	1.9214318e-07
183	0x34bc3c67	3.5061677e-07
184	0x35ac1602	1.2821404e-06
185	0x349240b6	2.7241703e-07
186	0x350792ac	5.0504855e-07
187	0x34668cef	2.147169e-07
188	0x3457aa8b	2.0085479e-07
189	0x34910d0a	2.7017842e-07
190	0x3475d55c	2.2895023e-07
191	0x35cd2ae1	1.528617e-06
192	0x31df91cc	6.5067294e-09
193	0x315856d5	3.1481495e-09
194	0x322fd173	1.0233964e-08
195	0x30af79a1	1.2767495e-09
196	0x3194f7a9	4.3355226e-09
197	0x3210b6f3	8.423501e-09
198	0x30e78836	1.6846176e-09
199	0x31c9b8c7	5.8708767e-09
200	0x32e11ff7	2.6207983e-08
201	0x321337a3	8.5691765e-09
202	0x30e76fec	1.6839272e-09
203	0x3181ca38	3.7773837e-09
204	0x3176f66d	3.5937788e-09
205	0x3093b8c6	1.0748173e-09
206	0x3117ecd3	2.210801e-09
207	0x32413b6b	1.1247589e-08
208	0x3517a034	5.648501e-07
209	0x34a8175e	3.130944e-07
210	0x35c3b751	1.4581984e-06
211	0x35f23599	1.8046004e-06
212	0x351134f0	5.4093744e-07
213	0x36119c13	2.169753e-06
214	0x3535fa37	6.7791865e-07
215	0x3624b480	2.454297e-06
216	0x3593d1e0	1.1013435e-06
217	0x35f24078	1.8049168e-06
218	0x3503dacb	4.911969e-07
219	0x3519fca5	5.736459e-07
220	0x351a1756	5.740343e-07
221	0x358e69b0	1.0610584e-06
222	0x359c6adb	1.1654005e-06
223	0x3553f908	7.8966013e-07
224	0x366ae721	3.5003252e-06
225	0x36745bfc	3.6412375e-06
226	0x35c7da37	1.4890164e-06
227	0x35026ad0	4.8584207e-07
228	0x36218b0e	2.407181e-06
229	0x3611edf3	2.1745188e-06
230	0x36163e94	2.2388167e-06
231	0x34a9b03a	3.1606925e-07
232	0x37547e37	1.2665571e-05
233	0x3630f27f	2.6367195e-06
234	0x363e48dd	2.8354618e-06
235	0x36278c2b	2.4966528e-06
236	0x3491f87d	2.7189154e-07
237	0x33efef7f	1.1172869e-07
238	0x36e6f4ef	6.883048e-06
239	0x371158a6	8.663314e-06
240	0x34b9a377	3.4577872e-07
241	0x35112528	5.407078e-07
242	0x34f14f8f	4.4947635e-07
243	0x33eeb556	1.11157235e-07
244	0x34d3ddd7	3.9463222e-07
245	0x35319472	6.6153655e-07
246	0x340e56b4	1.3256323e-07
247	0x3384849a	6.170849e-08
248	0x363be5df	2.7998974e-06
249	0x34ed0210	4.414619e-07
250	0x34dffaf0	4.1719568e-07
251	0x344b2105	1.891786e-07
252	0x3404413f	1.2317194e-07
253	0x3395c759	6.974614e-08
254	0x34a8700c	3.1373963e-07
255	0x35fb0f8e	1.8705484e-06

exp_avg f4 [16]
0	0xb8136b38	-3.5147386e-05
1	0xb5cafb0e	-1.5123239e-06
2	0x3841dbe9	4.6219593e-05
3	0xb8d3d541	-0.00010100986
4	0xb790c619	-1.7258384e-05
5	0xb85d9f27	-5.2838728e-05
6	0xb92277bd	-0.0001549413
7	0xb9141a9d	-0.00014124294
8	0xb896ca0a	-7.19019e-05
9	0xb85d0b1d	-5.2700856e-05
10	0xb82aa2e3	-4.068286e-05
11	0xb7a70bd5	-1.9913461e-05
12	0xb7981a1c	-1.813197e-05
13	0xb8e807e4	-0.00011064092
14	0xb96885e9	-0.0002217513
15	0xb7757a90	-1.4631674e-05

exp_avg_sq f4 [16]
0	0x35ad3fdb	1.2908089e-06
1	0x31065a1e	1.9550792e-09
2	0x34f57cfd	4.5725747e-07
3	0x35295b4a	6.309025e-07
4	0x3307f2c3	3.1652927e-08
5	0x353000ca	6.556626e-07
6	0x35226301	6.049377e-07
7	0x34bf9a7a	3.568892e-07
8	0x3747daeb	1.1912295e-05
9	0x34316900	1.6522608e-07
10	0x3485f5fc	2.4952158e-07
11	0x33bbed8a	8.751074e-08
12	0x319ef6af	4.62645e-09
13	0x35dca49d	1.6439186e-06
14	0x36799b68	3.719435e-06
15	0x34b2e9f2	3.33253e-07

exp_avg f4 [5, 16]
0	0x39a85c27	0.00032112116
1	0x3550bb5c	7.775868e-07
2	0xb92bd894	-0.00016388512
3	0xb95f2473	-0.00021280516
4	0xb7eb0474	-2.8016257e-05
5	0x38d36e29	0.00010081783
6	0x38a69b3a	7.94441e-05
7	0xb7825a97	-1.5539392e-05
8	0xb975d408	-0.00023444009
9	0xb8bbaf1e	-8.949473e-05
10	0xb9ba8443	-0.00035575227
11	0x3987a1a1	0.0002586963
12	0xb7a9ee67	-2.0257385e-05
13	0xba1656e8	-0.0005734996
14	0xba8a5c1d	-0.0010556016
15	0xb8760137	-5.8652102e-05
16	0xba2cf197	-0.0006597279
17	0xb53ac3a0	-6.957507e-07
18	0x3a61c547	0.00086124655
19	0x3919882a	0.00014641942
20	0xb4906498	-2.6895282e-07
21	0xb9a2db5f	-0.00031062492
22	0x39f333b7	0.00046387102
23	0xba0391d7	-0.0005018985
24	0xb86cd5c9	-5.6465888e-05
25	0x399eb646	0.00030271913
26	0xb876f2fa	-5.887726e-05
27	0xb84fcac8	-4.95415e-05
28	0xb7c311c4	-2.3254084e-05
29	0xba1aa662	-0.0005899427
30	0xb8171956	-3.60248e-05
31	0x3898e283	7.290116e-05
32	0x38dec84b	0.000106230924
33	0xb4877470	-2.523043e-07
34	0x38a35acf	7.78936e-05
35	0x3a684659	0.000886058
36	0xb733e8d5	-1.0723442e-05
37	0xba90f023	-0.0011057894
38	0xb882a6d3	-6.2299565e-05
39	0xb8806d8f	-6.1239225e-05
40	0x380c6997	3.347694e-05
41	0x38acfe84	8.249006e-05
42	0xb88eb196	-6.8041656e-05
43	0x3995bad6	0.00028558698
44	0xb7a0f367	-1.918683e-05
45	0x39f5bbaf	0.00046869877
46	0xb98d08e1	-0.0002690023
47	0xb79f6ead	-1.9005814e-05
48	0x3997d243	0.00028957622
49	0xb51273ef	-5.4557944e-07
50	0xb9e0a7d9	-0.00042849666
51	0x39e62992	0.0004389999
52	0x3720f18d	9.592984e-06
53	0x39e8d39a	0.00044408144
54	0x3a9b12d9	0.0011831179
55	0x39919a4d	0.00027771518
56	0xb9b39a57	-0.00034256533
57	0xb7177876	-9.028348e-06
58	0x39dc3d8b	0.00042007523
59	0xb9abaeeb	-0.00032745986
60	0xb6cd67b8	-6.1215505e-06
61	0x3a0dee85	0.00054142653
62	0xb9cfd2bf	-0.00039639135
63	0x39047cab	0.00012634943
64	0xb86fee0e	-5.7203746e-05
65	0x35403680	7.160488e-07
66	0xb9b5ccc2	-0.00034675567
67	0xbaa4f9e4	-0.001258668
68	0x37f6c0d6	2.9415281e-05
69	0x3a64763d	0.00087151286
70	0xbada1f0f	-0.0016641336
71	0x399dca30	0.00030096015
72	0x3a1d48f5	0.0005999946
73	0xb9964e0f	-0.00028668388
74	0x38834673	6.259689e-05
75	0xb92f6845	-0.00016728144
76	0x3890532e	6.8819485e-05
77	0x3920c397	0.00015331652
78	0x3ae64bc1	0.0017570184
79	0xb8ff0053	-0.00012159408

exp_avg_sq f4 [5, 16]
0	0x3728e908	1.0067837e-05
1	0x3238e25a	1.0761676e-08
2	0x36dfd0a1	6.6702055e-06
3	0x377a0c29	1.4903992e-05
4	0x329a78b3	1.7982847e-08
5	0x374c3165	1.2170848e-05
6	0x37246134	9.797794e-06
7	0x3596f434	1.1246943e-06
8	0x362723b6	2.4905726e-06
9	0x360da7d5	2.1108328e-06
10	0x3757c21f	1.2860196e-05
11	0x360ed453	2.1283238e-06
12	0x32142676	8.623479e-09
13	0x37cd27b8	2.44564e-05
14	0x3854c055	5.0723862e-05
15	0x373d75aa	1.1292674e-05
16	0x37e678eb	2.7474443e-05
17	0x32650a6a	1.3331922e-08
18	0x3727c05c	9.998763e-06
19	0x36eeced4	7.1170307e-06
20	0x320589e4	7.772972e-09
21	0x36ea6fbd	6.9867515e-06
22	0x36a924f7	5.0408958e-06
23	0x349d1974	2.9262048e-07
24	0x35904c0b	1.0750967e-06
25	0x3521d4f7	6.028708e-07
26	0x36aa7343	5.079813e-06
27	0x35ce02e2	1.5349035e-06
28	0x31ba88a8	5.4288485e-09
29	0x37c83bf4	2.3869776e-05
30	0x378a114d	1.6458938e-05
31	0x372acda1	1.0180666e-05
32	0x371cc93c	9.345178e-06
33	0x322dcf71	1.0117092e-08
34	0x3658530b	3.2234846e-06
35	0x375c0dc2	1.3116225e-05
36	0x31990e6b	4.454525e-09
37	0x377e87bd	1.5171184e-05
38	0x37043eb2	7.8824105e-06
39	0x34f397c2	4.5372695e-07
40	0x359bad54	1.1598845e-06
41	0x34cc13f9	3.8012493e-07
42	0x36770c47	3.6813015e-06
43	0x36615e13	3.358237e-06
44	0x31833e9d	3.81972e-09
45	0x37afb934	2.0947868e-05
46	0x36ec4a7c	7.042019e-06
47	0x36cc6bcc	6.092223e-06
48	0x368ee5a2	4.2586626e-06
49	0x32c6cfad	2.3144674e-08
50	0x36397a18	2.7638216e-06
51	0x369ace91	4.613605e-06
52	0x315c12bc	3.2024863e-09
53	0x36d6afc9	6.398161e-06
54	0x37d50638	2.5394475e-05
55	0x349fa11f	2.973329e-07
56	0x35cab27a	1.5102116e-06
57	0x34a8ca3b	3.143958e-07
58	0x37066ab2	8.011864e-06
59	0x366a8fad	3.4952348e-06
60	0x31b5b0bd	5.287886e-09
61	0x3723008d	9.715685e-06
62	0x3711b838	8.685565e-06
63	0x3780def4	1.536261e-05
64	0x374e7bd1	1.2307385e-05
65	0x3306eb65	3.1413396e-08
66	0x373125cb	1.05588215e-05
67	0x3757b74a	1.2857674e-05
68	0x329cbe90	1.8247448e-08
69	0x375737bc	1.2827975e-05
70	0x37f80f52	2.9571038e-05
71	0x35b841d7	1.372823e-06
72	0x367a0e00	3.7261052e-06
73	0x3635fbc0	2.711764e-06
74	0x370779d1	8.07499e-06
75	0x3693ca14	4.4044664e-06
76	0x32a64aee	1.9359018e-08
77	0x3756a081	1.2792764e-05
78	0x382994a2	4.0431165e-05
79	0x372859e0	1.0034506e-05

exp_avg f4 [5]
0	0x37e8b344	2.7740032e-05
1	0x391a0a7d	0.00014690492
2	0x39047434	0.0001263179
3	0x394526e1	0.00018801868
4	0xba002ecf	-0.00048897875

exp_avg_sq f4 [5]
0	0x369e7782	4.7226795e-06
1	0x368ca43f	4.191446e-06
2	0x36922d27	4.3563955e-06
3	0x36d45694	6.3281714e-06
4	0x36bea731	5.681905e-06
