tests/results/over-squashing-spec/2025-05-06/14-56-58-452481-over-squashing-spec/20/ckpt/482.ckpt (torch, 237202 bytes, 31 tensors)

model.encoder.node_encoder.encoder.weight f4 [16, 5]
00000000: cb9c d13d bf1a 8abf 760d 593f 874c cebe
00000010: 120e 013e f11a 323f 4d1a b73b fc03 66bf
00000020: cb62 4fbf d29a 5a3f cc66 65bf 41f9 4fbf
00000030: 041f a83f 364f 0bbf 13c2 963f 4301 09bd
00000040: 1d53 b6be d8ac de3e 32be 743f f10f acbf
00000050: 1781 853f 62cd 4ebf 82a0 953f 7f1a 5cbf
00000060: a18f 24bf b0da 8abf 2bfa 5c3e e587 803f
00000070: d6ab d03b 2d32 343f d225 4dbf b617 67bf
00000080: 1578 2a3e d758 043f 554f 083f e2ae 323f
00000090: f8d0 24bf 3770 a5be cd44 2fbf 08aa 853f
000000a0: 6f2e 29bf 2ca4 fcbd b494 8bbf 067f 7f3d
000000b0: 9021 713f e0e1 00bf 06a9 5c3f 991a d83e
000000c0: c09f 23bf 7a17 d9be 17ae 86bf cef5 30bf
000000d0: 4a26 d03e 8701 603f b285 533f cb98 2d3f
000000e0: cb02 5ebf 05e2 c13e 8274 5fbe 310a 5b3e
000000f0: bcaa 993f 3c50 88bf b50a bcbe 5396 153d
00000100: cfb7 253f f185 853f 692d e53e 9bd7 353f
00000110: 94df 0ebf 8e44 29bf 6e8e 27bf aa94 923f
00000120: b941 8bbf fae7 623f a65f 8f3d 6180 51bf
00000130: 3600 2ebf 0851 83bf a6b5 f3bc d792 2c3f
0.10234984 -1.0789412 0.84786165 -0.4029276 0.12603024 0.6957236 0.005587852 -0.8984983
-0.8101012 0.8539249 -0.8960998 -0.81239706 1.3134465 -0.5441774 1.1777977 -0.03344847
-0.35610285 0.43491244 0.95602715 -1.3442365 1.043002 -0.8078214 1.1689608 -0.8597793
-0.6428166 -1.0847988 0.21579807 1.0041472 0.0063681407 0.7038906 -0.80135834 -0.90270555
0.1664737 0.5169806 0.5324605 0.697981 -0.6438136 -0.32312176 -0.68464357 1.0442514
-0.6608648 -0.12336001 -1.0904756 0.062377 0.9419184 -0.5034466 0.8619541 0.42207792
-0.63915634 -0.42400724 -1.0521878 -0.6912507 0.40654212 0.8750233 0.8262588 0.6781127
-0.8672301 0.37867752 -0.21821788 0.21390606 1.2005229 -1.0649486 -0.3672692 0.036520313
0.64733595 1.0431501 0.44761208 0.7103211 -0.55809903 -0.6612023 -0.65451705 1.1451619
-1.0879432 0.8863522 0.07000665 -0.81836516 -0.6796907 -1.0259104 -0.029749703 0.6741156

model.encoder.node_encoder.encoder.bias f4 [16]
00000000: 04fa afbf 16b1 eabf 1e4d ad3f d9d2 7b3f
00000010: c9d0 303d fd50 e53f f6a2 ccbf 1382 6cbf
00000020: 6cea fbbf 24cb 3b3f 24a9 8abf 5cd9 17c0
00000030: 291a e2bf b343 ae3f cf43 8bbf cc5b b9bf
-1.3748174 -1.8335292 1.3539159 0.98368603 0.043167863 1.7915341 -1.5987232 -0.9238598
-1.9680915 0.73356843 -1.0832868 -2.3726416 -1.7664233 1.361441 -1.0880069 -1.4481139

model.gnn_layers.0.factor_split f4 [16, 2]
00000000: 0000 803f 0000 803f 0000 803f 0000 803f
00000010: 0000 803f 0000 803f 0000 803f 0000 803f
00000020: 0000 803f 0000 803f 0000 803f 0000 803f
00000030: 0000 803f 0000 803f 0000 803f 0000 803f
00000040: 0000 803f 0000 803f 0000 803f 0000 803f
00000050: 0000 803f 0000 803f 0000 803f 0000 803f
00000060: 0000 803f 0000 803f 0000 803f 0000 803f
00000070: 0000 803f 0000 803f 0000 803f 0000 803f
1.0 1.0 1.0 1.0 1.0 1.0 1.0 1.0
1.0 1.0 1.0 1.0 1.0 1.0 1.0 1.0
1.0 1.0 1.0 1.0 1.0 1.0 1.0 1.0
1.0 1.0 1.0 1.0 1.0 1.0 1.0 1.0

model.gnn_layers.0.filter.filter.distance_expansion.offset f4 [20]
00000000: 0000 0000 a2bc 863f a2bc 0640 f31a 4a40
00000010: a2bc 8640 ca6b a840 f31a ca40 1cca eb40
00000020: a2bc 0641 3694 1741 ca6b 2841 5e43 3941
00000030: f21a 4a41 86f2 5a41 1bca 6b41 afa1 7c41
00000040: a2bc 8641 6c28 8f41 3694 9741 0000 a041
0.0 1.0526316 2.1052632 3.1578948 4.2105265 5.263158 6.3157897 7.3684216
8.421053 9.473684 10.526316 11.578947 12.631578 13.68421 14.736842 15.789474
16.842106 17.894737 18.947369 20.0

model.gnn_layers.0.filter.filter.linear.0.weight f4 [3, 20]
00000000: 0813 153f a0cf 69bf 042c 85bf e77d ed3f
00000010: 1d87 c6be 1a72 46bf d885 e1bc 489a 823e
00000020: f872 f13e b7b2 24bf dafe e03d 6c6b 193f
00000030: 93e3 80be 3281 d8bd b70f a03e 7240 6b3c
00000040: e3d8 6bbc 4b4e 9e3e b42f 493e 7867 37be
00000050: 1ca3 9bbe 51fa 513f 137e 5b3f f329 f3bf
00000060: bacd ae3e c637 673f 8200 133e 6f85 96be
00000070: f221 15bf 4db9 033f c0ae 353e 10c8 66bd
00000080: 7cc5 f2bc 9520 653e 4e74 d4be fe1c 2cbd
00000090: c27d 90be c957 b2be fa06 933d caa0 2a3f
000000a0: c388 32be 0e48 643d 244f e93e 189a 8abf
000000b0: 4919 263e 9d70 44be 0a35 733e e89d aabd
000000c0: a61e 5e3e 2069 49bd 51b2 20be e051 883e
000000d0: f77b 7b3d 546a bc3d 0633 e73e 17f0 143f
000000e0: c97a 923f 669e 1e3f 8a95 303f 0843 5d3f
0.58232164 -0.91332436 -1.0404058 1.8554047 -0.38774958 -0.77517855 -0.027529642 0.25508332
0.47158027 -0.643352 0.10986109 0.5992954 -0.25173625 -0.10571517 0.3126199 0.014358627
-0.014394972 0.30919108 0.19647104 -0.17910564 -0.3039788 0.8202258 0.8573925 -1.8997177
0.34141332 0.9031948 0.14355662 -0.29398677 -0.5825492 0.5145462 0.17742443 -0.05634314
-0.029635184 0.2237571 -0.41494983 -0.042019837 -0.28220946 -0.348326 0.07179065 0.66651595
-0.17434983 0.05573278 0.45568192 -1.0828276 0.16220583 -0.19183584 0.23750702 -0.083308995
0.21691379 -0.04917252 -0.15693022 0.26624966 0.06139752 0.09199968 0.45156115 0.5817885
1.1443721 0.61960447 0.6897818 0.86430407

model.gnn_layers.0.filter.filter.linear.1.weight f4 [16, 3]
00000000: 034c eabe ee48 643f 8a6f 10be b727 8e3f
00000010: e547 c0bf ea83 69bb 4ce0 d2bf f317 793f
00000020: fcfa ca3f 9395 05c0 93ff 8b3f 73d4 9c3e
00000030: e706 05c0 6636 ed3f fec5 813f 5cb8 ff3f
00000040: a570 ecbf 40df 66be b193 c33f 49a3 9abf
00000050: b107 33bf 136c 80bf d223 ae3f 5874 683f
00000060: 8484 e7bf 1c3a d43f c7d6 573e 0af0 ce3f
00000070: 1455 afbf 8218 c1bd 372b cdbf 3464 ae3f
00000080: 9213 19be fc48 04c0 f9b1 2a40 40ee 9abd
00000090: e5a3 e1bf e06a 0340 7834 473f 7b87 a0bf
000000a0: 0d88 ca3f b412 7fbe 78e2 c5bf ae32 cb3f
000000b0: 1614 5d3e 7267 bcbd 9d7b 063f b224 ce3e
-0.45761117 0.8917378 -0.14105049 1.110587 -1.502194 -0.0035631605 -1.64747 0.9730217
1.5857844 -2.0872543 1.093737 0.30630836 -2.0785463 1.8532226 1.0138547 1.9978137
-1.8471876 -0.225461 1.5279447 -1.2081081 -0.6993361 -1.0032982 1.3604681 0.90802526
-1.8087316 1.6580234 0.21078025 1.6167004 -1.3697839 -0.094285026 -1.6028813 1.362433
-0.14948872 -2.0669546 2.6671126 -0.07564974 -1.7628142 2.0533981 0.77814436 -1.2541345
1.5822769 -0.24909478 -1.5459738 1.5874841 0.21589693 -0.09199418 0.5253237 0.4026237

model.gnn_layers.0.filter.filter.linear.1.bias f4 [16]
00000000: 1a33 3fbd c7ae 6a3e 593f b03d 733f 943c
00000010: 1013 ae3c 9d52 fbbc 1b5e 49be 76a5 39bc
00000020: 89d0 b0bd 9161 8a3d 9fe7 b2bd 33fd 90be
00000030: 3d95 99bd b132 aabd 6f4a c1bd a3d1 913c
-0.046679594 0.22918235 0.086058326 0.018096661 0.021249324 -0.030679042 -0.19664805 -0.011330953
-0.08633525 0.067568906 -0.087355845 -0.28318176 -0.07499168 -0.0831045 -0.09438025 0.017800158

model.gnn_layers.0.feature_transform.layer_real.lin1.weight f4 [16, 16]
00000000: c85e 2c3e 773a 5abf 5536 653e c9f5 3b3f
00000010: 0d68 a8bd f134 c63b cfc2 e03e 327f b1be
00000020: a509 e2bc ef7b aabe 7904 f03e 239c 69be
00000030: 721d 64be 0101 0ebe 5d70 d63d ba46 bb3d
00000040: bc59 efbd 56f6 3c3f 8c26 02bd a985 d0be
00000050: 4784 1ebf ee89 a73e 168a 1fbf 4740 7e3e
00000060: 023b 893e dac4 7f3e e6da 9bbf a7b7 f7bd
00000070: 1fb2 633e a61e 263e 78be a5bc c6e6 91be
00000080: 83ef f13e a652 fa3d 3d79 17bc 3e59 603e
00000090: 65c6 ad3e 492d b3bc 6cd7 ee3e 32f5 a73e
000000a0: 2ee6 083e 45fd 24be aebb c6be df1c 31be
000000b0: 1b77 dabe ce96 97be 7761 32be 7c90 7f3e
000000c0: 3eed 3ebf 42d1 03c0 ac29 da3f 386e 0f40
000000d0: 9e96 ddbf d2ee a63f fb45 ab3e 0290 dcbf
000000e0: 6b97 afbf 4c20 c83e f329 fe3f 94f5 a2bf
000000f0: fd14 92bf 0537 38bd ffee 44bf 03fc f4be
00000100: afa5 83bf 4740 b5bf fb7d 0f40 3be3 cb3f
00000110: 0259 903f 339a f03f 092d b9bf 9b0e 92bf
00000120: dda0 cebf 4e28 a13f b899 a2bf d42d cbbf
00000130: fae3 8abf 6dfb 883f 3864 94bf 5396 84bf
00000140: 7f70 7fbd 7018 63bf 4813 23bf 55a8 9d3f
00000150: a213 a9bf 1cd4 5dbe 2655 493e de94 d5be
00000160: 7826 613c ccfe 2fbf 86b8 133f 12e6 e6be
00000170: 21f2 c9be 579f d4be a0f0 fb3e 6bc5 35bd
00000180: 9559 103f 1b82 d83d b428 04bf f11f 683f
00000190: 6d5f b63f b50a 2bbf 07d9 8abe 72d5 cf3e
000001a0: 9fef 24bf 09ae d3be 7277 90bf d197 623d
000001b0: 0970 113f 3d4a 273f bbd0 92bf d314 90be
000001c0: 76ff 26bf dfdc a2bf 366b 56be 489d a93f
000001d0: 9c9a 2bbf 9cfa 0a3f aabe 15bf f99c 37bf
000001e0: 3f22 48bf e1cd 463f d823 ffbe aa2d a3bf
000001f0: 36e2 8dbf 1377 4d3e 9a2b 0fbe 11db d4be
00000200: 48f8 26bf 05a6 293f 665b b4bf 1945 733e
00000210: d14a 063f 9eb5 45bf ca53 37bf e139 2b3e
00000220: 54ad 86bc 5db7 973e 7905 cbbf ccbe 41bf
00000230: a411 bc3e 32f1 b73e a02d 14bf 67fd f8bd
00000240: 1be3 94bf f2d4 8ebf 29b6 9a3f a407 0c3f
00000250: b2d2 473f 6bdb 9b3f 82e7 66bf 1305 7abf
00000260: 42db 8fbf 3744 a23f a003 97bf b2a6 80bf
00000270: 8463 72bf 0f82 983f 69bb 0cbf 9ac4 7bbf
00000280: 3ad3 a1bf 9a11 13bf fa68 c4bf a49c 463f
00000290: c507 153f e8ad 9bbf 0a99 a8bf 4c4e 82bf
000002a0: 2573 8abf 5a52 8f3f 4fe7 94bf b2c0 71bf
000002b0: 712d dbbd dc09 983f 945a 06bf c934 66bf
000002c0: 6392 dabe 8c3e 343e 8da6 f63f 5aba 88bf
000002d0: 211d cdbf bb06 9c3f 32ba 543d b137 593f
000002e0: 6d3d db3e 2018 b83e e22d 763e 6274 3c3e
000002f0: b4db 00bf 5bcd f9be 70c5 3dbf 9292 073f
00000300: 8f1a 98bf 08ba 563e 507b e3bf 44d9 1dbd
00000310: 8326 02c0 af94 10be bcf7 9fbf e0f1 61bf
00000320: ebfa 803e a560 b93f c632 a9bf 3c67 dbbf
00000330: ce97 c5bf 7f42 993a 9425 d23f 4c1c fa3d
00000340: bbf8 b6be beca 3e3f f4c7 43bf b1ef c53e
00000350: 9345 1a3f e76c 40bf c70a 09bf 0900 ab3d
00000360: 6e12 a43c d72a 633e 9ae7 9dbf 1763 10bf
00000370: 4389 ce3e 6bae 993e ae7d 26bf bca4 3fbe
00000380: 17d9 023f b8cb 67bf b6e5 c43f 2674 733f
00000390: 1e25 633f eede d73f a55d 96bf 6c15 2bbf
000003a0: 7d88 a8bf 8136 633f 0078 8bbf 060e 4cbf
000003b0: 5fee 87bf 2e6e 893f 5c73 80bf a48d 79bf
000003c0: 398c b2be d4be 2e3f 317e 2bbf 6eb7 c7be
000003d0: 19d3 373d 8a6e d7bd 2350 d4be 55e4 5fbe
000003e0: eda8 c03e 966b fcbd 77e9 31bc 5bad f8be
000003f0: 58fd a63d 6ddf d13d ac64 063f e6f9 88be
0.16833031 -0.8524546 0.22384007 0.73421913 -0.08222971 0.0060487916 0.43898627 -0.34667355
-0.02759249 -0.3329768 0.46878412 -0.22813468 -0.22276857 -0.1386757 0.1047065 0.091443494
-0.11687037 0.7381338 -0.031775042 -0.40726975 -0.6192059 0.3272242 -0.6232008 0.24829207
0.26802832 0.24977437 -1.2176178 -0.12095576 0.22235917 0.16222629 -0.020232424 -0.2849638
0.47253045 0.12222795 -0.009245214 0.21909043 0.33940426 -0.02187218 0.4664873 0.32804257
0.13369057 -0.1611224 -0.38815063 -0.1729617 -0.42668995 -0.29607242 -0.17419992 0.2495746
-0.7458075 -2.059647 1.7043967 2.2411022 -1.731159 1.3041632 0.33451828 -1.7231448
-1.3718084 0.3908714 1.9856552 -1.2731194 -1.1412655 -0.044974346 -0.7692718 -0.4784852
-1.0284938 -1.4160241 2.2420642 1.592872 1.1277163 1.8797058 -1.4466869 -1.1410707
-1.6142842 1.2590425 -1.2703161 -1.5873361 -1.0850823 1.0701729 -1.1593084 -1.0358375
-0.062363144 -0.88709164 -0.63701296 1.2316996 -1.3209116 -0.21662945 0.19661388 -0.4171514
0.013742082 -0.68748164 0.57703435 -0.45097405 -0.39442542 -0.41527817 0.4920702 -0.044377726
0.5638669 0.10571691 -0.5162461 0.9067374 1.4247872 -0.6681321 -0.27118704 0.40592533
-0.6442813 -0.41343716 -1.1286452 0.055320565 0.5681158 0.65347654 -1.146995 -0.28140888
-0.6523355 -1.2723655 -0.20939335 1.3251123 -0.6703279 0.5428865 -0.58494055 -0.71723896
-0.78177255 0.77657896 -0.49832034 -1.274831 -1.1084659 0.20064954 -0.13981476 -0.41573384
-0.652226 0.6626895 -1.4090393 0.23756827 0.5245791 -0.7723025 -0.71612227 0.16721298
-0.016440071 0.29632083 -1.5861045 -0.7568176 0.3673221 0.35926205 -0.5788212 -0.12157708
-1.1631807 -1.1158736 1.2086841 0.5469916 0.7805587 1.2176336 -0.90197 -0.9766399
-1.1238787 1.2677068 -1.1797981 -1.0050871 -0.946831 1.1914691 -0.54973465 -0.98346865
-1.2642586 -0.5744873 -1.5344536 0.77582765 0.5821498 -1.2162447 -1.3171704 -1.0180144
-1.0816389 1.1197007 -1.163309 -0.94434655 -0.10702027 1.1878009 -0.5248196 -0.89924294
-0.4268981 0.17601985 1.9269577 -1.068187 -1.6024514 1.2189554 0.051935382 0.84850603
0.42820302 0.35955906 0.2404094 0.18403772 -0.5033524 -0.48789486 -0.7412939 0.52958024
-1.1883105 0.20969403 -1.7772007 -0.03853728 -2.0336006 -0.14119218 -1.2497478 -0.88259697
0.25191435 1.4482619 -1.321862 -1.714088 -1.5436952 0.0011692791 1.6417718 0.122124285
-0.3573664 0.7452811 -0.7647698 0.38659433 0.6026241 -0.7516617 -0.5353207 0.08349616
0.02002832 0.22184311 -1.2336304 -0.564012 0.40339097 0.30015883 -0.6503552 -0.18715185
0.511125 -0.90545225 1.5382602 0.95099103 0.8872851 1.6864908 -1.1747328 -0.6682956
-1.3166653 0.8875504 -1.0895996 -0.797089 -1.061962 1.0736749 -1.0035205 -0.9748175
-0.34872606 0.6825993 -0.6698943 -0.39007133 0.044879053 -0.105191305 -0.4146739 -0.21864446
0.3762888 -0.12325208 -0.010858885 -0.4856976 0.0815379 0.10247693 0.52497363 -0.26753157

model.gnn_layers.0.feature_transform.layer_real.lin1.bias f4 [16]
00000000: 0711 da3c cedd 953e 9cf6 98be 2d9b b13f
00000010: 30ef 513f 3372 3fbd f30d 6a3e e01e 693f
00000020: f257 d63e 1739 373f f5aa 673f ca5b 433f
00000030: de71 843e 6d91 c33e 57bf 913f b8ac 8a3e
0.026619447 0.29270786 -0.29875648 1.3875481 0.82005596 -0.04673977 0.22856884 0.91062737
0.41863972 0.7157149 0.90495235 0.76311934 0.25868124 0.3819689 1.1386517 0.270849

model.post_mp.mlp.1.weight f4 [5, 16]
00000000: f5f1 44be fe51 80bf 8d28 57bf e9e9 b43f
00000010: 5338 dbbf 4c97 4d3f 4071 b9bf 2558 aebf
00000020: 673b f33f 3aaa acbf 50ca 693f 40a2 0dbf
00000030: a216 fbbe e736 82bf 799b 253e e523 bbbd
00000040: f9e0 22bf d443 49bf 89d5 7abf 9b4a cd3f
00000050: 105e b23f bc11 54bf 485d 883f 8b7e 673f
00000060: 234c 483f 2aba 903f 8fbf 9b3f fb4c b1bf
00000070: 16e5 f93f 41cf dabd ff80 dabf 8660 353f
00000080: 23a4 603e 07e3 5d3f ea69 183f 23f5 2cbf
00000090: 54dc bebf 1d17 89bf c614 ccbe 2e90 103e
000000a0: 5b7e e2bf 1863 553f 1277 acbf 35ca a1bf
000000b0: b721 dfbf 3fac 743f 161d a53f d97e a7be
000000c0: 0643 1b3f 5bf9 733f 1aed abbf af54 f3bf
000000d0: 17bc 5d3f a3b1 e53f 27d7 c13e 98fe 293f
000000e0: 7813 24be 82ca 7abf 02ef 57bf a9ca a3bf
000000f0: 4514 b73d d0a0 e43e 09bd 86bf 528d 24be
00000100: f5d4 5fbe 8693 8bbf c88b 983f d754 793f
00000110: 0974 4f3f 3ea7 ddbf b871 033f b7f4 70bf
00000120: 47ea 16be b761 9cbe 5c65 6cbf ce71 2440
00000130: 94b9 15bf 0846 933d 339f 733e 8297 5fbe
-0.19232924 -1.0025022 -0.8404625 1.4133884 -1.7126564 0.80308986 -1.4487686 -1.362065
1.9002503 -1.3489449 0.9132433 -0.553257 -0.49040705 -1.0173005 0.1617259 -0.09137706
-0.6362453 -0.7861912 -0.9798208 1.6038393 1.3934956 -0.8283956 1.0653467 0.90427464
0.78241175 1.1306813 1.2167834 -1.3851618 1.9523036 -0.10684062 -1.7070616 0.7085041
0.21937613 0.8667454 0.5953661 -0.6756155 -1.4910989 -1.0710179 -0.398596 0.141175
-1.7694811 0.8335433 -1.3473837 -1.2639834 -1.7432164 0.95575327 1.2899501 -0.32713965
0.60649145 0.9530236 -1.3431733 -1.9010218 0.8661513 1.7944835 0.3785946 0.66404104
-0.16023052 -0.9796525 -0.8434907 -1.2796222 0.08939413 0.4465394 -1.0526439 -0.16069534
-0.2185858 -1.0904396 1.1917658 0.9739508 0.8103643 -1.7316663 0.51345396 -0.94123405
-0.14737807 -0.305433 -0.9234216 2.569446 -0.58486295 0.07191092 0.23791198 -0.2183514

model.post_mp.mlp.1.bias f4 [5]
00000000: c0b1 1bbe 4e2b 98be 3b65 89bd f3be 5a3d
00000010: 2e04 cfbd
-0.15204525 -0.2972054 -0.06708761 0.05340476 -0.10108219

exp_avg f4 [16, 5]
00000000: e17c efb8 e27a 20b5 b4de a4b9 c89b 34b9
00000010: 7cc2 0fb9 444f 92b9 6bba 37b9 c60c f938
00000020: eb42 b939 f9f2 33b9 a347 f438 1956 013a
00000030: 8af5 d5b9 5557 5e38 723b 88ba 1138 993a
00000040: 85ec f53a 3e2a 64b7 8f3f daba 4b2f 013b
00000050: f96f 15bb 1496 a5ba d667 51bb ee9a 98ba
00000060: a7af bab9 551f ae39 a8f8 e039 9d91 a5b8
00000070: d50f 04ba 79c7 ecb9 dfed 1239 4416 0d39
00000080: 981e 7fb9 c2e7 bab9 0531 8bb9 14b6 14ba
00000090: 1d8e 9339 a075 1d39 5de8 ea39 1e9e 7dba
000000a0: a64d e639 fd16 8039 1915 9339 e2b8 8d39
000000b0: 1832 d6b8 215e 1e39 76d0 b2ba 08b2 8dba
000000c0: ee5a 373a 6111 edb8 83a7 0b3a 1efa 663a
000000d0: 130d 3cba 80c0 6dba aacf 05ba 2a02 b0b9
000000e0: 3415 45b9 9943 1aba ba62 79b9 492d 8c3a
000000f0: b7f0 4fba 7543 f039 5946 2cba e88e 09ba
00000100: bafb 23ba f5b4 bbb9 28fc bcb9 b513 67b9
00000110: b262 89b8 009e 8738 3c69 4739 af76 19ba
00000120: 1548 843a f66a e8b9 c3ce 583a c1b2 9738
00000130: a6a9 5039 81d6 3739 ab0e 2839 46d0 1ab9
-0.000114196686 -5.978346e-07 -0.00031446444 -0.00017224171 -0.00013709994 -0.00027906348 -0.00017521686 0.000118756245
0.00035335807 -0.00017161285 0.0001164817 0.0004933789 -0.00040809467 5.301026e-05 -0.0010393693 0.0011689683
0.0018762505 -1.3599694e-05 -0.0016651022 0.0019712027 -0.0022802337 -0.0012633228 -0.003195276 -0.0011642852
-0.00035607556 0.0003321121 0.00042909873 -7.894936e-05 -0.00050377595 -0.00045162046 0.00014012259 0.00013455102
-0.00024330092 -0.00035649358 -0.00026548668 -0.00056728837 0.00028143908 0.00015016505 0.00044805082 -0.00096747454
0.0004392687 0.0002443119 0.00028053744 0.00027031364 -0.00010213646 0.0001510312 -0.0013642448 -0.0010810504
0.00069944456 -0.00011304278 0.00053273904 0.0008811074 -0.0007173579 -0.0009069517 -0.0005104492 -0.00033570948
-0.00018795283 -0.00058847066 -0.00023783269 0.0010694648 -0.00079322926 0.00045826627 -0.0006571762 -0.000524743
-0.0006255467 -0.00035802243 -0.00036046025 -0.00022037218 -6.5510525e-05 6.4667314e-05 0.00019017322 -0.0005854172
0.0010092283 -0.0004433018 0.0008270556 7.2335366e-05 0.00019899625 0.00017532149 0.00016027193 -0.00014764172

exp_avg_sq f4 [16, 5]
00000000: 3d8c 1e37 69b7 2837 b787 2337 186a 1a37
00000010: fd60 2237 19be 4a37 8a01 5137 83b8 5437
00000020: 9cdd 6437 e573 5637 91dc 1e38 ce1a 2338
00000030: c201 2838 1780 2338 b5c1 2338 065b 3c39
00000040: e6f8 3e39 32f6 3a39 fe95 5939 e4a6 4339
00000050: 7b4e 9e39 0dbb 9839 4a70 9c39 1ec1 9639
00000060: bc61 8c39 dc70 db37 b50d dd37 1cea ea37
00000070: d09d e137 2859 db37 69a0 ad37 d89f 9337
00000080: 2ee8 9537 6427 9137 42cc 9637 153f 1539
00000090: 01ed 0939 cfee 0739 b4e5 1039 5be7 1839
000000a0: 7f62 b236 12e8 a036 c357 c536 c047 a736
000000b0: dcfb ac36 6183 0a3a 0c0f 0e3a d1b6 0e3a
000000c0: e1af 083a 7a9a 073a e090 5c3a c561 5c3a
000000d0: 7437 593a 09af 563a e73b 593a 3c92 0c37
000000e0: 439d 1537 16bf 1537 8f53 0a37 d7d7 6137
000000f0: 2192 8937 c97b 9e37 e1f0 8b37 1f75 8137
00000100: 6723 8237 e0fd 8837 339f 7d37 8669 8037
00000110: 7d59 8037 2277 7e37 e76a 4c39 3076 4d39
00000120: a374 6039 f83d 4d39 1403 1e39 21f8 b636
00000130: c096 ba36 0a03 c136 d882 b536 41eb b736
9.450186e-06 1.0056284e-05 9.747156e-06 9.203817e-06 9.678534e-06 1.2084399e-05 1.2457729e-05 1.2679145e-05
1.36414565e-05 1.2782378e-05 3.7875554e-05 3.8887192e-05 4.005596e-05 3.898152e-05 3.9042632e-05 0.00017962986
0.00018212534 0.00017830057 0.00020750609 0.00018658821 0.0003019458 0.00029131063 0.000298383 0.00028754113
0.000267757 2.6159389e-05 2.6351636e-05 2.800399e-05 2.6895577e-05 2.6148351e-05 2.0697904e-05 1.7598199e-05
1.7870301e-05 1.730369e-05 1.7976508e-05 0.00014233247 0.00013153629 0.00012963566 0.00013818481 0.00014582036
5.31628e-06 4.795388e-06 5.8812743e-06 4.9853406e-06 5.1553197e-06 0.0005283859 0.0005419112 0.0005444112
0.0005214196 0.000517286 0.0008413922 0.0008406903 0.0008286156 0.00081895344 0.0008286819 8.378698e-06
8.917707e-06 8.925583e-06 8.244896e-06 1.3461299e-05 1.639972e-05 1.889271e-05 1.668226e-05 1.5432537e-05
1.5513693e-05 1.6330683e-05 1.5117042e-05 1.5307927e-05 1.530046e-05 1.51673175e-05 0.0001949478 0.00019594352
0.00021405755 0.00019573409 0.00015069201 5.4529087e-06 5.5607816e-06 5.752202e-06 5.4094526e-06 5.481212e-06

exp_avg f4 [16]
00000000: 87d7 c739 c77c bf39 8b2c 90ba de9e 43b9
00000010: fef6 afba 1424 afba 92f9 ed39 0daa 27b8
00000020: cdf2 613a 2113 dfb9 da3b b9b8 e87c 033b
00000030: 0659 663a 6635 c8b9 c7e2 903a 2c76 2e39
0.00038116818 0.00036523325 -0.0010999603 -0.00018655832 -0.001342505 -0.0013362193 0.00045390107 -3.9974275e-05
0.0008619249 -0.00042548127 -8.832636e-05 0.0020063464 0.0008787069 -0.00038186758 0.0011053913 0.00016637956

exp_avg_sq f4 [16]
00000000: eac6 b635 7305 d536 1d2a 1337 14e8 9a37
00000010: acd7 cd38 0237 0637 8142 6c37 f7a2 dc37
00000020: cd7c 1937 a116 3138 1841 8838 c6fb 7537
00000030: b50a 3a37 6733 0237 a09c 5c38 e311 8936
1.3617948e-06 6.348529e-06 8.771688e-06 1.84663e-05 9.815334e-05 7.99983e-06 1.408218e-05 2.630193e-05
9.148568e-06 4.2221163e-05 6.49711e-05 1.46617585e-05 1.1088957e-05 7.760572e-06 5.2597956e-05 4.0850005e-06

exp_avg f4 [3, 20]
00000000: 4e2d 92bc 1a32 b53a 102e 353a 5805 86b9
00000010: ecad d83a 3cc4 84ba 96f4 c739 67a7 123a
00000020: dd22 00ba c24d 1f3a 1ce8 7f39 1c7a 9638
00000030: 1aa9 1d3a cda8 26b7 cbd4 37b8 6ca1 ff38
00000040: 6bc7 44b9 89e6 1ab9 835a b2b8 d1f8 f4b8
00000050: e76a 043c 35c4 adbb 0667 6eba 64b0 013a
00000060: 9b80 b2ba fce9 833a 7506 97b9 829b f4b9
00000070: 9aa2 f339 bcfe 0cba e9e8 55b9 6996 71b8
00000080: 2588 0bba e01b d437 a542 3138 1db8 ecb8
00000090: c3b9 1939 8669 d038 6fcc 8c38 a516 d538
000000a0: beeb 0b3c 3072 093b 7a59 3537 f884 eeb8
000000b0: ab92 deb9 0d48 2639 9198 fcb8 72b0 0cb9
000000c0: 33f3 af38 140d 1ab9 b565 8bb8 1526 2db8
000000d0: c807 17b9 42e7 eab6 9f61 b9b5 8f3e 65b7
000000e0: 82bc 7e38 5223 0338 c927 f736 b446 7f37
-0.017843869 0.0013824136 0.0006911466 -0.00025562453 0.0016531325 -0.0010129283 0.00038138469 0.0005594403
-0.00048880075 0.00060769555 0.00024405163 7.175302e-05 0.0006014273 -9.933673e-06 -4.382878e-05 0.00012189415
-0.00018766306 -0.00014772466 -8.5045605e-05 -0.00011681172 0.008082128 -0.0053029307 -0.0009094331 0.0004947244
-0.001361865 0.001006424 -0.00028805775 -0.0004665517 0.0004646972 -0.00053785346 -0.00020400029 -5.7598958e-05
-0.00053227163 2.528535e-05 4.2262156e-05 -0.00011287651 0.00014660419 9.937868e-05 6.713799e-05 0.00010160849
0.008540092 0.0020972602 1.0809274e-05 -0.00011373492 -0.00042452416 0.00015857835 -0.00012044714 -0.00013417171
8.38995e-05 -0.00014691456 -6.646981e-05 -4.128188e-05 -0.00014403381 -7.0006654e-06 -1.3811986e-06 -1.3664029e-05
6.073388e-05 3.126573e-05 7.3658052e-06 1.5215646e-05

exp_avg_sq f4 [3, 20]
00000000: ffdb 7a3c 5b70 763b 75b9 9538 f6eb 8c38
00000010: 5d09 a437 c705 8737 dc45 8737 f027 b436
00000020: 2de7 5737 ece2 4337 61bc 4437 90f0 d036
00000030: 8c1a fe36 9797 5337 64f7 ec36 2aaa 9636
00000040: 40ee 0d36 e96c 8d35 2ce4 2235 9289 4033
00000050: 3105 4e3c 4d0c 4e3b a8a9 ac38 f44d 8838
00000060: c34f aa37 637c 8c37 5f69 8e37 fa10 b936
00000070: 823e 5537 59c3 dc36 6bfd 0937 c363 fd36
00000080: 55c8 0537 365c d236 9d31 9136 cf54 8036
00000090: ab96 1036 7e7b 8835 7b74 1d35 5437 3133
000000a0: 4458 3a3b 6376 2c3a 8fdb 9c36 f2a9 ab36
000000b0: 912b 1536 5585 7435 4715 1335 7b88 c734
000000c0: 848b 9335 f40d ab35 b469 9c35 5f9a 9c35
000000d0: 6aeb a435 0731 cd35 e261 d035 0393 9335
000000e0: 0828 8635 4828 1c35 1def df33 9721 2232
0.01531124 0.003760359 7.139418e-05 6.7196714e-05 1.9554684e-05 1.6095944e-05 1.6125785e-05 5.3690674e-06
1.2868823e-05 1.167574e-05 1.1726371e-05 6.226888e-06 7.5728803e-06 1.2611875e-05 7.062148e-06 4.490158e-06
2.1149317e-06 1.0537016e-06 6.0681737e-07 4.4828603e-08 0.01257448 0.0031440437 8.2332e-05 6.499505e-05
2.0302721e-05 1.6747223e-05 1.6976786e-05 5.515406e-06 1.2710343e-05 6.5792524e-06 8.22484e-06 7.5516014e-06
7.974061e-06 6.2692225e-06 4.3271125e-06 3.8245703e-06 2.1545372e-06 1.0168731e-06 5.865656e-07 4.1261345e-08
0.0028433958 0.00065789203 4.6747223e-06 5.1159814e-06 2.222809e-06 9.1091107e-07 5.479273e-07 3.716594e-07
1.0992958e-06 1.2744554e-06 1.1653669e-06 1.1667834e-06 1.2287467e-06 1.5287959e-06 1.5525695e-06 1.099514e-06
9.995429e-07 5.8173146e-07 1.0427741e-07 9.4372785e-09

exp_avg f4 [16, 3]
00000000: 8022 9438 4fd9 6fb7 5ae0 f5b7 bb41 0239
00000010: f6a7 e839 dd7a 7db9 ae69 3a37 c7d7 14b8
00000020: bd53 bb37 59f8 d03a fd1c 92b9 ec10 07ba
00000030: 5fc5 4c3a 9470 2cba 4574 89b9 d8eb b7b9
00000040: 6569 1239 11cb 2b39 2a8d 74b9 7d59 a538
00000050: 67a4 8a38 b0ab 573a 6bca 003a c866 33ba
00000060: 6349 b739 9d9d 90b9 8c53 ebb8 f72b 78ba
00000070: ba85 a2b8 ec1a 1a3a ada1 563a dc23 9c39
00000080: c391 54ba cba1 b439 6897 ddba 8e44 1f3a
00000090: e793 4b3a 3917 7fb9 3cfe 8eb9 e2ac 0139
000000a0: e363 10b9 3472 94b7 961c 123a c024 70ba
000000b0: 5deb 8439 c252 9537 e282 a8b7 b79a 6db6
7.063616e-05 -1.4296106e-05 -2.9310748e-05 0.00012422253 0.0004437563 -0.0002417373 1.1111069e-05 -3.5486908e-05
2.233113e-05 0.0015943154 -0.00027868888 -0.0005152363 0.0007811393 -0.0006578055 -0.00026217304 -0.00035080197
0.00013962908 0.00016383479 -0.00023322241 7.8844816e-05 6.610975e-05 0.00082271826 0.0004912975 -0.00068436237
0.00034959157 -0.0002758325 -0.00011221235 -0.00094670005 -7.7496705e-05 0.00058786455 0.0008187544 0.00029781356
-0.00081088784 0.0003445282 -0.0016906084 0.0006075584 0.00077658746 -0.00024327346 -0.0002727377 0.00012366803
-0.00013770121 -1.7696155e-05 0.00055737176 -0.00091607496 0.0002535236 1.7800721e-05 -2.0088108e-05 -3.5405808e-06

exp_avg_sq f4 [16, 3]
00000000: 598f 3932 c81c 7032 76f3 5732 d4b8 b035
00000010: e0b2 8736 a7c0 8436 1f88 6f34 180b 2234
00000020: 9f62 4732 cfdf b537 9dd1 4e38 a3fa f837
00000030: 66ee 8737 d420 3337 b676 e735 16c9 c634
00000040: dc0c ef34 143a 8c34 ae4a 1d36 efda b435
00000050: 2863 7e35 1642 5938 d4f3 8938 27cf 4038
00000060: 39dd a835 c77d 7636 03c2 3a36 f1ba 6b37
00000070: 93b9 a337 d16f 0537 4bd4 0738 0e68 1038
00000080: 7eb0 4837 b07b 1936 10f0 8336 7932 d335
00000090: 901f 6e36 493b 9a36 615e 7536 abb3 8135
000000a0: 943e bd35 7321 9b35 7005 ff37 0eb1 3e38
000000b0: bd74 9237 8590 1c36 b5ad 8f36 0e62 b636
1.0801011e-08 1.3976383e-08 1.2570004e-08 1.3166814e-06 4.0441373e-06 3.9563342e-06 2.230813e-07 1.5091462e-07
1.1605748e-08 2.16811e-05 4.9309445e-05 2.9680616e-05 1.6204267e-05 1.0676875e-05 1.7245391e-06 3.7026683e-07
4.4526575e-07 2.611929e-07 2.3438292e-06 1.3474763e-06 9.4766665e-07 5.179838e-05 6.5780856e-05 4.5969293e-05
1.258136e-06 3.6730069e-06 2.782909e-06 1.4050617e-05 1.9517529e-05 7.953452e-06 3.238422e-05 3.4429184e-05
1.1962022e-05 2.2870772e-06 3.932051e-06 1.5735415e-06 3.5483135e-06 4.5964593e-06 3.656278e-06 9.663539e-07
1.409981e-06 1.1558135e-06 3.04009e-05 4.5464425e-05 1.7458917e-05 2.3329933e-06 4.2819543e-06 5.4354377e-06

exp_avg f4 [16]
00000000: 6a6e 4839 75ec 0b3b b2d6 cfb8 7457 993b
00000010: 41f2 be38 de9a 28ba b22b feb9 b5f5 a03b
00000020: 7c3b b338 1689 66bb 0b9d 7d3b db52 bbbb
00000030: 37be d73a 000b 09b9 0f16 d2ba 24d9 e9b7
0.00019114619 0.0021350656 -9.910519e-05 0.0046796147 9.105029e-05 -0.00064317684 -0.0004847921 0.004912103
8.546465e-05 -0.0035176924 0.0038698341 -0.0057166643 0.0016459887 -0.00013069436 -0.0016028302 -2.7876878e-05

exp_avg_sq f4 [16]
00000000: 0a71 b234 2dad ad38 d636 cc34 c0f9 003b
00000010: 370c 7a38 9daa be36 32cf 6837 d2f9 0d3b
00000020: f639 c238 3065 473a 4fd1 913a 7f6f e938
00000030: 78c1 1539 d824 7d37 cbf3 b03a e48b 8237
3.323733e-07 8.281539e-05 3.803786e-07 0.0019680113 5.961602e-05 5.6823033e-06 1.3876519e-05 0.0021663797
9.261437e-05 0.00076063257 0.0011125001 0.000111310736 0.0001428182 1.50885535e-05 0.001350039 1.556235e-05

exp_avg f4 [16, 16]
00000000: ebb1 20b8 9538 4fb7 a3f9 d437 7b06 a2b7
00000010: e4c9 d1b5 09b8 4b38 2ea8 65b8 ddad a7b6
00000020: ed09 42b8 e77f db37 345b 04b8 b888 27b8
00000030: 2d1c f9b7 0d9f 6338 1e61 d5b6 45bd 8cb8
00000040: 38d5 adb8 8d58 30b9 bfd4 ca38 dcdb 9b38
00000050: 8f51 a737 ce75 4c39 62e7 d9b8 59fb a0b8
00000060: 655e 77b9 90aa d5b6 d611 0138 8063 90b8
00000070: 0b48 1db8 50c7 4339 5d44 afb7 af30 aab9
00000080: fb61 b836 5c3b 7d36 5e08 11b7 8f48 7636
00000090: 340c c2b5 4501 5ab7 d18b 1737 9f96 77b5
000000a0: b06a 5137 51f3 40b5 3597 6535 a8f6 7036
000000b0: 9c6d 6d34 d211 5cb7 91ff 2736 f1c2 a537
000000c0: c05a 1639 8f4b b839 5929 35b9 0b27 89b9
000000d0: 2575 8b38 93c0 7eb9 550f 6838 e3c0 4c39
000000e0: 58f0 6139 5896 54b5 20d6 34b8 ef5a 9139
000000f0: 354c 5739 c0bb 55b8 fb15 9a38 720d 0739
00000100: 2143 d538 fa07 3539 dcf4 29b9 39cc a7b8
00000110: 1eba 1db8 f527 49b9 3558 1939 a102 9b38
00000120: 084e 5a39 4c68 92b8 413b b638 ce96 4a39
00000130: ec3a 1d39 70fe 1fb9 a086 0639 f828 3539
00000140: c212 afb9 03d1 7eb9 2b40 db39 a742 c1b8
00000150: 0fbd dd38 928f 163a 921e 12ba 4648 5bb8
00000160: 3822 1cba 2c81 7b39 5ffc a5b9 5645 e2b9
00000170: 3c61 9fb9 8f41 1f3a d985 87b9 5808 3eba
00000180: 2a65 41b8 b795 61b8 afb2 7d38 ae12 8db7
00000190: 980f 86b8 eeb5 f738 f7f2 bbb6 704c 1ab8
000001a0: 7cca 10b8 862c 5b37 ccae 8b38 16bf 23b8
000001b0: c148 36b8 d642 b337 8ff2 7238 ee73 c3b8
000001c0: e31e 8938 dcfc dd38 3b66 3db8 f55a 88b8
000001d0: a686 bd37 84f2 b0b8 5d53 5838 bbcd 9d38
000001e0: 0a24 a238 10fa 31b8 c8f8 cb37 6089 ec38
000001f0: ae5f de38 5386 22b8 7277 6a37 df6c 6c38
00000200: 50cd 4938 042a adb8 0681 3139 6dfd d4b7
00000210: dda7 8cb8 b76b 4a39 632f 0339 033c 15b8
00000220: 3cbb 0037 19b3 31b7 8c17 7039 2e81 3138
00000230: c1df abb7 4441 5bb8 dacd 8138 85ea 88b8
00000240: 2ab8 bf38 a774 0039 3561 99b8 7632 3bb8
00000250: 6821 3ab6 c2b9 0fb9 5cb0 f738 8734 bf38
00000260: ec2e 1539 136f ccb8 544a 9838 f9a3 1939
00000270: 58f9 2339 9481 f2b8 5edd 0838 aa49 1739
00000280: fb27 d338 ecfb e8b6 d65a c638 2ef7 ceb4
00000290: d05f f4b5 fbe4 f037 e8e1 1439 ea6f c237
000002a0: 2d81 a238 e92b 34b8 5172 1439 facc 9e38
000002b0: 7682 2b38 b96e e5b8 6870 a0b7 5c61 d838
000002c0: 9fbc 9638 06f3 f8b8 00ad 53ba 107b b339
000002d0: 6aa2 b537 21e3 dab9 b0a8 de38 2753 d5b9
000002e0: 800c b1b8 20c8 7e37 b523 0039 70cc c839
000002f0: 8193 2538 2ac8 9738 ebe2 0e3a cc5c beb9
00000300: 1bdb ff38 198d 98b8 bdb7 8539 2890 b837
00000310: 959e 1039 73dd 1e39 2c8b 8838 99fb b838
00000320: 0d13 06b9 f124 f2b8 b586 1439 f0d2 d738
00000330: 915f 1639 8e9c 9438 ecf4 4db9 0626 0cb9
00000340: d092 bc38 d9a4 9537 9bbd e537 1512 78b7
00000350: 10ab 36b7 5485 31b7 3c5f 0239 87d1 2b34
00000360: 1f9e cb38 7262 5cb1 eabf dc38 765f a238
00000370: 1407 0337 2403 e1b8 dbff e437 67d0 e538
00000380: 240e 6738 c30f 2c39 2cc7 50b9 19d9 7db8
00000390: de65 32b8 e39e 59b9 b0fe c338 fe0f 8a38
000003a0: dad7 3739 4b2a 9ab8 b217 1138 f1e8 2039
000003b0: 3f4c 1739 97d1 f5b8 9051 0639 9a7f 1439
000003c0: 9e04 a436 5bf3 cbb5 00a6 0d37 771a d7b3
000003d0: 1e92 9c36 a150 bf36 71eb 6b36 4401 b836
000003e0: 7d11 c0b6 f895 18b7 8ca8 1937 4404 0837
000003f0: 0a28 4537 1342 8536 0e93 afb6 9aab 25b7
-3.831267e-05 -1.23513355e-05 2.5388616e-05 -1.9314923e-05 -1.5630471e-06 4.8570368e-05 -5.4754484e-05 -4.997228e-06
-4.626245e-05 2.6166394e-05 -3.1556192e-05 -3.9943232e-05 -2.9696233e-05 5.4269145e-05 -6.3592006e-06 -6.7109744e-05
-8.288998e-05 -0.00016817656 9.671738e-05 7.431928e-05 1.994593e-05 0.00019498842 -0.00010390465 -7.676212e-05
-0.0002359092 -6.3677508e-06 3.0772608e-05 -6.8849884e-05 -3.7498812e-05 0.00018670899 -2.089346e-05 -0.000324612
5.4950337e-06 3.773449e-06 -8.644622e-06 3.6699091e-06 -1.4457678e-06 -1.2994108e-05 9.032855e-06 -9.2233853e-07
1.2482211e-05 -7.1879646e-07 8.5529183e-07 3.590636e-06 2.211222e-07 -1.3117171e-05 2.5033698e-06 1.976031e-05
0.00014338922 0.0003515151 -0.00017276908 -0.00026159766 6.6498564e-05 -0.00024295067 5.532739e-05 0.00019526812
0.00021547207 -7.9194933e-07 -4.3114764e-05 0.00027724306 0.00020532387 -5.0958013e-05 7.3473864e-05 0.00012879612
0.00010169135 0.00017264477 -0.00016208313 -8.00122e-05 -3.7605052e-05 -0.00019183739 0.00014624077 7.3914656e-05
0.00020819169 -6.981249e-05 8.689473e-05 0.000193204 0.00014994637 -0.00015258207 0.00012829388 0.00017276767
-0.00033392577 -0.0002430119 0.00041818744 -9.215372e-05 0.00010573316 0.00057434395 -0.00055740133 -5.228098e-05
-0.0005956027 0.00023985346 -0.00031659284 -0.00043157738 -0.00030399289 0.00060751376 -0.0002584893 -0.0007249168
-4.6109002e-05 -5.3783613e-05 6.0486313e-05 -1.6817208e-05 -6.3925225e-05 0.00011811765 -5.601319e-06 -3.678765e-05
-3.4520854e-05 1.3063784e-05 6.660595e-05 -3.904019e-05 -4.345994e-05 2.1369586e-05 5.7923196e-05 -9.319918e-05
6.538422e-05 0.000105852 -4.515632e-05 -6.5019274e-05 2.2593256e-05 -8.437506e-05 5.157605e-05 7.524664e-05
7.731475e-05 -4.2432977e-05 2.4315334e-05 0.00011278945 0.00010603607 -3.874891e-05 1.3975297e-05 5.636818e-05
4.8113347e-05 -8.257109e-05 0.000169281 -2.539038e-05 -6.706987e-05 0.00019304348 0.00012510786 -3.558026e-05
7.672988e-06 -1.0591722e-05 0.00022896955 4.2320396e-05 -2.0488982e-05 -5.2274452e-05 6.189542e-05 -6.528668e-05
9.141893e-05 0.00012250488 -7.313715e-05 -4.463127e-05 -2.7735605e-06 -0.00013706743 0.00011810727 9.117374e-05
0.00014227227 -9.748167e-05 7.2617695e-05 0.00014652302 0.00015637779 -0.00011563595 3.263109e-05 0.00014427924
0.00010068711 -6.9434664e-06 9.458295e-05 -3.8550337e-07 -1.8207302e-06 2.8716857e-05 0.00014198537 2.3178716e-05
7.748823e-05 -4.295624e-05 0.00014156966 7.572207e-05 4.089108e-05 -0.000109401946 -1.912583e-05 0.00010317817
7.187691e-05 -0.00011870828 -0.000807479 0.0003423323 2.1652511e-05 -0.00041749424 0.000106172054 -0.0004068848
-8.442346e-05 1.5186175e-05 0.00012220333 0.0003829929 3.947644e-05 7.2375246e-05 0.00054506835 -0.00036308763
0.00012200159 -7.274206e-05 0.00025504633 2.2001637e-05 0.00013791987 0.0001515055 6.510908e-05 8.8206674e-05
-0.00012786333 -0.0001154634 0.00014164562 0.00010291289 0.00014340716 7.0863505e-05 -0.00019641564 -0.00013365605
8.9918845e-05 1.7838947e-05 2.738722e-05 -1.4786162e-05 -1.0887874e-05 -1.0581065e-05 0.00012433244 1.6001842e-07
9.709247e-05 -3.2070173e-09 0.00010526164 7.742543e-05 7.8098565e-06 -0.00010729421 2.729886e-05 0.00010958389
5.508786e-05 0.0001640907 -0.00019910623 -6.052209e-05 -4.253338e-05 -0.00020753923 9.345764e-05 6.5833316e-05
0.00017532651 -7.35117e-05 3.4592762e-05 0.00015345566 0.00014428886 -0.000117215495 0.0001280962 0.00014161915
4.8881184e-06 -1.5195504e-06 8.442905e-06 -1.00165316e-07 4.6661726e-06 5.70163e-06 3.5154774e-06 5.4837747e-06
-5.724082e-06 -9.094823e-06 9.1587535e-06 8.107225e-06 1.1751437e-05 3.971401e-06 -5.232526e-06 -9.8747205e-06

exp_avg_sq f4 [16, 16]
00000000: 0441 ab32 40e2 ba32 1720 3932 4410 9b31
00000010: 347d 3930 2307 1b33 452a fd32 41a3 0032
00000020: 97e4 5033 2945 0031 6213 8931 d0b6 b832
00000030: 8b13 2e32 a939 2c33 4973 6831 3070 c033
00000040: 84d2 6236 249d 5036 f9c6 9e35 edc7 9b35
00000050: dc88 9733 2789 a136 5085 a636 81d0 ec35
00000060: e528 dd36 b486 1335 339b 8e35 d6e5 2736
00000070: 6572 e635 1318 e836 1b42 4b35 1c34 9337
00000080: b935 1733 11b6 4233 b170 1d33 f005 7332
00000090: 2a50 1a31 262b 8933 0d75 6233 ea77 af32
000000a0: 6c33 a433 5bbe 2132 33e9 7532 abb5 5233
000000b0: 7d1a db32 1fb8 7433 cd41 a832 9c8b f233
000000c0: 60c2 d034 59f2 2035 0c2b c333 ca5b a534
000000d0: baf8 5933 c68a f734 7ec0 bf34 72d4 e734
000000e0: 9d22 a934 bf2a 9933 66af 3f34 41e6 0f35
000000f0: f9cf 1c35 3fae 5535 f1fa cb33 e784 4436
00000100: 2c69 5834 5fcd 5635 896d 2634 667f 1035
00000110: 57f0 9135 31c0 6e34 a208 9a35 c0d1 6b35
00000120: 1477 e435 a44e bb34 2bf7 f135 6383 b434
00000130: 89af 9434 c634 e135 cd3c 0336 fc7e 5536
00000140: 0125 5636 5432 8136 59f1 0b36 6331 8535
00000150: 3af0 6733 3e76 c736 3f23 a636 9f08 9335
00000160: d285 fe36 218e 0435 30af 8c35 cae9 8c36
00000170: 53ab 1136 c1e1 c936 bbbd 8d35 855d 5337
00000180: 47a1 d535 f76d 8335 8a0c 1235 45ba 0135
00000190: 9ba4 8034 a796 0336 be53 0336 dabe 8f35
000001a0: 6a5c 0a36 d668 8b34 1602 6135 7f80 4035
000001b0: 4799 2635 e189 2c36 20c4 4535 4a14 da36
000001c0: 805c 2436 aedd 6b36 6b63 a134 2e61 9135
000001d0: cbc2 0435 9f9c b235 c125 2236 81d8 8636
000001e0: cb21 ca35 8b46 8035 af7c 8034 c225 4436
000001f0: c229 7536 a76f 8a36 608b 6734 c2ee 5837
00000200: 4681 2436 5a98 8a35 bb1f 3e35 b86c c834
00000210: 2666 5533 1cee 5f36 3442 4836 63ff 8335
00000220: 493b 4c36 751d 6b34 4462 2435 2b52 ad35
00000230: cb5d ad35 cb94 a736 4844 a934 1608 8137
00000240: 32ac 9834 c6de 0f35 8ae9 d333 0456 f733
00000250: d499 6333 6edb 0b35 c8a0 f534 77e6 ea34
00000260: 0229 db34 2181 4735 826c ff34 633c ad35
00000270: 769a dc35 6bee 4c35 7505 3734 49a5 4636
00000280: c619 aa35 cab4 1e35 9d1b 3a35 8723 db34
00000290: 9287 9134 aee7 f334 6fe1 2d36 e805 7935
000002a0: 39d2 0935 e871 8235 7e5e 8836 025a 4a36
000002b0: bb99 4336 ed83 1436 27c0 5135 0c3e 0837
000002c0: 3546 5d36 2b52 8e36 db5d 4336 e82d dc35
000002d0: 1024 bd33 7af7 c736 226c ab36 7934 f435
000002e0: dc2f fa36 d16b 6635 31f1 e335 5751 8d36
000002f0: 8e4c 3036 33c1 c936 0540 dc35 b3ee 6837
00000300: 953d 9b34 bc89 d334 38f6 5d34 36fd 6034
00000310: ff7f c433 0179 8334 7135 cd34 5de1 8c34
00000320: 475d f734 0f84 3834 19b1 9334 e82c 0b35
00000330: a050 b434 dc2a ba34 d314 8934 de4d 4a35
00000340: bac1 a136 676d 0436 62cd 9335 f6c5 a335
00000350: 258e 1734 61f8 ba36 091d d136 e81e 3d36
00000360: 651e bf36 8fc4 fc34 82ed 8b35 970f 1235
00000370: 883f 3135 dde5 1737 2862 3d35 3e62 d537
00000380: 66fc 6a34 3615 ac35 8e1e 7a35 c719 e934
00000390: e977 c135 fb16 4535 cc3c 4835 f5be 6035
000003a0: 3935 1d36 0dd5 0235 3496 4835 b5d9 ff34
000003b0: d78b 3f35 5461 0836 2d97 0f36 ad6a 9736
000003c0: be87 5234 4640 6033 87d8 c432 3234 8533
000003d0: 2ae5 9c32 70c5 1934 b9ca 8034 8273 4834
000003e0: 58d4 3534 8904 5433 b282 2533 0926 3c32
000003f0: 45e4 2c33 6217 b934 6934 8233 0871 8035
1.9936586e-08 2.1756136e-08 1.0775714e-08 4.512943e-09 6.748053e-10 3.609524e-08 2.9472298e-08 7.4877e-09
4.8636675e-08 1.8665764e-09 3.9894283e-09 2.1503553e-08 1.01325766e-08 4.0099312e-08 3.3825975e-09 8.9611035e-08
3.379916e-06 3.1085883e-06 1.1829826e-06 1.1606586e-06 7.05638e-08 4.8141405e-06 4.962705e-06 1.7644053e-06
6.591074e-06 5.4957786e-07 1.0624993e-06 2.5018721e-06 1.7169629e-06 6.9169414e-06 7.571959e-07 1.754803e-05
3.5206288e-08 4.5334733e-08 3.6656903e-08 1.4145812e-08 2.2455517e-09 6.387408e-08 5.2726183e-08 2.0427212e-08
7.646199e-08 9.414715e-09 1.43139e-08 4.905966e-08 2.5507001e-08 5.6978134e-08 1.9587697e-08 1.1294398e-07
3.8884446e-07 5.9957307e-07 9.088225e-08 3.080043e-07 5.0750465e-08 4.6108306e-07 3.571658e-07 4.3181677e-07
3.1503887e-07 7.132393e-08 1.7852071e-07 5.3606715e-07 5.841717e-07 7.9602245e-07 9.49857e-08 2.9283635e-06
2.0154829e-07 8.0020067e-07 1.5499803e-07 5.382957e-07 1.087329e-06 2.2235396e-07 1.1476407e-06 8.784955e-07
1.702198e-06 3.4888683e-07 1.8027835e-06 3.362321e-07 2.7694867e-07 1.6779165e-06 1.9555912e-06 3.1813388e-06
3.1910024e-06 3.8503586e-06 2.0853097e-06 9.923646e-07 5.4002363e-08 5.9444274e-06 4.9512887e-06 1.0954863e-06
7.5853686e-06 4.9380657e-07 1.0481799e-06 4.1995418e-06 2.1706408e-06 6.016548e-06 1.0560537e-06 1.2598354e-05
1.5916675e-06 9.792265e-07 5.4407485e-07 4.83273e-07 2.3961624e-07 1.9608212e-06 1.9569266e-06 1.0709875e-06
2.0617395e-06 2.5967046e-07 8.3822067e-07 7.171256e-07 6.2062867e-07 2.5710253e-06 7.367362e-07 6.4992682e-06
2.4491746e-06 3.5146763e-06 3.0060923e-07 1.0831625e-06 4.9457293e-07 1.3307616e-06 2.4161857e-06 4.0187156e-06
1.5060008e-06 9.557274e-07 2.3932577e-07 2.9228254e-06 3.6532151e-06 4.1257185e-06 2.1564256e-07 1.2930193e-05
2.4513151e-06 1.0326141e-06 7.082669e-07 3.7332006e-07 4.968583e-08 3.3368187e-06 2.9840858e-06 9.834588e-07
3.0432877e-06 2.1896797e-07 6.1237756e-07 1.2913418e-06 1.2916802e-06 4.9943096e-06 3.1528384e-07 1.5381764e-05
2.8437495e-07 5.359583e-07 9.867934e-08 1.151748e-07 5.2992462e-08 5.210085e-07 4.575179e-07 4.3753582e-07
4.0821766e-07 7.4321184e-07 4.75764e-07 1.2907079e-06 1.6436231e-06 7.6342866e-07 1.7045188e-07 2.9600508e-06
1.2673488e-06 5.912267e-07 6.933058e-07 4.0817778e-07 2.7106995e-07 4.5430846e-07 2.5910228e-06 9.2768323e-07
5.134239e-07 9.718906e-07 4.064116e-06 3.0152737e-06 2.9146747e-06 2.213051e-06 7.8138186e-07 8.120678e-06
3.2972432e-06 4.2414954e-06 2.9111895e-06 1.6404638e-06 8.807558e-08 5.959472e-06 5.1087854e-06 1.8194688e-06
7.456152e-06 8.583857e-07 1.6983014e-06 4.2115967e-06 2.6270604e-06 6.012758e-06 1.640991e-06 1.3883854e-05
2.8915807e-07 3.9402028e-07 2.0671803e-07 2.0953743e-07 9.1502436e-08 2.4488693e-07 3.822311e-07 2.6241005e-07
4.6075203e-07 1.7184378e-07 2.750974e-07 5.184688e-07 3.3586275e-07 3.4676384e-07 2.553339e-07 7.5364176e-07
4.8207266e-06 1.9733213e-06 1.1012128e-06 1.2202061e-06 1.4114683e-07 5.572147e-06 6.2320655e-06 2.8181184e-06
5.695782e-06 4.7081673e-07 1.0425431e-06 5.4411925e-07 6.603009e-07 9.053821e-06 7.055082e-07 2.5437326e-05
2.188477e-07 1.2821172e-06 9.317672e-07 4.3418387e-07 1.4414519e-06 7.342166e-07 7.4594277e-07 8.372438e-07
2.3425803e-06 4.8738804e-07 7.472438e-07 4.7655854e-07 7.135654e-07 2.0322232e-06 2.1396656e-06 4.5125694e-06
1.9607157e-07 5.221252e-08 2.2915868e-08 6.2027894e-08 1.8265002e-08 1.4321063e-07 2.3989358e-07 1.8668473e-07
1.6934189e-07 4.936422e-08 3.8535923e-08 1.09516884e-08 4.025448e-08 3.4475948e-07 6.06313e-08 9.56964e-07

exp_avg f4 [16]
00000000: d3da 7c37 f68d 2d38 1ff8 2fb6 6ad5 f0b8
00000010: c9d1 bab8 f5b0 5339 7157 b636 814b 1eb8
00000020: a5ed c8b7 d365 4ab8 65f0 bbb7 3794 82b9
00000030: 43d0 bc37 78bf 24b8 ae74 97b8 04f5 a3b3
1.50713195e-05 4.1378626e-05 -2.6221458e-06 -0.00011483843 -8.908247e-05 0.0002018845 5.434202e-06 -3.7740454e-05
-2.395252e-05 -4.8255384e-05 -2.240408e-05 -0.0002490596 2.2508326e-05 -3.9278966e-05 -7.2219744e-05 -7.634847e-08

exp_avg_sq f4 [16]
00000000: 3463 f531 8671 a635 6bb8 c732 6c7a 1b34
00000010: b4c6 da35 2703 a435 6ab1 3b35 4574 c735
00000020: 06bd 1c35 f9d7 7934 6c12 d535 cc48 ec35
00000030: 16c0 4934 aa57 e135 197f 9c35 2cd8 ef33
7.1417166e-09 1.2401003e-06 2.3250513e-08 1.4480037e-07 1.6300096e-06 1.221987e-06 6.99211e-07 1.4860494e-06
5.8389594e-07 2.3268503e-07 1.5875098e-06 1.7604557e-06 1.8789464e-07 1.678932e-06 1.1659896e-06 1.1168626e-07

exp_avg f4 [5, 16]
00000000: 95db 8137 2c34 5238 cc33 1e36 bfbd 03b9
00000010: 6e4c 6737 e01d 9137 2336 5039 17f3 2439
00000020: 0f4b b1b9 15f9 0d39 ad8b 9bb9 15e9 9739
00000030: 6b68 5938 e314 5039 137c 5239 15bc 59b6
00000040: d35e 2138 9f15 9138 24e7 9e36 7e37 a3b9
00000050: a53b 8ab9 415a 0b38 cebe d8b8 a1c7 feb8
00000060: 4834 0db9 270f ebb9 3592 90b9 8f48 9139
00000070: b40c 5fba 8362 2538 db79 bc39 583b 7cb7
00000080: f2ac 8437 716d 9d37 10d1 bdb6 0378 de39
00000090: f5c1 a43a d83d c438 27b9 cab7 8dcc 7eb9
000000a0: 1c58 4239 bde7 dfb9 ba0a 4538 a61b 1638
000000b0: f292 5d39 3e1e eeb8 5479 59ba 6c34 71b4
000000c0: f76f 50b8 80ea 4db8 297b bc36 a628 7b3a
000000d0: 5203 ecb9 2847 a5b9 8732 2cb9 31f2 36b9
000000e0: 3cbf 3939 0f3f 2d3a 4e40 d039 ad79 cd39
000000f0: a491 9739 bb19 bfb8 8347 d439 0219 7536
00000100: 5467 a8b7 d294 bab8 6bad ecb6 29d9 77ba
00000110: 9601 12ba ee74 3339 2967 c338 0417 c839
00000120: 2865 e738 abef a538 e277 0639 ae5b 82ba
00000130: 5690 9c39 1b45 0bb8 8e1a 0eb9 2b29 7937
1.548025e-05 5.011649e-05 2.3573984e-06 -0.0001256382 1.3786468e-05 1.7299259e-05 0.00019856593 0.00015730817
-0.00033815994 0.00013539598 -0.0002966797 0.00028974624 5.183408e-05 0.00019844207 0.00020073382 -3.2444998e-06
3.8473703e-05 6.918166e-05 4.7356752e-06 -0.00031131128 -0.0002636585 3.3224238e-05 -0.00010335223 -0.000121488476
-0.00013466284 -0.00044833982 -0.00027574753 0.00027710616 -0.0008508668 3.943081e-05 0.00035948944 -1.50341875e-05
1.581616e-05 1.8766821e-05 -5.656977e-06 0.00042432555 0.0012570011 9.3575276e-05 -2.4166495e-05 -0.00024299529
0.00018534105 -0.00042706533 4.697845e-05 3.5788536e-05 0.00021130944 -0.000113543574 -0.00082959724 -2.2463945e-07
-4.969534e-05 -4.9094204e-05 5.6171743e-06 0.0009580947 -0.00045015902 -0.00031524268 -0.00016422021 -0.00017447096
0.00017714215 0.0006608823 0.00039720762 0.00039191302 0.00028909475 -9.1123824e-05 0.0004048907 3.6522401e-06
-2.0075277e-05 -8.896891e-05 -7.0535366e-06 -0.00094546616 -0.00055696943 0.0001711433 9.31754e-05 0.0003816412
0.0001103378 7.912455e-05 0.00012823896 -0.0009945536 0.00029862177 -3.3204542e-05 -0.00013552068 1.4851142e-05

exp_avg_sq f4 [5, 16]
00000000: 79c5 3332 c1a9 d934 a8f0 f232 9802 8636
00000010: e152 5436 5018 cc33 8b0f 4c36 da36 0637
00000020: c518 6635 3ba2 9e36 e4a8 0538 272c 9834
00000030: 748b a135 233f 8436 baea 4b36 c6c1 5235
00000040: 0f99 0432 4eff 6535 8699 6432 62b4 e735
00000050: 20de a536 11ca fa33 ebf5 4235 eec8 3f37
00000060: 27a1 fb34 44c0 3137 e837 a536 d3ae 3534
00000070: 0a12 5836 ed59 1f36 339e 2e37 9b62 4235
00000080: a984 7c32 21a9 0535 4909 1b33 b54f 3f35
00000090: 4612 d537 d83e 8c33 0afe 2435 e193 4636
000000a0: 72c5 2335 054f 0336 07e8 1a37 5e7d f533
000000b0: 8478 9f35 fbe1 c435 214d ad37 8487 8635
000000c0: ac28 9c32 fadb 9d35 ba6e 2a34 53f7 cb36
000000d0: fa06 2e38 718a d634 4297 2437 c088 4838
000000e0: ca98 2c36 6443 8937 e0db b537 b3c8 3335
000000f0: 3a9d c536 0291 3c37 57ed c537 d5b2 b436
00000100: d302 6632 aa19 9735 70f9 8034 ec4e ce36
00000110: f8a6 b737 105e 8334 1945 ba36 2e46 3238
00000120: c96f 2436 f9af 8b37 6ed4 cf37 6503 f235
00000130: 9a64 ae36 f096 0f37 1f07 a937 f296 9336
1.0464071e-08 4.0542912e-07 2.8281946e-08 3.993813e-06 3.1638704e-06 9.503913e-08 3.0407416e-06 7.9997935e-06
8.571772e-07 4.727653e-06 3.1866963e-05 2.834433e-07 1.2036021e-06 3.9412566e-06 3.0385986e-06 7.8513074e-07
7.718213e-09 8.5680665e-07 1.3306254e-08 1.726334e-06 4.943242e-06 1.1678288e-07 7.262849e-07 1.143127e-05
4.6869647e-07 1.0594787e-05 4.9238915e-06 1.6920539e-07 3.2197008e-06 2.374519e-06 1.0408042e-05 7.241412e-07
1.4698494e-08 4.9792476e-07 3.6097195e-08 7.1269034e-07 2.5400088e-05 6.530689e-08 6.1464436e-07 2.9590376e-06
6.100955e-07 1.9566517e-06 9.233138e-06 1.1431506e-07 1.1881498e-06 1.4668907e-06 2.0659123e-05 1.0023218e-06
1.8179286e-08 1.1761433e-06 1.5872766e-07 6.078664e-06 4.149133e-05 3.9961336e-07 9.810379e-06 4.7811074e-05
2.5718932e-06 1.6363054e-05 2.1679269e-05 6.697475e-07 5.889361e-06 1.12394355e-05 2.359475e-05 5.385237e-06
1.3388404e-08 1.1257846e-06 2.4023348e-07 6.148466e-06 2.189305e-05 2.446909e-07 5.551276e-06 4.2503867e-05
2.4502972e-06 1.6652035e-05 2.4775243e-05 1.8031393e-06 5.1973157e-06 8.558607e-06 2.0149686e-05 4.3985137e-06

exp_avg f4 [5]
00000000: de29 2ab8 65eb 53b8 49dc a2b8 e8d9 d2b8
00000010: 8e30 8d39
-4.057015e-05 -5.052555e-05 -7.765793e-05 -0.000100541685 0.00026929792

exp_avg_sq f4 [5]
00000000: 605d 1537 e358 8636 a85f 1937 a2d9 6037
00000010: a460 2c37
8.902833e-06 4.003859e-06 9.141782e-06 1.3402112e-05 1.02745e-05
