tests/results/over-squashing-spec/2025-05-06/14-52-26-563555-over-squashing-spec/18/ckpt/341.ckpt (torch, 237202 bytes, 31 tensors)

model.encoder.node_encoder.encoder.weight f4 [16, 5]
00000000: 53fd bebe 3f36 07bf 799c 06bf bb81 043f
00000010: e24b a13f 52a7 9b3e c452 903e 22c8 b13e
00000020: 749a 6abf b61c 51bf 0044 98bf 1723 423f
00000030: 858c 32bf 20e6 45bd aaff 2f3f f1a8 5f3f
00000040: 5143 cabd 2285 503e 2455 6fbf 558c f13e
00000050: 3254 643f e586 773f 6149 45be 1696 83bf
00000060: 812a 6bbe 6689 4bbf 322a 04bf 169b 533f
00000070: 190f 253f bdde f53e 176f 3abf f1b0 57bf
00000080: f67e ad3f 5b4a 0dbf f21f c13e 9156 823e
00000090: 5d83 623f e662 163f 6cbb 23bf 0ead 90bf
000000a0: e89e 17be 2c0f 733f 905c 9abe aeb6 3ebf
000000b0: fd95 1dbf cd1a 603e 2b7f 103f 13e3 bfbe
000000c0: 0ed5 e5be 805e 5d3e e2d3 83bf de3f 153f
000000d0: e13f 54bf 390f 313f 2491 473f eb75 e1bc
000000e0: 1202 84bf d5ac 0bbd 1896 d33e 98c2 3b3f
000000f0: c852 513f 3c1f a03d f7b2 35bf da8f 933f
00000100: f39e 93bf 3163 f2be 352a 803f 17a6 243f
00000110: cdc9 2bbf 53fa d13d f1ec 48bf d42a 0c3f
00000120: 3c22 493f 515b 863f 20b8 533f a0dd ae3c
00000130: ad90 c2be fc96 9c3f c0bf ab3e 9be2 20bf
-0.37302646 -0.5281715 -0.5258251 0.51760453 1.2601283 0.30401093 0.28188145 0.34723002
-0.91641927 -0.81684434 -1.1895752 0.7583479 -0.69745666 -0.048315167 0.6874949 0.8736716
-0.09876121 0.20363286 -0.9348929 0.47177377 0.8919097 0.9669021 -0.19266273 -1.0280178
-0.22965433 -0.7950653 -0.51626885 0.8265852 0.6447616 0.48021498 -0.7282576 -0.84254366
1.355437 -0.5519158 0.37719685 0.2545667 0.88481694 0.5874466 -0.6395786 -1.1302812
-0.14806712 0.94945025 -0.30148745 -0.744975 -0.6155699 0.21885224 0.5644404 -0.3747793
-0.4488911 0.2161808 -1.0299037 0.5830058 -0.8290997 0.6916385 0.7795584 -0.027522048
-1.0313132 -0.034100372 0.4132545 0.733438 0.8176694 0.078184575 -0.70976204 1.1528275
-1.1532882 -0.47341302 1.001288 0.64315933 -0.671048 0.10252824 -0.78486544 0.5475285
0.7856786 1.0496618 0.8270283 0.021345913 -0.38001004 1.2233577 0.3354473 -0.6284577

model.encoder.node_encoder.encoder.bias f4 [16]
00000000: d66e 91bf 8387 babf 7d85 9e3f 1618 97bf
00000010: 604b ce3f 8410 b43e de56 87bf 3f49 03bf
00000020: e9e6 51bf 4922 f63f 18de 3dbf 56ec 7b3f
00000030: 38ca 98be b26e 80bf 117d e73f 1703 c13f
-1.136195 -1.4572605 1.2384487 -1.1804225 1.6116753 0.3516885 -1.0573385 -0.5128364
-0.81992966 1.9229213 -0.74167013 0.98407495 -0.2984178 -1.0033782 1.8085042 1.5079068

model.gnn_layers.0.factor_split f4 [16, 2]
00000000: 0000 803f 0000 803f 0000 803f 0000 803f
00000010: 0000 803f 0000 803f 0000 803f 0000 803f
00000020: 0000 803f 0000 803f 0000 803f 0000 803f
00000030: 0000 803f 0000 803f 0000 803f 0000 803f
00000040: 0000 803f 0000 803f 0000 803f 0000 803f
00000050: 0000 803f 0000 803f 0000 803f 0000 803f
00000060: 0000 803f 0000 803f 0000 803f 0000 803f
00000070: 0000 803f 0000 803f 0000 803f 0000 803f
1.0 1.0 1.0 1.0 1.0 1.0 1.0 1.0
1.0 1.0 1.0 1.0 1.0 1.0 1.0 1.0
1.0 1.0 1.0 1.0 1.0 1.0 1.0 1.0
1.0 1.0 1.0 1.0 1.0 1.0 1.0 1.0

model.gnn_layers.0.filter.filter.distance_expansion.offset f4 [20]
00000000: 0000 0000 a2bc 863f a2bc 0640 f31a 4a40
00000010: a2bc 8640 ca6b a840 f31a ca40 1cca eb40
00000020: a2bc 0641 3694 1741 ca6b 2841 5e43 3941
00000030: f21a 4a41 86f2 5a41 1bca 6b41 afa1 7c41
00000040: a2bc 8641 6c28 8f41 3694 9741 0000 a041
0.0 1.0526316 2.1052632 3.1578948 4.2105265 5.263158 6.3157897 7.3684216
8.421053 9.473684 10.526316 11.578947 12.631578 13.68421 14.736842 15.789474
16.842106 17.894737 18.947369 20.0

model.gnn_layers.0.filter.filter.linear.0.weight f4 [3, 20]
00000000: c714 373f dd2b bdbf 66c4 a9bf 5057 d03f
00000010: 46f4 ea3d 4a3f 66bf 7560 3ebe e644 1d3f
00000020: 34fd ba3e 498c 5ebf dac7 bdbd 8518 b23e
00000030: 24af 2abd 54d8 52be 4740 c03e 127b a73e
00000040: 6ccd b83e 629a a33e e78f 93bd e188 dbbe
00000050: 6c78 13bf 3cfd 723f 5bdb a83f fac1 d1bf
00000060: bb35 83be c75f 2e3f 0fed d73e f6fa 1dbf
00000070: 65ed c4be b775 943e 3187 c7bb 6a1d bbbe
00000080: c827 92bd fb20 863e 8da7 82be b831 3a3c
00000090: f21f 2dbe ec60 103f b432 483f a138 4e3f
000000a0: b9c7 163f a92c 8cbf 663e 8ebf 0672 ab3f
000000b0: c8b7 cfbc acd6 cdbe faa3 f53c af7c 663e
000000c0: f140 cf3c 94d6 1bbe 823a 5e3d 829e c6bc
000000d0: 5d93 9ebd 0c3e ca3c 8b93 853b 9d47 6dbe
000000e0: d904 0dbe ed59 0b3e 553e 173f f441 1c3e
0.7151608 -1.4779011 -1.3263061 1.6276646 0.11472373 -0.8994032 -0.18591483 0.61433256
0.36521304 -0.8693281 -0.09266634 0.34784332 -0.041670933 -0.20590335 0.3754904 0.32711083
0.36094224 0.31953722 -0.072051816 -0.42877868 -0.57605624 0.94917655 1.3191942 -1.6387322
-0.2562693 0.68114895 0.4217305 -0.6171106 -0.38462368 0.2899606 -0.006089114 -0.3654588
-0.07136494 0.26197037 -0.25518456 0.011364393 -0.16906717 0.5639789 0.78202367 0.8055516
0.588985 -1.0951129 -1.1112792 1.3394172 -0.025356188 -0.40202844 0.029985417 0.225085
0.025299521 -0.15218574 0.054255016 -0.024245504 -0.07742951 0.02468779 0.0040764264 -0.2317185
-0.1377138 0.13608523 0.59079486 0.15259534

model.gnn_layers.0.filter.filter.linear.1.weight f4 [16, 3]
00000000: 6036 b73f de50 96bf 6cbf a93f d6a7 cebf
00000010: ae13 0640 7e1a febf 7443 f63f 621b 17bf
00000020: 1c01 b13f bb3e db3f 56b8 a7bf 5369 983f
00000030: 22ac cdbf 7b82 733f 1e1d a1bf 1425 83bf
00000040: ae60 5abc 6735 99be 46fd a0bf 847c bc3f
00000050: abff e4bf fefa 9dbf 78f7 543f 5405 c1bf
00000060: 8fb4 08bf ea27 4d3f 63ba f4be 2975 c03f
00000070: 0ce0 e3bf 3cc3 1c40 cc62 843f cf68 99bf
00000080: 1f11 673f 203d 6fbf ad95 8b3f 3aa6 0dbf
00000090: e2e8 c63f 8896 e5bf ec7a de3f 2205 99bf
000000a0: 687d 993f 9cda efbf 9a22 f1bf fbfe 563f
000000b0: 1643 b9bf 3b64 303f f65a 99bf 739c b33f
1.4313469 -1.1743429 1.3261542 -1.614497 2.0949512 -1.9851835 1.9239335 -0.5902616
1.3828464 1.7128519 -1.310313 1.1907142 -1.6068156 0.9512097 -1.2587011 -1.024569
-0.013328714 -0.29923555 -1.2577293 1.4725499 -1.7890524 -1.2342222 0.8319011 -1.5079751
-0.5340051 0.8013903 -0.47798452 1.5035754 -1.7802749 2.4494162 1.034265 -1.198511
0.902605 -0.93452644 1.0905052 -0.55331767 1.553982 -1.7936563 1.7381263 -1.1954691
1.1991396 -1.8738589 -1.8838685 0.8398282 -1.4473598 0.6890294 -1.1980884 1.403212

model.gnn_layers.0.filter.filter.linear.1.bias f4 [16]
00000000: 0ebd 653e 164f 1e3d 7fc0 e23d f964 c13c
00000010: ed34 c5bc 2d37 9cbe 022b 853c 6c84 133d
00000020: f28a f6bc ec1d 8ebc edc8 053e eb5d 5f3d
00000030: 488b 423c ee77 0dbd ac63 e6bd daea 1fbd
0.224354 0.03864964 0.11071872 0.023607718 -0.024073089 -0.30510846 0.01625586 0.03601496
-0.030095551 -0.017348252 0.13064928 0.054532927 0.011874028 -0.034538202 -0.1124948 -0.03904233

model.gnn_layers.0.feature_transform.layer_real.lin1.weight f4 [16, 16]
00000000: 0931 493d 5e03 9d3e 0ede 38be 3fd9 593e
00000010: ac5b 363e 7e4e 553d 6307 1e3e 64a8 e6be
00000020: e8c2 1c3d 34d3 243e d295 a13d 1755 0ebe
00000030: cc61 f5bc 9ffa f73e fb2d 46be dbcb 84bd
00000040: 7342 c9bf 3b55 c03e cd85 183e 2887 b7be
00000050: 2abe 033f a159 14bf 476d 963e fbf8 813f
00000060: 39f0 a73d d3fc 963e 3a49 22bf 797f 7cbe
00000070: c4de 10bf 6407 57bb cd47 aabd 65e8 9c3e
00000080: 92f3 31bf 18b0 9bbf 1c81 b93f e0ed 6ebf
00000090: 9c6d b43f e752 9dbe 1fd5 8bbf 77fd 29bf
000000a0: b37e 783e ebe9 863f f83b 4c3f dd93 983e
000000b0: 7085 d1bf 2ce3 dabe 5578 0e3f 2b21 ebbc
000000c0: 5768 2cbf 2355 78bf f44e 8c3f 126c a6bf
000000d0: 58ec 25bf 0026 893f a8bd 91bf 3a1e 75bf
000000e0: f3f2 68bf 0771 e93e f8bc 8a3f b1e2 363f
000000f0: 0770 8e3f c3de 4bbf e12c 7c3f 8853 543f
00000100: 681c 7abf fc4b 8a3e 1c16 013f 5abb 33bf
00000110: 6c76 643f ffbc 95bf bc6a 67bf d8cd 4c3f
00000120: a3f9 693f 53c1 3b3f eacf abbe 245c 11bf
00000130: 4158 8e3f 9b0c 47bf ff4a b53d bd0d 66bd
00000140: 8bd6 f0bd bbe2 f93d c5b1 abbd c66b 94be
00000150: f1ee c2bd 4a5e 43be b95a 723e 5083 00be
00000160: c093 7c3e 1569 a53e 66bb 04bf 28df d23c
00000170: 2cb6 40bf 40cf fabe edd4 d93d 2553 553e
00000180: 87bd a5bf c09d 163f 9e44 0d3f 90df 36be
00000190: 2704 8d3f 3a07 4fbf b315 09bf b351 2f3f
000001a0: 3ccd 233e b655 583f 0d8b 55bf b414 23bd
000001b0: 17a3 1abf c6dd f2bd 9a90 b5be bbe7 d83e
000001c0: 3fcb 8e3f efa4 a6bf f4a2 a43f 3346 9fbf
000001d0: b579 913e 3786 113f 77e2 66be 6afd b3bf
000001e0: d731 1abf 326d 9e3f 283f f93e 8544 613f
000001f0: 4ca5 bcbf e71c 81bf 4194 ec3e 93c7 95bd
00000200: bafa 0cbf 29b5 ecbe 20b4 2c3f 5963 46bf
00000210: 9bff c53e 128d dcbe e170 e2be c1b6 b7be
00000220: 4bcf b03d dd06 093f 0019 0bbf f5b4 a23e
00000230: ac27 9d3e 195e 80bf a6e1 4abd 2c32 34bc
00000240: ed21 78bd b028 d1be 0826 b33f 70f2 51bf
00000250: 51de 1b3e 0cce bcbe 7e7e 16bf e7cb b03e
00000260: 87d1 713f 7045 073f 57ad da3f 1dcf 1bbf
00000270: cbe9 81bf c72d 063e d41d b73e bee0 0bbf
00000280: a11b 5dbe de47 bc3e feb8 2bbe da18 3dbe
00000290: ec63 99be d897 953d 0ac0 1dbd 7747 5a3d
000002a0: 05dc 853c 5115 babd 1676 f43c 5eef c7bd
000002b0: 5762 4ebe 307c 9bbe 5f38 16be 1edb 81be
000002c0: af81 123e 5849 4abf 3ccb 733f 032c 6fbf
000002d0: e889 0c3f d9b6 5bbe adcd 95be a8ff 4dbf
000002e0: c7bd 1abf 2e0f d13e df87 3d3e 41ff 3b3f
000002f0: 1897 8fbe 4cef 8ebf 6b0e 0a3f c072 1c3e
00000300: 9c8d c9be bd34 cdbf 7758 c73f fa2b cebf
00000310: 50c2 883f 0f90 e03f 53a8 56bf ad8f f0bf
00000320: 0e90 cdbf 4b03 d33f a915 7fbf 18a9 de3f
00000330: 5979 80bf 8152 b4bf c877 be3f 2326 c03f
00000340: 0367 a5bf ab43 bfbf e7f5 143d 6f20 8abf
00000350: d6e8 243f 6ab3 a3be 6827 91bf ec34 9bbf
00000360: b6ea a0bf 3caf 973f 6e02 abbf b9f2 8a3f
00000370: b04d a43f 63b0 aebf 08ce 763f d907 a13f
00000380: 92a8 97bf 339f eb3e 6280 a73e 46ca 3abf
00000390: 65cc 983e f767 063e a5bc 9c3e f3cc 7d3f
000003a0: afad 8d3e df82 a13c 4dbe 2fbf a940 6bbe
000003b0: 3644 1ebf 8ca4 523e 30c9 60bd c8c7 9f3e
000003c0: a8ca 9abf eb7b 283e 1ad6 063f 9a0f ddbf
000003d0: f8e4 b93e a41c 9a3f bdbf 823f 6abc 633f
000003e0: faf1 853b ef5a ba3e 3d07 86bf 8bac 033f
000003f0: 8c95 d0bf eb32 dbbe 4e63 1c3f 0717 e23e
0.04911903 0.3066663 -0.18053457 0.21274279 0.17808408 0.05207681 0.15432505 -0.45050347
0.038271815 0.16096193 0.07889904 -0.13899647 -0.02995386 0.48433396 -0.19353478 -0.06484195
-1.5723404 0.37565026 0.14894791 -0.35845304 0.5146204 -0.5794926 0.29380247 1.0154108
0.08200116 0.29489765 -0.63392985 -0.24658002 -0.56589913 -0.0032810802 -0.08314476 0.30646053
-0.69512284 -1.2163115 1.4492526 -0.9333172 1.409595 -0.30727312 -1.0924414 -0.6640238
0.24267082 1.0540136 0.79779005 0.2980031 -1.6368847 -0.42751443 0.5565236 -0.02870234
-0.6734671 -0.9700491 1.0961595 -1.300173 -0.64813757 1.0714722 -1.1386003 -0.9574925
-0.9099571 0.45594046 1.0838919 0.71439654 1.1127938 -0.7963678 0.9850598 0.8293996
-0.97699594 0.27011096 0.5042436 -0.7020775 0.892432 -1.1698302 -0.9039724 0.8000159
0.9139654 0.73341864 -0.33557063 -0.5678122 1.1120683 -0.7775361 0.08852195 -0.056165446
-0.11759671 0.122014485 -0.08383516 -0.28988475 -0.09518231 -0.19078937 0.2366742 -0.12550092
0.24665737 0.32306734 -0.5184845 0.025741175 -0.7527797 -0.48986244 0.106363155 0.20832498
-1.2948464 0.5883446 0.55182827 -0.1785872 1.1016892 -0.808704 -0.53548735 0.6848404
0.1599626 0.84505785 -0.834153 -0.039814666 -0.60405105 -0.11858706 -0.35461885 0.42364296
1.1155776 -1.3019084 1.2862229 -1.2443298 0.28413168 0.5684542 -0.22547327 -1.4061711
-0.602323 1.2377074 0.48680997 0.8799518 -1.4737945 -1.0086945 0.4620686 -0.073134564
-0.5507008 -0.46231964 0.6746235 -0.7749534 0.38671574 -0.43076378 -0.44226745 -0.35881618
0.08633288 0.535261 -0.5433502 0.31778684 0.3069433 -1.0028716 -0.0495316 -0.01099829
-0.06057923 -0.40851355 1.3995981 -0.82010555 0.15221526 -0.3687595 -0.5878676 0.34530565
0.9446034 0.5284033 1.7084149 -0.60862905 -1.0149473 0.131034 0.35764945 -0.54639804
-0.21592571 0.3677358 -0.16769788 -0.18466511 -0.29959047 0.073043525 -0.03851322 0.05329081
0.016340265 -0.09086097 0.029841464 -0.097624525 -0.20154701 -0.30368185 -0.14669941 -0.25362486
0.14307283 -0.79018164 0.95231986 -0.9342653 0.5489793 -0.2145647 -0.2925848 -0.80468225
-0.6044583 0.40831894 0.18508862 0.7343636 -0.28044963 -1.1166778 0.5392825 0.15278149
-0.39365852 -1.603172 1.5573872 -1.610717 1.06843 1.7543963 -0.8385059 -1.8793846
-1.6059587 1.648538 -0.99642426 1.7395353 -1.0037032 -1.4087678 1.4880304 1.5011638
-1.2922062 -1.4942526 0.036367323 -1.0791148 0.6441778 -0.3197282 -1.1340151 -1.2125525
-1.2571628 1.1850352 -1.3360116 1.0855323 1.2836208 -1.3647579 0.9640813 1.258052
-1.1848319 0.46019897 0.32715136 -0.72964895 0.2984344 0.13125597 0.30612674 0.9914085
0.27671573 0.019715725 -0.6864975 -0.22973885 -0.6182283 0.20570582 -0.054879367 0.31207108
-1.2093096 0.16453521 0.52670443 -1.7270386 0.36307502 1.203999 1.0214764 0.8895937
0.0040876837 0.36397502 -1.0470959 0.51435155 -1.6295638 -0.42812285 0.61089027 0.44158193

model.gnn_layers.0.feature_transform.layer_real.lin1.bias f4 [16]
00000000: a3f5 83bd 69b8 973e bb56 693f 6785 633f
00000010: 84e9 843f 01f4 d03e 94e0 3f3f 87be 863f
00000020: 04b4 0e3f d273 783e e148 7dbd 3e5b 6d3f
00000030: 335c 933f cefc 973f bb52 c63e 1163 013f
-0.06443336 0.2963288 0.91147965 0.8887543 1.0383763 0.4081116 0.74952054 1.0526894
0.5574343 0.24262932 -0.06183708 0.9271735 1.1512512 1.1874025 0.38734993 0.5054179

model.post_mp.mlp.1.weight f4 [5, 16]
00000000: ddfa 243f bcb7 6f3f 1d56 93bf 5a5f 903f
00000010: 2d61 b4bf 6163 ae3e 29b9 893f cb6f c1be
00000020: b5f7 023f 0dd0 ccbf 9d99 5e3f 77c4 f2ba
00000030: 3f07 563f f299 833f b056 0d3e e55a 1ebf
00000040: ae24 403f e9b9 5d3f 46da 833f c9ab a73e
00000050: 29ca b0bf 0560 a13e 96dd 8f3f 1e29 20bf
00000060: 4c40 3abf 1d74 e03f 4536 2fbf 5bcd 633f
00000070: 0795 e03e 6392 b4bf 8eda 7cbf 6f09 a5be
00000080: 86b2 9d3f 6070 b83f bc36 a1be 4d1f ed3d
00000090: 7dbc 363f d982 cabe c8b2 90bf 4372 56bf
000000a0: 93de a63c 6230 b6bf f51a 5e3f dfe1 223e
000000b0: 0bbd 53bf e18a 9dbe 3f9d c4bf 7282 ad3f
000000c0: 34ce 33bf b35c 7bbf 7264 8cbe 9198 a9bf
000000d0: b773 963f efb1 c43e 9c3c 50bf f7d2 dd3e
000000e0: a167 5f3e 5715 70be 6c19 27bf 7e52 8dbe
000000f0: a4d0 b13f 1e34 943f 8bbe 403f 7d10 ec3d
00000100: 837f 8ebf c016 a1bf 2597 a43f 1598 5e3f
00000110: 242d 843f f506 23be 1349 e5be fdaf b43f
00000120: 90b7 1f3e 938e 5c3f 02be 24bf 4593 38bf
00000130: b949 c3bf 1ccd 83be 93af 9f3f 645c f3be
0.64445287 0.9363973 -1.1510655 1.1279099 -1.4092156 0.34060195 1.0759631 -0.37780604
0.5115922 -1.6000992 0.86953145 -0.0018521686 0.83604807 1.0281355 0.138026 -0.61857444
0.7505597 0.866118 1.0300987 0.3274825 -1.3811694 0.3151857 1.1239498 -0.6256274
-0.7275436 1.7535435 -0.68442184 0.8898522 0.438637 -1.4107174 -0.9877099 -0.3223376
1.2320106 1.4409294 -0.31487072 0.11578236 0.7138136 -0.39552954 -1.130456 -0.837681
0.020369804 -1.4233515 0.86759883 0.15906475 -0.8271033 -0.3077002 -1.5360488 1.3555434
-0.70236516 -0.9818832 -0.27420384 -1.3249685 1.1754063 0.38417003 -0.8134248 0.43325016
0.21816875 -0.2344564 -0.65273166 -0.27602 1.3891797 1.1578405 0.75290745 0.115265824
-1.1132663 -1.2585068 1.2858626 0.8695081 1.0326276 -0.15920623 -0.44782314 1.4116207
0.15597367 0.8615505 -0.6435243 -0.72099715 -1.5256873 -0.25742424 1.2475456 -0.47531426

model.post_mp.mlp.1.bias f4 [5]
00000000: d99e edbd 5142 cf3d bd5c 3e3e 155f a0bd
00000010: a3ea 753d
-0.116025634 0.10120071 0.18590064 -0.078306355 0.06003822

exp_avg f4 [16, 5]
00000000: 6a51 ddba 5d3e d6ba adf6 9cba 8375 01bb
00000010: 3f8b 0dbb 9d49 2e39 321f 4c39 cb15 163a
00000020: ccda d139 033f 323a cade 653b 2dab 113b
00000030: 4004 633b 333c 433b 2c9b bb3a 4992 55bb
00000040: cb54 33bb bdac 18bb c9de dbba 0728 5cbb
00000050: f354 383a cd75 0d3a 5c9c a33a 2d88 d13a
00000060: 9fef 823a c10c 49b9 0371 0eb9 9909 66ba
00000070: 28f6 3dba d111 02ba 0dcf 24ba 1a7d 0eba
00000080: d596 0bbb a31f 91ba 5696 58ba e318 c139
00000090: 383f 1939 1e9b c7b9 6a23 8a3a dcba 293b
000000a0: 52c6 6b3a 04af f339 4682 853a 19f5 923a
000000b0: 5ad9 723a 0de5 9b3a 4521 ba39 8d7e 9e3a
000000c0: 741b a13a 2c34 c339 442f 8f39 c4c4 57b9
000000d0: 799f 323a 9d70 c1b8 8b0a d4b9 4df2 96b9
000000e0: ff9c 9038 f9e6 dfb9 32dd 17ba ecc1 59ba
000000f0: 9cd9 09b6 5714 a2b8 cd61 213b 2dec 47ba
00000100: de03 3c3b 06c0 263a 0f27 4fba 80bd 0eb9
00000110: 7ed0 1f3a 564f f738 3a3d e239 1473 7539
00000120: 3e40 94b9 b01f 1839 ba0c 9f38 7b1a 663a
00000130: fd92 8c3a 9a53 e1b9 7677 2d3a 0fc0 a23a
-0.0016885225 -0.001634549 -0.001197537 -0.001975388 -0.002159789 0.00016621356 0.00019466577 0.00057252933
0.00040026603 0.00067995506 0.003507542 0.0022227273 0.0034639984 0.002979052 0.0014313213 -0.0032588413
-0.0027363773 -0.002329632 -0.0016774769 -0.0033593194 0.00070317014 0.0005396277 0.0012482512 0.0015986018
0.0009989626 -0.00019173605 -0.00013584275 -0.0008775234 -0.0007246458 -0.00049617613 -0.00062869565 -0.00054355117
-0.002129962 -0.001107205 -0.0008262148 0.0003683037 0.00014614768 -0.0003807181 0.0010539119 0.002589873
0.00089940906 0.0004647897 0.0010185919 0.0011211961 0.0009263955 0.0011893824 0.00035501472 0.0012092158
0.0012291507 0.0003723217 0.000273103 -0.00020577299 0.00068139244 -9.223933e-05 -0.00040443646 -0.00028790758
6.895698e-05 -0.00042705963 -0.00057931535 -0.00083067897 -2.0541256e-06 -7.7285506e-05 0.0024624944 -0.00076264405
0.0028688828 0.0006361011 -0.00079022435 -0.0001361277 0.00060964364 0.00011792655 0.00043151696 0.0002340789
-0.00028276624 0.00014507654 7.584081e-05 0.00087777496 0.0010724958 -0.00042977632 0.00066172273 0.0012416857

exp_avg_sq f4 [16, 5]
00000000: 4b9a 1339 bc75 0e39 826f 0e39 5ae7 1139
00000010: 40cf 1739 d448 f237 402d fa37 a660 f437
00000020: 0799 ff37 d72b 0038 79a4 a139 2633 9539
00000030: c8f1 9e39 b8ea a439 8143 a039 cd1c ba39
00000040: 8e32 b139 bb3f b239 5a8e de39 0050 b839
00000050: 75b8 3439 6122 3239 01ae 3239 174c 3439
00000060: 88d2 2d39 e630 6538 223b 5d38 bdbb 5838
00000070: 220d 6038 ef6a 5938 bd1f df38 afa8 dc38
00000080: 809e 0c39 1b9d db38 3951 dc38 3416 9639
00000090: 2e9e 9639 6b0d 9639 cc53 9439 5f9e 9939
000000a0: 90cc 4a38 a8a2 4f38 917a 4838 1976 5038
000000b0: 5e38 4c38 99f9 af37 a852 c137 868f b837
000000c0: 09d3 b237 b75b ae37 522b 4a38 366b 4a38
000000d0: 4542 4138 33b6 4a38 8dfa 4938 883a 0939
000000e0: 9dd9 1239 191a 0839 663e 0839 9cfd 0839
000000f0: 91d4 9239 b820 9239 8d1a 8f39 3ad1 9d39
00000100: 9629 a239 e26e d939 15f4 d439 1576 ca39
00000110: 65c8 db39 88a0 ce39 c0e3 c036 19ca b136
00000120: 68e1 d136 dd04 cc36 546d b536 a623 9f37
00000130: 8b19 9f37 1195 9b37 28c8 a037 ce91 a737
0.00014076491 0.00013586035 0.00013583715 0.00013914463 0.00014477689 2.8882561e-05 2.9823394e-05 2.9132072e-05
3.0469628e-05 3.0558407e-05 0.00030830855 0.00028457603 0.0003031625 0.00031455397 0.00030567872 0.00035498143
0.00033797737 0.0003399829 0.000424492 0.0003515482 0.00017234853 0.0001698821 0.00017040224 0.00017194483
0.00016576995 5.4643395e-05 5.2745578e-05 5.1673258e-05 5.3417993e-05 5.183642e-05 0.0001063938 0.00010521837
0.00013410486 0.00010471997 0.000105055464 0.00028626772 0.00028728083 0.00028620227 0.00028291193 0.0002930043
4.8351067e-05 4.950413e-05 4.7797865e-05 4.970105e-05 4.8689886e-05 2.0977854e-05 2.3045883e-05 2.2001343e-05
2.1317524e-05 2.0785124e-05 4.8200898e-05 4.82604e-05 4.6076504e-05 4.833024e-05 4.8155478e-05 0.00013087143
0.00014004712 0.00012979693 0.00012993216 0.00013064448 0.00028005664 0.00027871667 0.00027294867 0.0003010126
0.00030930032 0.0004147208 0.00040617646 0.0003861642 0.0004192024 0.00039410987 5.7485595e-06 5.2985383e-06
6.254926e-06 6.08024e-06 5.406948e-06 1.8970877e-05 1.8966171e-05 1.8546854e-05 1.9166691e-05 1.9975847e-05

exp_avg f4 [16]
00000000: d524 27b9 7dc0 e03a 8b6c 3b3a 14d6 b2ba
00000010: 37a5 4aba 0a2d 90b9 5785 dc39 a153 183a
00000020: d4ee 2e3a dfed 9eba 96cf b739 662b 08ba
00000030: 3c56 173a 250b 873a 5baa 7eba 351e 33b9
-0.00015940082 0.001714721 0.0007149658 -0.0013644123 -0.00077303074 -0.00027499377 0.00042061016 0.00058108015
0.00066731614 -0.0012125334 0.00035059144 -0.0005194455 0.0005773043 0.0010303004 -0.0009714716 -0.00017082023

exp_avg_sq f4 [16]
00000000: 6c48 6938 a655 8737 ebec 3738 b67f e038
00000010: 4c7b e137 dc3a 0737 996e 3137 9d54 9238
00000020: 9be4 fc36 8e8c 4837 1f74 9237 dcf4 cf37
00000030: 9ffa e038 7cc3 a838 596c a937 8c60 7037
5.5618977e-05 1.6133137e-05 4.3851247e-05 0.0001070494 2.6879505e-05 8.060331e-06 1.0575773e-05 6.977583e-05
7.5367984e-06 1.1953654e-05 1.745863e-05 2.4790344e-05 0.00010727834 8.047276e-05 2.0196823e-05 1.4327594e-05

exp_avg f4 [3, 20]
00000000: 2159 f83a 658b c03b 8cbe 5f39 86e4 80ba
00000010: d862 2d3a 1090 25ba 30d5 56b8 247a 9a39
00000020: db04 abb9 3853 c137 0488 f9b7 4567 96b8
00000030: 06a6 4e39 728a 2fb8 4c37 38b7 6105 1639
00000040: b9c8 4cb9 30e4 f5b9 ce5c afb9 542c eeb8
00000050: 07f0 5ebc 055b 31bc a9f7 02ba 33e0 a23a
00000060: 8d96 b1b9 cb57 313a bad6 f338 51b2 55b9
00000070: 022c aa39 d0f4 0938 bd45 1238 87ad aeb4
00000080: 28bf 5db9 5787 1538 69f5 4837 15f3 2ab9
00000090: 0d1f 2038 8ec7 8d39 1121 6a39 e327 8138
000000a0: 88e5 463c a619 383c 320b fe39 b66f b8ba
000000b0: 0ae3 083a 228a 51ba 7b82 d8b8 f36a 9d39
000000c0: 05fb c0b9 2222 49b6 bdd9 15b8 019e 97b7
000000d0: 68cd 8839 f720 25b8 e276 09b8 0e33 dc38
000000e0: 98cb 1ab9 26a5 9db9 9435 61b9 1d20 52b8
0.0018947461 0.005875992 0.00021337921 -0.000983373 0.0006614155 -0.00063157175 -5.1220122e-05 0.0002946417
-0.0003261928 2.3046145e-05 -2.974645e-05 -7.171793e-05 0.0001970754 -4.185219e-05 -1.0980129e-05 0.00014307119
-0.00019529731 -0.00046900054 -0.00033447746 -0.00011356981 -0.013607032 -0.010824923 -0.00049960107 0.0012426436
-0.0003387224 0.00067650963 0.00011627139 -0.00020379691 0.00032457715 3.2891345e-05 3.487406e-05 -3.2536283e-07
-0.00021147414 3.5650413e-05 1.1978068e-05 -0.00016303018 3.817589e-05 0.00027042296 0.00022328297 6.158629e-05
0.012139685 0.011236584 0.00048454996 -0.0014071378 0.000522182 -0.00079933007 -0.000103239865 0.00030025057
-0.00036808118 -2.9971202e-06 -3.5727153e-05 -1.8074179e-05 0.0002609298 -3.9369766e-05 -3.2774064e-05 0.00010499927
-0.00014762429 -0.0003006842 -0.00021477632 -5.009781e-05

exp_avg_sq f4 [3, 20]
00000000: 3a01 9c3b 8907 a53a 63d5 4b38 107c c737
00000010: 6219 4c37 4f03 3037 accd 7f37 f89d dd36
00000020: ece8 5637 b39d df36 14fd a237 eb33 8437
00000030: 2ca7 3c37 e0ac 5e37 0e4d 0837 0059 6f36
00000040: 3f67 fc35 3e5a 7735 b59e 0635 49e3 8933
00000050: c2b7 153b 67c8 1d3a 1320 d237 96d4 9037
00000060: 15c9 1a37 2420 c336 c817 4a37 ede6 0d37
00000070: e484 1237 4a0f 7636 06d7 0d37 b326 0837
00000080: cd79 e036 8d40 db36 cd65 a036 bcb6 4236
00000090: d6cb e535 4013 8f35 034f 0635 89e8 6133
000000a0: c4ed 5f3b c149 613a cd0b 9b37 0908 8e37
000000b0: f9a5 f136 4d9f da36 5330 0b37 d178 1837
000000c0: b895 2337 8c09 8736 cc8d 1e37 2873 0f37
000000d0: 8def 0037 5edb 0137 cd29 cf36 efab 9336
000000e0: b9fb 2b36 b1b7 de35 b2fc 3535 bf82 bc33
0.0047608884 0.0012590747 4.8597703e-05 2.378042e-05 1.2165257e-05 1.0491188e-05 1.5247071e-05 6.6047032e-06
1.2809625e-05 6.6642765e-06 1.9429754e-05 1.5759802e-05 1.1244596e-05 1.3272482e-05 8.124172e-06 3.566558e-06
1.8805512e-06 9.214599e-07 5.014984e-07 6.4209026e-08 0.0022845124 0.0006018937 2.5048887e-05 1.726513e-05
9.225933e-06 5.8151945e-06 1.2045675e-05 8.4580215e-06 8.733219e-06 3.6665756e-06 8.454319e-06 8.115242e-06
6.6898997e-06 6.5342233e-06 4.7802228e-06 2.9014618e-06 1.7121154e-06 1.0659933e-06 5.003387e-07 5.2598384e-08
0.003416882 0.0008594059 1.8482935e-05 1.693146e-05 7.2016815e-06 6.5154513e-06 8.296297e-06 9.088036e-06
9.750416e-06 4.024425e-06 9.4505485e-06 8.550276e-06 7.685169e-06 7.740075e-06 6.173947e-06 4.400957e-06
2.5627508e-06 1.659375e-06 6.7795474e-07 8.778215e-08

exp_avg f4 [16, 3]
00000000: 673a ecb7 7e58 e6b5 a6c5 64b7 699f 003a
00000010: 6104 2438 4343 8039 b627 0c38 0655 193a
00000020: af66 b6b9 1c6f 4bb9 1f4b 24b8 16f2 5fb9
00000030: 59c4 5c3a 3840 0cb9 f525 ae39 9769 5637
00000040: 30a7 4fb8 b50b ea37 909b 563a 947e 2139
00000050: 0299 2339 5434 a139 65ce 8fba 10ed 5d3a
00000060: 0646 3739 00cd 9cb8 e9d2 0e39 4265 aab9
00000070: 5233 c039 3be3 abb9 44cd 9db7 1dfc e336
00000080: 2cce 64b7 55dc 8db8 c746 09ba fd68 a639
00000090: 801b 85ba 7b3c 2d3a 4813 6fba 72ce 643a
000000a0: c9e9 5eb9 cb4a cb39 a695 2d3a a3a3 b8b8
000000b0: 759f ca39 e0ec eeb9 a7e8 0739 494a bdb8
-2.8160588e-05 -1.716209e-06 -1.3635878e-05 0.00049065665 3.9104725e-05 0.00024464176 3.3415585e-05 0.00058491563
-0.0003479025 -0.0001940098 -3.917061e-05 -0.00021357121 0.0008421592 -0.00013375364 0.00033216146 1.27799785e-05
-4.950835e-05 2.7900425e-05 0.0008186633 0.0001540131 0.00015601891 0.000307473 -0.0010971545 0.0008465806
0.00017478326 -7.476844e-05 0.00013620745 -0.0003250037 0.0003665933 -0.00032784962 -1.8811443e-05 6.794477e-06
-1.3637862e-05 -6.764444e-05 -0.0005236682 0.0003174021 -0.001015529 0.00066084386 -0.00091199996 0.00087282725
-0.00021258662 0.00038774902 0.00066217256 -8.8042834e-05 0.00038647247 -0.00045571383 0.00012961273 -9.026059e-05

exp_avg_sq f4 [16, 3]
00000000: ea0c 9d34 c13e 7534 4827 5e33 660e ce34
00000010: 22ca 8734 4164 bf33 90a8 0b37 d40c b236
00000020: 9409 2136 1c6b cc37 4af9 9837 d9ee a436
00000030: 6406 e237 e5c8 8437 e7cd 8936 3fa9 c235
00000040: 405a fe34 6a31 5e34 c4a5 4f37 a8df cc36
00000050: 8905 db35 d904 8037 45d4 4437 271d 5a36
00000060: fb54 f136 87eb ed35 ea0b 0f35 7b01 8d35
00000070: 3349 5535 d025 bd34 f5a9 2634 59a7 f433
00000080: a4be c332 ce02 a437 6279 3437 ef70 0136
00000090: b6b0 5e37 4346 c536 dff3 9936 8538 a637
000000a0: 68be 4e37 7b94 6436 b61b fd36 746a a936
000000b0: 75f1 c835 22bd 8037 6053 1437 d198 6136
2.9252925e-07 2.2840233e-07 5.172413e-08 3.8380966e-07 2.529278e-07 8.912367e-08 8.324292e-06 5.306307e-06
2.3996445e-06 2.4368572e-05 1.8235896e-05 4.9153864e-06 2.6944275e-05 1.5829175e-05 4.1068884e-06 1.4503383e-06
4.7376852e-07 2.0693338e-07 1.2376757e-05 6.105711e-06 1.6318382e-06 1.5261046e-05 1.1731933e-05 3.25015e-06
7.1922527e-06 1.7726423e-06 5.328899e-07 1.050575e-06 7.94552e-07 3.5231506e-07 1.5521785e-07 1.1392576e-07
2.2787681e-08 1.955163e-05 1.0757098e-05 1.9288234e-06 1.3273375e-05 5.879237e-06 4.5881457e-06 1.9815061e-05
1.2322889e-05 3.4061075e-06 7.5432135e-06 5.0489853e-06 1.4971434e-06 1.534686e-05 8.8409e-06 3.3616564e-06

exp_avg f4 [16]
00000000: 3839 5e39 71df 74bb 607d 01bc 2d84 5439
00000010: d050 c2bb 1cf2 8739 4563 f2bb bc51 063c
00000020: d96e 27ba 52ad e5ba f064 3138 49bd a73b
00000030: afc9 67bb 552b 3dbb 2163 68bb a4eb b63b
0.00021192885 -0.0037364627 -0.007903427 0.00020267135 -0.0059300438 0.00025929592 -0.0073970878 0.008198198
-0.0006387062 -0.0017522967 4.2294094e-05 0.005119 -0.0035368016 -0.002886494 -0.0035459476 0.00558229

exp_avg_sq f4 [16]
00000000: 67a1 8535 e1b1 0738 61f3 603a de70 213a
00000010: a92b dc39 8ea1 9c36 1e53 3c39 69aa 9939
00000020: ad21 bc38 14ff bf38 9816 7034 7eaa 5a39
00000030: a53c 6b38 16e3 263a bc45 0c39 54c0 1b3a
9.956246e-07 3.235217e-05 0.0008581188 0.0006158481 0.000419942 4.6679697e-06 0.0001796004 0.000293094
8.970811e-05 9.155102e-05 2.2359961e-07 0.00020853613 5.6084846e-05 0.0006366236 0.00013377419 0.000594144

exp_avg f4 [16, 16]
00000000: 281f b0b6 4dbb d4b7 fe32 0337 faad 05b7
00000010: e58a 9a37 a995 2f37 f982 94b7 e49b 01b7
00000020: c183 9ab7 79e6 aa37 33bd 1bb6 fcde 3937
00000030: a42b 1d36 773f b5b6 984d 3d38 ebd6 a437
00000040: e9a1 b539 bc9a 6fb8 2bc6 e1b8 a52d 4539
00000050: efb0 3ab9 4d6c 9537 f484 a5b8 4c6b b4b8
00000060: 264e 4fb8 2ae5 41b9 c309 9e39 eea4 8eb8
00000070: 4b0f 0739 3d8d 1639 125e 2539 021f 89b9
00000080: 73b9 d0b7 b162 0839 80b8 91b9 f49d bb38
00000090: 9a4a e3b8 6c22 9637 fbbd ad38 5fa1 0939
000000a0: ae00 5ab6 09df 43b9 80d2 b6b8 15c3 c0b8
000000b0: e336 1b39 2072 8938 4129 3db8 237e 8f38
000000c0: ffb2 76b5 2548 1136 e8d9 9c37 67e7 1739
000000d0: 91c8 3039 c1ec 12b8 df36 2837 9220 2a37
000000e0: 0b45 0435 61df df38 5592 48b8 d2e4 da35
000000f0: ba14 1db9 2a73 ac38 5e86 6b38 7e8f e3b7
00000100: 0aff 1c39 f411 83b9 bd6e 93b8 5ac1 a1b6
00000110: 8fe2 22b9 c6e4 bc39 050d 4139 3c14 12b9
00000120: 5a66 a7b9 0b8f 84b8 69ab 3638 2d25 3039
00000130: 24f1 f1b8 b722 9238 d91e 1f3a 4aab 8739
00000140: dd81 8538 e482 de38 1899 3eb8 6508 3f38
00000150: 677e e6b8 dee7 5db8 e3fa 6738 e610 b137
00000160: 3cf1 a838 c410 f2b8 bbc1 5438 9da8 72b8
00000170: 8cc1 ca37 9bdb de37 e3d4 51b9 d048 03b9
00000180: 4c4b 2539 19b6 d0b9 dc2a 31b8 9738 e9b7
00000190: 3f48 fab6 3024 a439 4619 00b9 c2e1 27b9
000001a0: 6339 c3b9 4279 6b38 a898 0739 2832 1b39
000001b0: e0bf a338 6fd4 3938 2c0a 5f3a f63a 8239
000001c0: 592f 66b8 608e 7939 d706 73b9 7e12 b538
000001d0: 7f19 c4b8 da02 bdb8 dcea 3c38 fcb8 5939
000001e0: a5e9 1539 afba 52b9 61d8 2ab8 1578 4db9
000001f0: 0f88 3639 10cb e538 36a3 6db9 029a 4db8
00000200: a373 d437 845a 5238 e529 eeb7 d4e6 a137
00000210: 4fe4 6bb8 6cad 5bb7 e033 1338 8799 9537
00000220: 46cb 0d38 6ef3 7bb8 c506 b437 2e4a 01b8
00000230: e6a4 3937 649f ba37 5e9b 9bb8 2bc2 39b8
00000240: 58c7 5bb9 8781 14ba e979 c2b9 26d3 b137
00000250: bc85 d539 d51d e039 1864 92b9 69c6 d7b7
00000260: b2fe 33ba b7d8 9e39 22a2 bdb9 d195 8639
00000270: cb44 7639 8322 43b8 ae25 b73a d50d 5d3a
00000280: 70f0 a336 6ae3 4a36 645a 88b5 0531 1b36
00000290: 6c00 9fb6 d89a 1bb6 bb96 b3b2 c1fe 2f34
000002a0: eeba 5a36 5bfe a2b6 902c b236 e55b 52b6
000002b0: 58b2 1836 36be 1536 30d7 bdb6 19a8 f5b6
000002c0: 958e fdb7 008d 8938 6936 8eb8 06cc a037
000002d0: 95c4 92b7 b51b 9cb7 e91d 6f37 ce51 8e38
000002e0: 01b1 1b38 02ac 55b8 ddc6 b9b7 7e91 6eb8
000002f0: cfbc 4a38 7c56 1338 c74b 3fb8 9657 c236
00000300: 2578 8d38 10f9 9239 5d0b 37b9 5c96 0b39
00000310: e80c 2fb9 4af0 22b9 3900 6d38 0d31 2139
00000320: bfae 6039 a558 83b9 eb29 9e38 e56f 60b9
00000330: ac4b 1139 d6b7 fc38 fdfa d0b9 7f30 7fb9
00000340: ea64 c538 9f52 1239 f203 64b8 406e ce38
00000350: 7433 0db9 cb7e 93b7 b5c6 1239 0e7c 5c38
00000360: d166 cc38 edb6 20b9 0696 a438 15b4 c2b8
00000370: 03a4 5ab8 ac9c 0439 94dd 20b9 c3be 10b9
00000380: 35da 1639 49d9 84ba 7e10 1d39 4d6a b5b6
00000390: f447 2c3a b93a a439 ff69 5cba d623 ceb9
000003a0: b7ac 44ba b0f2 2e3a 905d 1c39 a32f c039
000003b0: 4f3c 6d39 4622 d3b8 e2c0 ea3a 555c de39
000003c0: 50c1 0439 9b21 8ab9 3406 d938 f941 6438
000003d0: e302 6a39 8681 65b8 5238 c6b9 0633 18b9
000003e0: 9e3a 00b9 c2dd 5d39 7ee6 2239 18d0 6d38
000003f0: da27 f738 a3a8 27b8 7632 b539 7de3 ceb8
-5.248836e-06 -2.5359588e-05 7.820081e-06 -7.967925e-06 1.8422908e-05 1.0465658e-05 -1.7703964e-05 -7.725295e-06
-1.8419583e-05 2.0372901e-05 -2.3206928e-06 1.1078777e-05 2.3420225e-06 -5.4016086e-06 4.5133376e-05 1.9650402e-05
0.00034643643 -5.7126148e-05 -0.00010765748 0.00018804388 -0.00017804255 1.7812616e-05 -7.8925776e-05 -8.6030544e-05
-4.9425427e-05 -0.00018491285 0.0003014338 -6.801808e-05 0.000128803 0.0001435773 0.0001577067 -0.0002615378
-2.4881889e-05 0.00013006736 -0.00027794018 8.946276e-05 -0.00010838099 1.7897422e-05 8.2846695e-05 0.00013125454
-3.2484927e-06 -0.00018679736 -8.717645e-05 -9.19161e-05 0.00014802399 6.5539265e-05 -4.5099532e-05 6.842266e-05
-9.1902615e-07 2.1648677e-06 1.869812e-05 0.00014486686 0.00016859385 -3.5029607e-05 1.0026356e-05 1.0140373e-05
4.92743e-07 0.00010675076 -4.7819998e-05 1.6308861e-06 -0.00014980408 8.22305e-05 5.6153505e-05 -2.7127327e-05
0.00014972329 -0.00024999643 -7.030133e-05 -4.820683e-06 -0.00015533924 0.00036028604 0.00018410764 -0.00013931183
-0.0003192898 -6.320894e-05 4.355182e-05 0.00016798517 -0.000115366915 6.968289e-05 0.00060699653 0.00025876827
6.366123e-05 0.00010610165 -4.544211e-05 4.5545767e-05 -0.00010990799 -5.290645e-05 5.530835e-05 2.1107913e-05
8.055798e-05 -0.00011542582 5.0725164e-05 -5.785433e-05 2.4170404e-05 2.6566724e-05 -0.000200111 -0.00012520258
0.00015763676 -0.00039808525 -4.2240004e-05 -2.7802116e-05 -7.458991e-06 0.0003130748 -0.00012216446 -0.00016010462
-0.00037236055 5.6141296e-05 0.00012931472 0.00014800637 7.808185e-05 4.430528e-05 0.00085082906 0.00024839462
-5.488037e-05 0.0002379953 -0.00023176834 8.634197e-05 -9.350757e-05 -9.0127534e-05 4.5041423e-05 0.00020763645
0.00014296787 -0.00020096706 -4.0732677e-05 -0.00019595058 0.00017407558 0.00010957394 -0.00022662882 -4.901924e-05
2.5326217e-05 5.01522e-05 -2.839132e-05 1.9300183e-05 -5.6240995e-05 -1.3093795e-05 3.5095843e-05 1.7833676e-05
3.3806333e-05 -6.0069775e-05 2.1460824e-05 -3.0825082e-05 1.1065253e-05 2.224715e-05 -7.419915e-05 -4.428827e-05
-0.00020959729 -0.0005665053 -0.00037093394 2.1198368e-05 0.00040726166 0.00042746836 -0.00027921866 -2.572239e-05
-0.00068662607 0.00030297574 -0.00036169688 0.00025670094 0.00023486016 -4.6523764e-05 0.0013973021 0.0008432542
4.885769e-06 3.0232718e-06 -1.0159097e-06 2.3125333e-06 -4.7386184e-06 -2.318693e-06 -2.0906887e-08 1.6390824e-07
3.2593339e-06 -4.857587e-06 5.310001e-06 -3.1345928e-06 2.2753575e-06 2.2313448e-06 -5.65769e-06 -7.321138e-06
-3.0226345e-05 6.5589324e-05 -6.781222e-05 1.9168492e-05 -1.7496097e-05 -1.8609551e-05 1.4252474e-05 6.786325e-05
3.7119727e-05 -5.0943352e-05 -2.2146321e-05 -5.6879122e-05 4.8336395e-05 3.5128076e-05 -4.560852e-05 5.791847e-06
6.7457826e-05 0.00028032856 -0.00017456473 0.00013312086 -0.00016694108 -0.00015539039 5.650541e-05 0.0001537243
0.00021427403 -0.00025052312 7.541835e-05 -0.00021403989 0.00013856468 0.000120505385 -0.00039859852 -0.00024336761
9.412489e-05 0.00013954424 -5.436311e-05 9.843381e-05 -0.00013465976 -1.7582808e-05 0.00013997669 5.2567622e-05
9.746629e-05 -0.00015326934 7.8480734e-05 -9.284184e-05 -5.2127998e-05 0.00012646866 -0.00015341333 -0.00013803974
0.00014386403 -0.0010135557 0.0001497883 -5.4065954e-06 0.0006572001 0.0003132427 -0.00084081286 -0.00039318082
-0.0007502543 0.00066737365 0.00014912174 0.00036656586 0.00022624548 -0.00010067648 0.0017910267 0.00042411932
0.00012660515 -0.0002634645 0.00010348522 5.4420878e-05 0.00022317054 -5.4718483e-05 -0.00037807465 -0.00014514857
-0.00012228868 0.00021158814 0.00015535389 5.6699006e-05 0.00011785301 -3.9972958e-05 0.00034560607 -9.8652185e-05

exp_avg_sq f4 [16, 16]
00000000: 24bf a932 76bf a232 de7f df32 cfa0 f631
00000010: c359 7b33 810c aa32 d495 2633 bf7e 8532
00000020: cd48 1833 7bc6 1f33 354e 7932 2d6e 1233
00000030: c8f8 7f31 5664 6631 e3e4 6034 5f97 c033
00000040: 04a7 7235 16a6 b136 121a 8035 5300 3135
00000050: a2de a536 841f d135 0382 4336 cc88 4a35
00000060: 5126 8636 7a11 8c36 10ea e534 a8e4 a535
00000070: 34f7 b233 1bfa f534 37ce df37 a967 bb36
00000080: e14f 4334 1c6a 1635 7cf5 a435 aa86 fe34
00000090: 47e3 7e35 60a4 8335 988f 0535 6a8b d634
000000a0: 6f8a b035 946e 1035 3e03 6134 7677 d134
000000b0: 767d 9e34 2f23 0235 444e 0237 b8c0 9435
000000c0: 6b14 1e35 8974 1f36 82d6 1b36 129b ac36
000000d0: 4860 d134 3d34 6435 1b0e 7b36 59d8 5635
000000e0: 44a6 6135 cee9 3b35 db0d b434 c47c a735
000000f0: 9613 d735 8302 5036 d757 0737 71c3 e835
00000100: 4ea9 9436 7517 0737 d37c 7a36 173e d234
00000110: f692 b537 f3e4 6037 54df 9937 172d ec36
00000120: 5604 9037 e2c8 2c37 a4fb 6036 e694 1337
00000130: 1896 2236 4175 dc34 646d da38 e300 0438
00000140: 8916 3534 f0e0 a634 cf22 6334 920e 9d33
00000150: 7ba7 2335 6dde 3f34 a188 d734 c4b9 2934
00000160: a1af cc34 956c dd34 6104 0a34 6a28 9134
00000170: c11f b232 4352 6c33 f751 1a36 6edc 4b35
00000180: 88c6 9436 9d81 8636 ca84 3f36 3853 3335
00000190: be6b 4d37 19ab c736 d15b f236 94fb 8236
000001a0: fb2a 0a37 c5d9 d036 94a3 2836 3a62 a536
000001b0: 9189 3b35 2392 2d35 74ab 4d38 a4ed 8a37
000001c0: bccb a734 080b 4635 77c6 8b35 1475 4834
000001d0: 9c53 8f35 3b76 0235 fed0 4335 7474 2d35
000001e0: 744b 6a35 a006 5735 94e0 9a34 c654 6a35
000001f0: f7aa a234 785a 8734 8281 aa36 e61b e835
00000200: 7b87 0334 8e79 b434 ced4 1834 e5d8 3933
00000210: f3bc 1935 a530 5934 79e4 c634 9f81 0e34
00000220: 6c40 da34 4b81 cb34 0a2f b133 2377 5b34
00000230: d365 9332 21bf e032 0e87 3136 decf 3e35
00000240: 6715 4835 b5db bb36 d3d6 9235 1a00 3d35
00000250: 1cfb ad36 e3a7 2a36 8e3e 5436 bcd6 9235
00000260: e85d b836 6337 8736 a6fe 3535 b60c d935
00000270: 05c9 3334 8320 8b35 ab63 1538 361f db36
00000280: cec3 5432 ec3d 6232 5405 3932 ebad b931
00000290: e467 0933 3e88 bc31 b181 9232 ed43 c331
000002a0: e8dc 8632 bea9 b132 f738 3b32 6ca9 6832
000002b0: 9b30 4630 eacb a631 bb85 b233 87e4 0b33
000002c0: b646 b034 e44c 5035 1317 7035 260d 7b34
000002d0: e16e f035 0d1a 6f35 4aec ac35 f0be 3e35
000002e0: 54bc be35 0fbc 9b35 d0e9 d834 af2d a035
000002f0: 0e3c 5934 8ba7 f734 9cb9 1037 26bd 4f36
00000300: 7c34 d733 b9ef 0635 9784 2535 c0a0 c334
00000310: 2e73 cd34 56d2 f333 6099 ab34 2c2a b434
00000320: aa5e ba34 d43b 0235 6077 6f33 ce9e 1835
00000330: a472 af33 1d93 e534 0f72 b335 cf09 0535
00000340: 6dee 1135 c780 8b34 8f3a a834 dbaa 2f35
00000350: 2eb2 3d35 b395 a834 b1a2 a935 f4b3 4a34
00000360: c011 dc34 824e ea34 13fc 2435 7cd2 f734
00000370: bf20 5c35 ac1d be35 b820 b835 c495 2135
00000380: 0ecd aa37 c7ea 5038 6639 bb37 124d d036
00000390: ccba ae38 c2a0 f837 3b07 6238 dfeb b537
000003a0: fa9d 7f38 73d4 6938 9244 5c37 9298 0d38
000003b0: 1c54 3936 87a4 3336 9538 ca39 1f46 e838
000003c0: 81e7 1b35 2128 ad35 c2c5 0835 97fc 6134
000003d0: 9649 0c36 7522 8e35 10e1 f135 9eef 3435
000003e0: 7195 e735 e13f b535 521e e534 2edb 7035
000003f0: ee29 7e34 d010 6533 d328 3837 f012 5f36
1.976111e-08 1.8946348e-08 2.6018764e-08 7.177824e-09 5.852213e-08 1.979629e-08 3.8786155e-08 1.5540875e-08
3.545647e-08 3.720059e-08 1.451149e-08 3.409348e-08 3.72488e-09 3.352644e-09 2.0944894e-07 8.968231e-08
9.0395065e-07 5.294346e-06 9.544331e-07 6.593811e-07 4.943301e-06 1.5580886e-06 2.913294e-06 7.544993e-07
3.997972e-06 4.1743597e-06 4.2824877e-07 1.2360006e-06 8.333737e-08 4.5816782e-07 2.6679698e-05 5.585102e-06
1.818985e-07 5.6033764e-07 1.2290398e-06 4.7409168e-07 9.4953106e-07 9.8081e-07 4.975532e-07 3.9962043e-07
1.3153311e-06 5.380509e-07 2.0955937e-07 3.9016203e-07 2.9521078e-07 4.847997e-07 7.7668265e-06 1.1082948e-06
5.88893e-07 2.3760679e-06 2.322166e-06 5.144052e-06 3.8999337e-07 8.5012636e-07 3.7410125e-06 8.003604e-07
8.406098e-07 7.000316e-07 3.3537694e-07 1.2478781e-06 1.6024449e-06 3.0995877e-06 8.067079e-06 1.7342228e-06
4.4304534e-06 8.052089e-06 3.732556e-06 3.9160724e-07 2.1645315e-05 1.3404747e-05 1.8343017e-05 7.0385972e-06
1.7168157e-05 1.0298771e-05 3.3525075e-06 8.796551e-06 2.4227247e-06 4.1063507e-07 0.00010415426 3.147208e-05
1.6865137e-07 3.1083573e-07 2.1153686e-07 7.3135325e-08 6.096595e-07 1.7869179e-07 4.014628e-07 1.5806933e-07
3.8125748e-07 4.1243462e-07 1.2853845e-07 2.703776e-07 2.0736367e-08 5.502285e-08 2.2995498e-06 7.594416e-07
4.433856e-06 4.0086e-06 2.8538511e-06 6.6803796e-07 1.2244038e-05 5.9505805e-06 7.222851e-06 3.9035895e-06
8.235448e-06 6.2242348e-06 2.5129166e-06 4.9288183e-06 6.9863114e-07 6.466018e-07 4.9035487e-05 1.6561542e-05
3.125441e-07 7.37768e-07 1.0414068e-06 1.8669044e-07 1.0678664e-06 4.860082e-07 7.2947284e-07 6.4616984e-07
8.728159e-07 8.010338e-07 2.8848137e-07 8.7295155e-07 3.0299245e-07 2.5211534e-07 5.0814715e-06 1.7293466e-06
1.2249613e-07 3.3616055e-07 1.4233521e-07 4.3270934e-08 5.72719e-07 2.0227397e-07 3.704661e-07 1.3271936e-07
4.0652537e-07 3.790577e-07 8.250761e-08 2.0439306e-07 1.7159357e-08 2.6163947e-08 2.6453667e-06 7.1083e-07
7.453695e-07 5.5986116e-06 1.094037e-06 7.0408134e-07 5.1850348e-06 2.5429697e-06 3.1626873e-06 1.0940344e-06
5.4945594e-06 4.0297614e-06 6.7798317e-07 1.6171459e-06 1.6743805e-07 1.0365769e-06 3.561719e-05 6.530342e-06
1.2384545e-08 1.3169011e-08 1.0769629e-08 5.403981e-09 3.1992286e-08 5.487009e-09 1.7055614e-08 5.682969e-09
1.570011e-08 2.0682702e-08 1.0897785e-08 1.3542699e-08 7.2101053e-10 4.854418e-09 8.313096e-08 3.2571304e-08
3.2834004e-07 7.759793e-07 8.9440545e-07 2.338098e-07 1.7913663e-06 8.9072347e-07 1.2883768e-06 7.1058366e-07
1.4210914e-06 1.1603132e-06 4.0403256e-07 1.1934225e-06 2.0231548e-07 4.612924e-07 8.626284e-06 3.0955503e-06
1.00212645e-07 5.026773e-07 6.1660234e-07 3.6438541e-07 3.826803e-07 1.1353829e-07 3.1962827e-07 3.3558297e-07
3.4714077e-07 4.8515835e-07 5.5755095e-08 5.6855504e-07 8.1699255e-08 4.2761613e-07 1.3369735e-06 4.9560634e-07
5.4363665e-07 2.5984465e-07 3.1335045e-07 6.544121e-07 7.066727e-07 3.140136e-07 1.2638831e-06 1.8878183e-07
4.0991108e-07 4.3643018e-07 6.146158e-07 4.6160483e-07 8.200404e-07 1.4164739e-06 1.3718591e-06 6.019511e-07
2.0361065e-05 4.9809718e-05 2.2318865e-05 6.207855e-06 8.33176e-05 2.9638762e-05 5.3889333e-05 2.1686717e-05
6.0943865e-05 5.5749388e-05 1.3128987e-05 3.3759112e-05 2.7616106e-06 2.6768846e-06 0.000385706 0.00011075683
5.807888e-07 1.2901183e-06 5.0951724e-07 2.104665e-07 2.0904458e-06 1.0589853e-06 1.8021401e-06 6.7403914e-07
1.7254334e-06 1.3504142e-06 4.2676635e-07 8.9725916e-07 2.3670847e-07 5.333351e-08 1.097676e-05 3.3240613e-06

exp_avg f4 [16]
00000000: 9012 2337 a8fd 07b9 8999 94b8 91d9 7a37
00000010: 9094 6b37 a8bf 76b8 8b8d 2838 51e4 cab8
00000020: 3ea2 eeb7 a868 4339 d140 48b6 bea7 c1b7
00000030: c97b 12b9 0fb0 aeb8 97b6 8239 5de7 2d38
9.719879e-06 -0.00012969098 -7.085788e-05 1.4951817e-05 1.4041681e-05 -5.8829464e-05 4.0186143e-05 -9.674638e-05
-2.844736e-05 0.00018635637 -2.984005e-06 -2.3085504e-05 -0.00013969759 -8.32976e-05 0.00024931572 4.1461888e-05

exp_avg_sq f4 [16]
00000000: 95fe b232 3a10 9f35 b7a4 ad34 e129 2d36
00000010: ccd0 8a36 2261 6234 5b1c 7d36 7210 0b35
00000020: 2b07 1c34 4491 9435 cc24 8732 6a77 5335
00000030: 9927 1135 1bec 4335 48b9 b537 e411 0735
2.0837698e-08 1.1851146e-06 3.2343607e-07 2.5803386e-06 4.1370276e-06 2.1083227e-07 3.7716443e-06 5.1805466e-07
1.453124e-07 1.1069137e-06 1.5732802e-08 7.8777396e-07 5.407433e-07 7.298674e-07 2.166316e-05 5.0317453e-07

exp_avg f4 [5, 16]
00000000: 9dcb f036 bd5f 70b9 765a 6139 8739 99b8
00000010: a462 da39 394d f4b8 c64c 09ba ac2a 98b8
00000020: fb7e 0f39 e231 ab38 9fb8 beb6 deb2 7e39
00000030: 96ed 0838 4de0 dfb9 7acb fcb8 9091 6b38
00000040: 43e5 0d37 ec76 42b7 ba14 7238 fdb9 92b9
00000050: 7201 aa39 a365 80b8 96c6 7db8 1f93 0d3a
00000060: 7ea2 8839 faa7 b9b9 d053 5737 abaf d6b9
00000070: e2bd 26ba 7471 5e3a dd9a 67b7 c329 283a
00000080: 96e9 97b7 32b7 a5b9 b9a4 1b3a 11bc ee38
00000090: fb9a 7ab9 1fa5 3637 f993 a339 cdc7 2a3a
000000a0: 3f70 a638 bac4 163a 4587 8bb7 f599 da38
000000b0: bccc df38 b78c 4839 3356 253a 969c 16ba
000000c0: 2a47 5f37 c2dd 4639 9bdc b238 62ca 8839
000000d0: 2a8c 26b9 3391 9bb7 6f2a 5639 cbed 42b9
000000e0: f063 4c38 cd06 9b38 a410 1f37 6231 bc36
000000f0: 60b8 93ba a15a 8bb9 52f1 6fb9 e5a5 9d39
00000100: 0dbf 35b7 be8b c039 5c78 79ba d609 b7b7
00000110: 27d0 b3b9 4e61 4239 eea2 8e38 629a 74ba
00000120: 73c5 09ba e76f c5b9 04c0 d130 6afd 6d38
00000130: 2bd3 d43a 6eee b5b9 ff43 8cb9 6d33 deb9
7.176261e-06 -0.00022923849 0.00021491371 -7.306324e-05 0.00041653693 -0.000116492105 -0.00052375754 -7.255873e-05
0.00013684847 8.163207e-05 -5.683934e-06 0.00024289961 3.2646196e-05 -0.00042700992 -0.00012054197 5.616393e-05
8.457634e-06 -1.159099e-05 5.77166e-05 -0.00027985862 0.00032426004 -6.122447e-05 -6.0504848e-05 0.0005400646
0.00026061008 -0.00035411102 1.2834513e-05 -0.00040948144 -0.0006360692 0.0008485534 -1.380473e-05 0.00064149144
-1.8109375e-05 -0.00031607744 0.00059373264 0.000113837545 -0.00023899593 1.0886491e-05 0.0003120003 0.0006514758
7.936404e-05 0.00057513604 -1.6633081e-05 0.00010423727 0.000106716034 0.00019125907 0.0006307095 -0.0005745379
1.3308405e-05 0.00018965363 8.5287924e-05 0.00026090728 -0.00015883209 -1.8545054e-05 0.00020424438 -0.00018589867
4.8730464e-05 7.392243e-05 9.481013e-06 5.6085855e-06 -0.0011270158 -0.0002657967 -0.00022882715 0.00030068975
-1.0832923e-05 0.0003672521 -0.0009516531 -2.181988e-05 -0.00034296626 0.0001853753 6.801436e-05 -0.0009330866
-0.00052555575 -0.00037658142 1.5261326e-09 5.6741213e-05 0.0016237249 -0.00034700654 -0.00026753542 -0.00042381455

exp_avg_sq f4 [5, 16]
00000000: 83ed 8a32 4194 3d35 8553 0737 3b62 2e38
00000010: 0508 8736 cf7d f035 6003 0137 b741 6a37
00000020: f57c 4536 2fc6 3835 28c3 1e34 22ac a237
00000030: b960 3737 3338 7937 ddce 9736 aa9c 2137
00000040: 7153 9e33 0543 ed34 94e1 c236 3de1 8e37
00000050: 740b 9837 654a 5d36 6fa6 5b37 ba74 a737
00000060: 7f7e 8f36 0463 a235 441c 1334 5b6f fd37
00000070: be77 3937 153d 9c37 17c6 de36 f171 6a37
00000080: a44b ba34 5cb1 3935 26fb 8236 e047 0b37
00000090: c383 5536 3785 3936 ed5a 4a37 cb8e 8137
000000a0: 6ef6 a336 0f99 6335 de3e 2234 68be a137
000000b0: 0216 5e37 2f8c 1537 6280 0537 c977 6137
000000c0: 6164 7433 3c5e dd34 76d3 b836 d79c 5338
000000d0: 0dde a536 4aa4 c835 391c 5b36 9cb4 ee36
000000e0: 2f6f 5d36 6521 f034 0cfa e532 5bee 8637
000000f0: b8b4 6f37 b9c6 0b37 6894 7436 22ff e736
00000100: 1442 0535 661a 0d35 3f0a d536 328b b536
00000110: 6680 5137 1ec9 0436 6f64 fc36 260a 5737
00000120: 51bc 8236 13ee 0635 7b59 db33 bb66 9c37
00000130: ef28 9137 985b 1d36 baa4 a536 20da eb36
1.6173322e-08 7.0623724e-07 8.066073e-06 4.1576317e-05 4.024247e-06 1.7918009e-06 7.689785e-06 1.3962787e-05
2.9428022e-06 6.8833737e-07 1.4785894e-07 1.939206e-05 1.093017e-05 1.4854641e-05 4.5242327e-06 9.632824e-06
7.372626e-08 4.4193453e-07 5.8079113e-06 1.7032604e-05 1.8125145e-05 3.297487e-06 1.3092168e-05 1.9962306e-05
4.276458e-06 1.2098758e-06 1.3700725e-07 3.0211804e-05 1.1054739e-05 1.8625093e-05 6.6391763e-06 1.3974016e-05
3.4700236e-07 6.917596e-07 3.9035394e-06 8.30178e-06 3.1816169e-06 2.764469e-06 1.2061309e-05 1.5444492e-05
4.8864667e-06 8.478682e-07 1.5110297e-07 1.928136e-05 1.3237355e-05 8.913731e-06 7.957309e-06 1.3438935e-05
5.690197e-08 4.1233022e-07 5.5082446e-06 5.045239e-05 4.9432333e-06 1.4948976e-06 3.264997e-06 7.1139784e-06
3.2996284e-06 4.472778e-07 2.6772817e-08 1.6085038e-05 1.4287587e-05 8.331314e-06 3.6445217e-06 6.914038e-06
4.964252e-07 5.256501e-07 6.3490875e-06 5.410425e-06 1.2487266e-05 1.9786598e-06 7.5218773e-06 1.28173615e-05
3.896225e-06 5.0265334e-07 1.02142586e-07 1.8644487e-05 1.7304408e-05 2.3448138e-06 4.93656e-06 7.028939e-06

exp_avg f4 [5]
00000000: 6783 b739 bb2c 0a39 7d47 8c38 492d 0339
00000010: 14a1 30ba
0.00035002382 0.00013177369 6.689036e-05 0.00012510004 -0.00067378697

exp_avg_sq f4 [5]
00000000: cc1a 7437 0f1e 1737 5681 a336 46cb a336
00000010: 1f46 1f37
1.45497725e-05 9.0073e-06 4.8728352e-06 4.8814427e-06 9.493465e-06
