tests/results/over-squashing-spec/2025-05-06/14-47-56-297613-over-squashing-spec/16/ckpt/334.ckpt (torch, 237202 bytes, 31 tensors)

model.encoder.node_encoder.encoder.weight f4 [16, 5]
-0.92884487 -0.35075668 0.30354223 -0.78341824 1.5370711 -1.0513855 0.68522793 0.7035926
-0.09341958 -0.57479495 -0.8714358 -0.2687836 -0.122968234 -0.4683189 1.3878766 0.83415335
-1.0694906 -0.5171274 0.3769757 -0.40007845 -0.8552162 0.5586148 0.8933627 -0.6155534
1.0990636 0.48733476 0.6629464 -0.2250496 -0.98657036 -0.99746376 -0.84518987 -1.2751614
-0.117955 0.15603493 1.0462506 0.8356243 0.6445832 1.2070106 -0.47332534 -1.1080904
1.0652872 -0.72697055 1.1280003 1.2601268 -0.8968525 -0.3819882 1.0646341 0.36933583
-0.38460013 -0.5776379 -0.24648245 0.045072753 0.73276377 -1.4281907 -0.9564196 0.79869854
-0.19002359 1.0002483 -1.0758936 -0.41410923 -0.5292742 1.0135444 0.6350995 -0.46257818
0.023899635 -0.3792364 -0.8546411 -0.71024096 0.7797011 1.0386478 1.0117831 -0.9254956
-0.69844556 -0.15986687 1.042401 0.0759341 0.61492497 -1.3725101 0.52804023 0.4934705
00000000: c7c8 6dbf 6196 b3be e369 9b3e 198e 48bf
00000010: bfbe c43f cd93 86bf 196b 2f3f a51e 343f
00000020: c452 bfbd c325 13bf 6b16 5fbf 019e 89be
00000030: c5d6 fbbd 7fc7 efbe f1a5 b13f 138b 553f
00000040: 11e5 88bf 7662 04bf f502 c13e 15d7 ccbe
00000050: 73ef 5abf 6101 0f3f 6bb3 643f e894 1dbf
00000060: 1eae 8c3f f183 f93e dbb6 293f 6773 66be
00000070: e08f 7cbf c959 7fbf 5d5e 58bf 7d38 a3bf
00000080: 6492 f1bd 9fc7 1f3e 8aeb 853f 79eb 553f
00000090: 6803 253f 537f 9a3f b357 f2be e8d5 8dbf
000000a0: 555b 883f be1a 3abf 5062 903f d64b a13f
000000b0: 2098 65bf f593 c3be ee45 883f 9619 bd3e
000000c0: 4fea c4be 14e0 13bf e565 7cbe 359e 383d
000000d0: 6896 3b3f f4ce b6bf ead7 74bf 8277 4c3f
000000e0: 8b95 42be 2308 803f e2b6 89bf 2006 d4be
000000f0: 847e 07bf d3bb 813f e195 223f 0cd7 ecbe
00000100: 2bc9 c33c 462b c2be c2c9 5abf 5ad2 35bf
00000110: 7e9a 473f 69f2 843f 1c82 813f 48ed 6cbf
00000120: 54cd 32bf 24b4 23be 656d 853f 5683 9b3d
00000130: b96b 1d3f 69ae afbf a52d 073f 2aa8 fc3e

model.encoder.node_encoder.encoder.bias f4 [16]
0.1996651 0.5477876 1.6306142 -1.5287942 1.3751175 -1.5355161 -0.69805187 2.1109605
1.0209475 -1.5443081 -1.5783675 -0.2051237 1.4266202 1.1594591 -0.7361101 -0.5739512
00000000: 0275 4c3e cf3b 0c3f f7b7 d03f 87af c3bf
00000010: da03 b03f cb8b c4bf 87b3 32bf fa19 0740
00000020: 68ae 823f e3ab c5bf f207 cabf f20b 52be
00000030: 7e9b b63f 2869 943f b671 3cbf 77ee 12bf

model.gnn_layers.0.factor_split f4 [16, 2]
1.0 1.0 1.0 1.0 1.0 1.0 1.0 1.0
1.0 1.0 1.0 1.0 1.0 1.0 1.0 1.0
1.0 1.0 1.0 1.0 1.0 1.0 1.0 1.0
1.0 1.0 1.0 1.0 1.0 1.0 1.0 1.0
00000000: 0000 803f 0000 803f 0000 803f 0000 803f
00000010: 0000 803f 0000 803f 0000 803f 0000 803f
00000020: 0000 803f 0000 803f 0000 803f 0000 803f
00000030: 0000 803f 0000 803f 0000 803f 0000 803f
00000040: 0000 803f 0000 803f 0000 803f 0000 803f
00000050: 0000 803f 0000 803f 0000 803f 0000 803f
00000060: 0000 803f 0000 803f 0000 803f 0000 803f
00000070: 0000 803f 0000 803f 0000 803f 0000 803f

model.gnn_layers.0.filter.filter.distance_expansion.offset f4 [20]
0.0 1.0526316 2.1052632 3.1578948 4.2105265 5.263158 6.3157897 7.3684216
8.421053 9.473684 10.526316 11.578947 12.631578 13.68421 14.736842 15.789474
16.842106 17.894737 18.947369 20.0
00000000: 0000 0000 a2bc 863f a2bc 0640 f31a 4a40
00000010: a2bc 8640 ca6b a840 f31a ca40 1cca eb40
00000020: a2bc 0641 3694 1741 ca6b 2841 5e43 3941
00000030: f21a 4a41 86f2 5a41 1bca 6b41 afa1 7c41
00000040: a2bc 8641 6c28 8f41 3694 9741 0000 a041

model.gnn_layers.0.filter.filter.linear.0.weight f4 [3, 20]
-0.77753836 0.9877326 0.95695966 -1.2961447 -0.1722304 0.8559658 0.4202476 -0.5531591
-0.18311056 0.4011333 0.27814463 -0.14117584 0.092533045 0.28558883 0.080403514 -0.044645164
-0.14544176 -0.1915501 -0.09973523 0.49350342 -0.50249976 1.1768825 1.0559664 -1.2350605
-0.09590588 1.0718054 0.1223736 -0.63419485 -0.5417823 0.74755824 0.096724354 -0.41547093
0.11366105 0.10485938 0.28105193 0.26253703 0.12817442 0.27153555 -0.19256395 -0.27623975
-0.5627322 1.3694103 1.3844154 -1.2910976 0.23202893 0.5732043 0.36433566 -0.25225443
0.11834047 0.020535331 0.062840395 -0.2538228 0.2487013 -0.1766619 -0.31268418 -0.10142969
0.083759725 -0.3122618 -0.059522744 0.17448308
00000000: c10c 47bf 0bdc 7c3f 4ffb 743f 12e8 a5bf
00000010: 2a5d 30be 9320 5b3f b22a d73e d69b 0dbf
00000020: 5681 3bbe 5861 cd3e f968 8e3e 6690 10be
00000030: f781 bd3d b338 923e 99aa a43d d9dd 36bd
00000040: afee 14be b625 44be fc41 ccbd 7bac fc3e
00000050: d3a3 00bf 16a4 963f e829 873f 7616 9ebf
00000060: 4d6a c4bd eb30 893f 039f fa3d 985a 22bf
00000070: 3fb2 0abf fa5f 3f3f 6b17 c63d 9bb8 d4be
00000080: 20c7 e83d 84c0 d63d 0ae6 8f3e 416b 863e
00000090: 2840 033e b506 8b3e 7c2f 45be 4c6f 8dbe
000000a0: 380f 10bf d648 af3f 8634 b13f b042 a5bf
000000b0: fe98 6d3e 84bd 123f 348a ba3e 7e27 81be
000000c0: 7d5c f23d b639 a83c 77b2 803d 10f5 81be
000000d0: 8eab 7e3e dbe6 34be 2418 a0be 5fba cfbd
000000e0: 388a ab3d c7e0 9fbe 1fce 73bd b1ab 323e

model.gnn_layers.0.filter.filter.linear.1.weight f4 [16, 3]
0.7711174 1.6832004 1.754288 -1.4734029 -0.73435277 -1.8334368 -1.1300014 -1.3058107
-1.1573993 0.7937282 0.57992303 1.5056399 0.5228014 0.80841583 -0.21647348 0.83586305
1.0846138 0.60623056 -1.0764858 -0.6871755 -1.3409649 -1.4286686 -2.2273457 -2.1210334
-0.79322255 -1.0927056 -1.3309091 -0.7896517 -1.1724926 -1.1582885 -1.110634 -1.5647273
-1.5710118 -1.0631069 -1.6685028 -2.2837129 -1.0200427 -1.2425994 -0.793874 1.153952
1.3906537 0.7615164 0.9039536 1.3799037 1.4224292 1.4755573 1.639291 1.517085
00000000: f367 453f 1c73 d73f 828c e03f 7798 bcbf
00000010: 8bfe 3bbf 0fae eabf e3a3 90bf ce24 a7bf
00000020: a925 94bf c531 4b3f d675 143f cfb8 c03f
00000030: 50d6 053f 57f4 4e3f 39ab 5dbe 1ffb 553f
00000040: a0d4 8a3f ed31 1b3f 49ca 89bf bcea 2fbf
00000050: bda4 abbf 9dde b6bf d58c 0ec0 03bf 07c0
00000060: a210 4bbf c7dd 8bbf 3b5b aabf 9d26 4abf
00000070: 3d14 96bf cc42 94bf 4129 8ebf fc48 c8bf
00000080: ea16 c9bf e313 88bf 8091 d5bf 5a28 12c0
00000090: c290 82bf 7f0d 9fbf 543b 4bbf b3b4 933f
000000a0: f100 b23f bdf2 423f 8169 673f afa0 b03f
000000b0: 2912 b63f 10df bc3f 4ad4 d13f d72f c23f

model.gnn_layers.0.filter.filter.linear.1.bias f4 [16]
0.15565753 0.03261001 -0.028085008 -0.033343237 -0.22394457 0.00957617 0.053716537 0.06479365
-0.34284443 0.06779528 0.089590326 0.24306628 -0.030620644 0.04353362 0.19950327 0.017809331
00000000: b064 1f3e 1392 053d 8812 e6bc eb92 08bd
00000010: ba51 65be 5ee5 1c3c df05 5c3d 88b2 843d
00000020: 4e89 afbe 40d8 8a3d 227b b73d 5ee6 783e
00000030: 25d8 fabc 4f50 323d 964a 4c3e e0e4 913c

model.gnn_layers.0.feature_transform.layer_real.lin1.weight f4 [16, 16]
1.4218419 -0.41803598 1.7436738 -1.1802671 1.1784427 -1.1164412 1.2369411 0.6201632
0.077923305 -1.2587708 -1.2603407 -1.910553 0.71094424 1.754199 0.8813719 0.15741874
-0.9971322 1.1357317 0.9445954 -0.8676769 0.9667057 -0.9912182 -1.2432461 1.4595127
1.1287713 -0.67077136 -0.7589125 0.97294754 1.1440711 0.63613296 -1.2462039 -0.7582613
1.2941889 -0.5432366 1.1699514 -0.8373645 1.1892577 -0.50338864 0.9927205 -0.86486226
-1.4224931 -0.88253593 -0.49123353 -0.66378087 0.91298586 1.0339444 1.4174956 0.6228485
1.55963 -0.24283007 1.5976511 0.086234786 0.078467935 -0.45670503 0.372811 -0.5095699
-0.26691547 -0.70456356 -0.10364419 -1.6231974 -0.16366334 1.023556 1.3105663 0.38969094
-0.7733829 -0.53704613 -0.38712972 -0.020849109 -0.054965306 -0.3112671 -0.07001105 0.2823724
0.35274085 -0.19539031 0.08853284 0.5005091 -0.2762254 0.13525751 0.82887805 0.2897392
0.8995735 0.21258682 0.9071785 -0.06617602 0.3953255 -0.497563 0.6258474 -0.69828373
-0.17163157 -0.84618926 -0.58643115 -1.1181803 -0.11749007 0.90550613 0.17747918 0.96566457
-0.65076154 0.19459294 0.334986 0.3452855 -0.16188478 -0.06822512 0.22886308 -0.087993
-0.044617277 0.037442785 -0.21527134 -1.5963433 -0.25261572 0.09521773 0.11452413 0.007734501
-0.33226588 1.2243689 0.2341155 -0.42039862 0.29739547 0.33714798 -0.71490973 -0.361832
-0.44988388 0.48500594 -0.10489204 -1.17949 0.17974164 -0.5357361 -2.0313606 1.0953834
-0.095434666 0.026763393 -0.050946742 -0.2969022 -0.15955001 0.087079726 0.109439515 -0.28175667
0.024298288 0.3615099 0.09971337 0.021161458 -0.16648482 0.17603402 -0.114178725 -0.35413873
-1.1583204 -0.66700166 0.082767166 0.09102836 -0.66463435 -0.2732895 -0.7349942 0.6760551
1.0521818 -0.81944114 -0.3692694 0.1211518 -0.071820565 0.45583752 0.4549064 -0.20237118
-0.7251353 -0.40783525 0.21617354 0.34014848 -0.15540056 0.28498885 -0.4744038 0.9371319
0.23606019 -0.5037826 0.43314558 0.9630726 -0.29608786 0.029661635 1.0417958 -1.4372485
-1.464955 1.4819611 1.3716477 -1.4091332 1.0159332 -1.275745 -1.2673106 1.4866134
1.4100804 -1.1818638 -1.687756 -1.3427495 1.204693 1.3581556 -1.9974464 -0.9462318
0.090170264 1.2184277 0.8691071 -0.97165215 0.68576616 0.095682636 -0.75955653 0.63925624
-0.59081584 0.28931305 0.30359885 0.2169299 0.7565415 -0.5431754 -1.3497571 -0.7727171
0.804242 0.24612291 1.2584461 -0.26591074 0.46870586 -1.1529293 0.74914825 -0.51836395
0.06017135 -0.9119781 -0.9573702 -1.3861686 0.4608304 1.1133062 -0.24564093 1.163244
0.07375319 -0.06268394 -0.1751395 -0.15153617 -0.17559125 0.09158032 0.23252745 -0.1832769
-0.06264358 -0.16068292 0.21252558 -0.1799809 -0.090701446 -0.15569565 0.026667068 -0.108778544
1.0584097 1.3198705 1.1132798 -1.2306755 1.4163709 -1.3261447 0.18120824 1.3079101
1.4188125 -0.968947 0.50401604 1.3675315 1.2102809 0.22085337 -1.3795295 -1.4792509
00000000: eafe b53f d008 d6be b430 df3f fe12 97bf
00000010: 36d7 963f 8ce7 8ebf 1654 9e3f 04c3 1e3f
00000020: 4196 9f3d 671f a1bf d852 a1bf 008d f4bf
00000030: 7100 363f 9889 e03f 97a1 613f 6132 213e
00000040: 0e44 7fbf a85f 913f 01d1 713f 1320 5ebf
00000050: 067a 773f 7ac0 7dbf b022 9fbf 50d1 ba3f
00000060: 947b 903f acb7 2bbf 1748 42bf 1713 793f
00000070: ec70 923f 9cd9 223f 9c83 9fbf 6a1d 42bf
00000080: fba7 a53f 8e11 0bbf f8c0 953f 855d 56bf
00000090: 9939 983f 14de 00bf ee22 7e3f 9d67 5dbf
000000a0: 4114 b6bf e0ed 61bf f682 fbbe 8bed 29bf
000000b0: 71b9 693f 4a58 843f 7f70 b53f 0073 1f3f
000000c0: f5a1 c73f 72a8 78be d57f cc3f dd9b b03d
000000d0: ccb3 a03d 3ed5 e9be 15e1 be3e 2c73 02bf
000000e0: 25a9 88be 475e 34bf 6843 d4bd efc4 cfbf
000000f0: 5d97 27be e203 833f a3c0 a73f 9285 c73e
00000100: 6cfc 45bf db7b 09bf de35 c6be c0cb aabc
00000110: 4d23 61bd 675e 9fbe f461 8fbd 1d93 903e
00000120: 739a b43e 6614 48be b550 b53d 5d21 003f
00000130: 6a6d 8dbe f280 0a3e 5a31 543f b258 943e
00000140: 734a 663f 5cb0 593e da3c 683f 4b87 87bd
00000150: 1b68 ca3e 94c0 febe 8937 203f b9c2 32bf
00000160: 30c0 2fbe dc9f 58bf 5a20 16bf 8820 8fbf
00000170: a29e f0bd 40cf 673f 1abd 353e cb35 773f
00000180: 4f98 26bf 5f43 473e 4983 ab3e 43c9 b03e
00000190: 20c5 25be 9db9 8bbd 155b 6a3e ad35 b4bd
000001a0: 9bc0 36bd 9b5d 193d 1770 5cbe fa54 ccbf
000001b0: d956 81be 8301 c33d a18b ea3d b271 fd3b
000001c0: c11e aabe 1fb8 9c3f f9bb 6f3e 7d3e d7be
000001d0: 3844 983e a99e ac3e 5304 37bf 0b42 b9be
000001e0: 2e57 e6be b352 f83e a3d1 d6bd 87f9 96bf
000001f0: 310e 383e 0026 09bf d001 02c0 8635 8c3f
00000200: 4073 c3bd e73e db3c 88ad 50bd 9103 98be
00000210: 1461 23be db56 b23d d321 e03d 6942 90be
00000220: 340d c73c d317 b93e 8636 cc3d cb5a ad3c
00000230: ff7a 2abe 4342 343e 89d6 e9bd ac51 b5be
00000240: d843 94bf 9fc0 2abf d581 a93d 146d ba3d
00000250: 7a25 2abf 9aec 8bbe 9428 3cbf f211 2d3f
00000260: e5ad 863f e5c6 51bf e110 bdbe 6f1e f83d
00000270: a916 93bd 8963 e93e 7ee9 e83e 643a 4fbe
00000280: 78a2 39bf c8cf d0be 995c 5d3e f127 ae3e
00000290: 5321 1fbe 0fea 913e 0ee5 f2be e0e7 6f3f
000002a0: c3b9 713e e5f7 00bf 42c5 dd3e ed8b 763f
000002b0: d498 97be f5fc f23c 9159 853f c2f7 b7bf
000002c0: a583 bbbf e7b0 bd3f 2792 af3f 7a5e b4bf
000002d0: 190a 823f 9d4b a3bf 3c37 a2bf 5949 be3f
000002e0: 847d b43f 5047 97bf 6308 d8bf 37df abbf
000002f0: 6133 9a3f 0bd8 ad3f 53ac ffbf 3f3c 72bf
00000300: 30ab b83d 70f5 9b3f ce7d 5e3f 32be 78bf
00000310: 5f8e 2f3f 42f5 c33d 4c72 42bf 4ca6 233f
00000320: b53f 17bf d720 943e 4f71 9b3e df22 5e3e
00000330: b4ac 413f 8b0d 0bbf d7c4 acbf cad0 45bf
00000340: cee2 4d3f a507 7c3e c314 a13f 7425 88be
00000350: 37fa ef3e 3093 93bf 2ec8 3f3f 80b3 04bf
00000360: 3c76 763d 6677 69bf 3716 75bf f96d b1bf
00000370: f6f1 eb3e d180 8e3f 4c89 7bbe 2ee5 943f
00000380: ea0b 973d 7060 80bd c557 33be 4c2c 1bbe
00000390: 31ce 33be 768e bb3d ad1b 6e3e f1ac 3bbe
000003a0: 474b 80bd 108a 24be 4ea0 593e ea4c 38be
000003b0: aec1 b9bd ae6e 1fbe e574 da3c 49c7 debd
000003c0: f879 873f 84f1 a83f f47f 8e3f c686 9dbf
000003d0: a44b b53f 1cbf a9bf a78e 393e 9969 a73f
000003e0: a69b b53f e90c 78bf 3207 013f 460b af3f
000003f0: 7cea 9a3f 6327 623e 6c94 b0bf 1858 bdbf

model.gnn_layers.0.feature_transform.layer_real.lin1.bias f4 [16]
1.2439272 1.1509299 0.48549524 0.24889566 -0.20134014 0.6518489 0.31220475 0.17571731
0.00062230055 0.8722282 0.4854396 1.1376706 0.47444916 1.0544077 0.01938178 1.0821065
00000000: 0239 9f3f ac51 933f d592 f83e 81de 7e3e
00000010: 1c2c 4ebe 92df 263f 4dd9 9f3e 3def 333e
00000020: e221 233a 594a 5f3f 8a8b f83e 319f 913f
00000030: 00eb f23e d5f6 863f 8ac6 9e3c 7782 8a3f

model.post_mp.mlp.1.weight f4 [5, 16]
0.39946657 -1.1570908 -0.7267872 0.20777342 -0.7204836 -0.78476703 0.80097973 -1.4492222
-0.6232706 -1.0194587 -1.4535495 1.1553084 -0.70426565 0.87506413 0.7387318 -0.74347025
0.27524024 0.9782291 -0.5014043 -1.1091924 0.35811853 -0.56466305 1.0250998 2.262342
0.5734381 0.26281297 0.5735746 -0.12258969 0.8326962 1.023113 -1.1097075 -1.5656171
0.07510547 0.9531066 -0.87145466 -0.81757724 0.59677815 -0.30364573 -0.7211507 -1.5593963
-0.69860625 0.25361642 -0.41128743 1.6494113 0.28936663 0.9409099 -0.96809524 1.4472586
1.2158917 -0.0041768523 -1.1476728 0.072126605 -0.16549534 0.5162218 -0.67758155 -0.6407097
-0.9337547 -0.63829297 1.3323164 -1.714873 -0.9698818 -0.805327 -0.73103696 -0.97707194
-1.6523422 -0.74541295 1.262712 1.7667769 0.4494352 0.9215669 -0.82085365 0.08713192
0.9573457 0.71727216 0.43278262 0.1717716 -0.623194 -0.806408 0.86569333 -1.0647054
00000000: e286 cc3e 8d1b 94bf ba0e 3abf 8ec2 543e
00000010: 9d71 38bf 7ee6 48bf 020d 4d3f 1d80 b9bf
00000020: a98e 1fbf 9f7d 82bf e90d babf 25e1 933f
00000030: c14a 34bf 3404 603f 871d 3d3f 1154 3ebf
00000040: 4aec 8c3e 396d 7a3f 085c 00bf 04fa 8dbf
00000050: 505b b73e c28d 10bf 7836 833f 36ca 1040
00000060: d7cc 123f 6c8f 863e c9d5 123f 4e10 fbbd
00000070: 942b 553f 5ef5 823f e50a 8ebf 2466 c8bf
00000080: e6d0 993d cbfe 733f a717 5fbf be4c 51bf
00000090: 74c6 183f 7477 9bbe 559d 38bf 4c9a c7bf
000000a0: dcd7 32bf 03da 813e 4494 d2be e91f d33f
000000b0: dd27 943e 79df 703f 17d5 77bf c53f b93f
000000c0: 57a2 9b3f fadd 88bb f1e6 92bf 1db7 933d
000000d0: 9c77 29be 1d27 043f fc75 2dbf 8d05 24bf
000000e0: 8c0a 6fbf 2b67 23bf 5889 aa3f f580 dbbf
000000f0: 2c4a 78bf e929 4ebf 3d25 3bbf 6321 7abf
00000100: f37f d3bf 62d3 3ebf 8ca0 a13f bf25 e23f
00000110: 5f1c e63e cfeb 6b3f 7723 52bf 3872 b23d
00000120: 9c14 753f 269f 373f af95 dd3e e5e4 2f3e
00000130: a489 1fbf c170 4ebf 149e 5d3f 4448 88bf

model.post_mp.mlp.1.bias f4 [5]
-0.139532 -0.25308788 -0.30578306 0.06698023 -0.0029519207
00000000: 7ae1 0ebe bc94 81be 998f 9cbe ee2c 893d
00000010: 0375 41bb

exp_avg f4 [16, 5]
0.0024496359 0.0018671147 0.0018015893 0.002857419 0.0012661138 -0.002452296 -0.0048927716 -0.0044234674
-0.003271291 -0.003377761 -0.0005265864 -0.00073165196 -0.0006815956 -0.0007095132 -0.0008913429 -0.0004503776
-1.6253614e-05 -0.00014947908 -0.00016777967 -9.909027e-05 0.0005435044 0.00021979581 0.00025714675 0.00037125696
0.00034956084 -0.0011761159 -0.0013140726 -0.0009541074 -0.00060862326 -0.0010401517 0.001498398 0.0017122946
0.001311682 0.0012986119 0.0011991706 -0.0011370488 -0.0019236688 -0.0011000612 -0.0008777127 -0.00082412665
-0.00049623364 -4.581548e-05 -0.0004906993 -0.0005726937 -0.00019129696 0.0032461153 0.0019986113 0.002360901
0.002796586 0.0023296804 0.0004572028 -0.00014072255 -0.00017300055 0.00020722917 -8.324078e-05 0.0018985997
0.0010801823 0.00079311815 0.004202676 0.0015441035 0.0021275328 0.001169848 0.0015951139 0.0018768718
0.0018431833 0.0011635502 0.0017853185 0.0011673641 7.4060656e-05 0.0010576115 -0.0011884384 0.00014118933
-0.0006757154 -0.0009297571 -0.00089788093 -0.0010155512 -0.0018718463 0.00069603807 -0.00075846957 -0.001055525
00000000: 128a 203b f9b9 f43a 4e23 ec3a 8943 3b3b
00000010: bbf3 a53a b3b6 20bb 8b53 a0bb bcf2 90bb
00000020: 2863 56bb 6d5d 5dbb 9d0a 0aba 55cc 3fba
00000030: 1bad 32ba a0fe 39ba 02a9 69ba a920 ecb9
00000040: 5f58 88b7 7cbd 1cb9 03ee 2fb9 afce cfb8
00000050: f679 0e3a fd78 6639 a7d1 8639 44a5 c239
00000060: 4345 b739 e727 9aba f63c acba 101d 7aba
00000070: 048c 1fba b355 88ba e565 c43a 136f e03a
00000080: bfec ab3a 2f36 aa3a 7d2d 9d3a 0709 95ba
00000090: 9d23 fcba ee2f 90ba 4d16 66ba 340a 58ba
000000a0: ad15 02ba ff29 40b8 46a2 00ba d320 16ba
000000b0: e396 48b9 c7bc 543b 22fb 023b 59b9 1a3b
000000c0: ed46 373b 8dad 183b b9b4 ef39 ec8e 13b9
000000d0: 7b67 35b9 a84b 5939 8e91 aeb8 6fda f83a
000000e0: e794 8d3a 42e9 4f3a 9ab6 893b 8463 ca3a
000000f0: 146e 0b3b 9655 993a 2413 d13a 5e01 f63a
00000100: f896 f13a 4482 983a 5901 ea3a 3d02 993a
00000110: 0351 9b38 8e9f 8a3a 60c5 9bba 390c 1439
00000120: 7e22 31ba f1ba 73ba c55f 6bba 3e1c 85ba
00000130: bd58 f5ba 5376 363a 08d4 46ba 8b59 8aba

exp_avg_sq f4 [16, 5]
6.0370716e-05 5.8371235e-05 5.8386468e-05 5.7988553e-05 6.883594e-05 0.00054006407 0.00055038766 0.0005416059
0.0005314219 0.00052813033 4.201753e-05 4.1036743e-05 4.123526e-05 4.1737905e-05 5.835947e-05 5.9904864e-06
5.6526496e-06 5.424223e-06 5.5331957e-06 5.304984e-06 6.625889e-06 6.1336086e-06 6.242115e-06 6.094063e-06
6.328066e-06 2.3658373e-05 2.4138124e-05 2.1187345e-05 2.1439813e-05 2.3194149e-05 8.194402e-06 9.00176e-06
8.029997e-06 8.079847e-06 1.0411181e-05 9.312564e-06 1.055818e-05 9.942894e-06 8.512017e-06 9.105408e-06
9.432235e-06 9.050074e-06 9.433653e-06 9.5603045e-06 9.758386e-06 2.63046e-05 2.5114296e-05 2.3417144e-05
2.2849521e-05 2.3535675e-05 5.338902e-06 5.1830943e-06 5.572042e-06 6.575018e-06 5.1978177e-06 0.00066671276
0.0006648382 0.00067022315 0.00072784733 0.0006617262 8.090846e-05 8.897452e-05 7.632671e-05 8.1631624e-05
7.773157e-05 7.562417e-05 8.1932165e-05 7.476684e-05 7.46938e-05 7.646894e-05 3.479667e-05 3.4678407e-05
3.3871405e-05 3.341425e-05 3.5123205e-05 0.00016959332 0.00018123574 0.0002611545 0.00017138734 0.00017142562
00000000: 9036 7d38 a3d3 7438 fee3 7438 bc38 7338
00000010: 045c 9038 1693 0d3a e447 103a 8ffa 0d3a
00000020: 1f4f 0b3a 3a72 0a3a fb3b 3038 de1e 2c38
00000030: 06f4 2c38 bc0f 2f38 01c7 7438 e301 c936
00000040: e4ab bd36 b901 b636 caa9 b936 7701 b236
00000050: f453 de36 4ccf cd36 5c73 d136 9a7b cc36
00000060: ac55 d436 f875 c637 3a7c ca37 7abb b137
00000070: a6d9 b337 0e91 c237 b07a 0937 4406 1737
00000080: 93b8 0637 ae8e 0737 afab 2e37 283d 1c37
00000090: 0a23 3137 68d0 2637 d6ce 0e37 6ec3 1837
000000a0: 243f 1e37 c6d5 1737 3b45 1e37 3265 2037
000000b0: f3b7 2337 b3a8 dc37 8aac d237 ef6f c437
000000c0: f9ac bf37 7a6e c537 d224 b336 71ea ad36
000000d0: 7af7 ba36 f99e dc36 ea68 ae36 56c6 2e3a
000000e0: 8948 2e3a eab1 2f3a 02cd 3e3a b277 2d3a
000000f0: 66ad a938 d597 ba38 9711 a038 a531 ab38
00000100: d203 a338 6b98 9e38 ffd2 ab38 24cc 9c38
00000110: eea4 9c38 f35d a038 a4f2 1138 a873 1138
00000120: 2511 0e38 4726 0c38 4151 1338 dcd4 3139
00000130: 190a 3e39 90eb 8839 70b6 3339 b7c0 3339

exp_avg f4 [16]
-0.00048598376 -0.0039647203 -0.00049277395 -0.00012851482 -0.0005822483 -0.00025334148 0.0012264001 -0.0017326572
9.416989e-05 0.0007417625 0.0003320889 -0.0023745531 -0.0012437075 0.0015131535 0.0012475395 -0.0011725355
00000000: a3cb feb9 7cea 81bb 802d 01ba efc1 06b9
00000010: 06a2 18ba ebd2 84b9 29bf a03a 541a e3ba
00000020: 137d c538 d772 423a 381c ae39 649e 1bbb
00000030: e603 a3ba 0255 c63a 7b84 a33a c3af 99ba

exp_avg_sq f4 [16]
4.437989e-05 0.00020043408 2.5917336e-05 6.5362165e-06 8.385048e-06 1.785445e-05 2.5978068e-06 1.1149281e-05
4.673772e-06 2.329131e-05 5.2512605e-06 0.0001839643 4.040257e-05 2.1046724e-05 1.2504938e-05 5.3726573e-05
00000000: 8b24 3a38 9d2b 5239 0e69 d937 ac51 db36
00000010: 82ad 0c37 24c6 9537 fb55 2e36 cc0d 3b37
00000020: 65d3 9c36 b561 c337 fc33 b036 8ae6 4039
00000030: ee75 2938 7f8d b037 4dcc 5137 7858 6138

exp_avg f4 [3, 20]
0.0069502373 0.00021903883 -0.0001948362 0.00029712814 -0.00041404084 0.00063348113 0.0004317697 -0.00014810024
-4.1730524e-05 -0.00019439151 -5.275256e-05 9.493385e-05 -0.00010869099 -0.00011669323 -0.00032490838 -0.0006547544
-0.0004360806 -0.0001672568 -4.4935936e-05 1.595468e-05 0.0055074464 -0.0011529303 -0.00028804553 0.0004572733
-0.00052698876 0.0005856974 0.00031157033 -0.0002449436 -8.981307e-05 -0.00030830305 -7.105886e-05 0.00013090002
-0.00014375872 -0.00015080138 -0.00042940624 -0.000852218 -0.0005695275 -0.00023403001 -7.799628e-05 4.881906e-06
0.0069232974 -0.0007531727 -0.00036280078 0.00037441638 -0.0005432631 0.00075412967 0.0004657336 -0.00017472159
1.0386113e-07 -0.00022429402 -3.7133195e-05 0.0001348995 -0.00014503651 -0.000104248495 -0.00027141577 -0.0006550721
-0.0004921797 -0.00025296563 -9.360515e-05 1.2225855e-05
00000000: d1be e33b caad 6539 f24c 4cb9 ddc7 9b39
00000010: 9f13 d9b9 3310 263a 265f e239 5b4b 1bb9
00000020: cf07 2fb8 93d5 4bb9 a142 5db8 3917 c738
00000030: 08f1 e3b8 33b9 f4b8 7758 aab9 d3a3 2bba
00000040: bfa1 e4b9 a861 2fb9 9879 3cb8 6ad6 8537
00000050: cf77 b43b ec1d 97ba d104 97b9 2fbe ef39
00000060: 9e25 0aba 7d89 193a 435a a339 c66b 80b9
00000070: 065a bcb8 bca3 a1b9 6f05 95b8 3542 0939
00000080: f0bd 16b9 7020 1eb9 ee21 e1b9 6267 5fba
00000090: 584c 15ba f465 75b9 ef91 a3b8 41cf a336
000000a0: d4dc e23b 9070 45ba 4c36 beb9 514d c439
000000b0: c569 0eba c9b0 453a b52d f439 7835 37b9
000000c0: 430a df33 7830 6bb9 77bf 1bb8 cf73 0d39
000000d0: f114 18b9 fc9f dab8 cf4c 8eb9 25b9 2bba
000000e0: 9f05 01ba 79a0 84b9 e24d c4b8 a61d 4d37

exp_avg_sq f4 [3, 20]
0.002282968 0.0006254391 4.5838937e-05 1.7455102e-05 1.4214393e-05 6.1273563e-06 1.3675879e-05 2.7805777e-06
7.672165e-06 7.951639e-06 1.2382227e-05 5.7320226e-06 6.390376e-06 3.7085827e-06 4.0581454e-06 7.215888e-06
3.638584e-06 9.442839e-07 3.9044596e-07 3.342962e-08 0.0026637947 0.00072932855 6.069781e-05 2.2351163e-05
1.8927638e-05 9.059591e-06 1.3661532e-05 3.1953484e-06 1.067064e-05 8.531455e-06 1.2117275e-05 1.0052599e-05
8.425407e-06 6.3157486e-06 6.913647e-06 6.1947694e-06 4.0338455e-06 1.8192552e-06 5.66191e-07 4.2568338e-08
0.0009249228 0.0003057352 2.3222006e-05 1.0803949e-05 6.02608e-06 5.1643533e-06 8.487324e-06 1.4222287e-06
4.601436e-06 5.7000825e-06 8.013297e-06 5.8358482e-06 5.0794165e-06 2.7304266e-06 3.01216e-06 4.8496936e-06
3.3141887e-06 9.0712797e-07 3.244711e-07 3.689711e-08
00000000: d99d 153b 82f4 233a 2f43 4038 8c6c 9237
00000010: 5a7a 6e37 9799 cd36 7471 6537 f699 3a36
00000020: b3b7 0037 0868 0537 43bd 4f37 b355 c036
00000030: e96c d636 f7e0 7836 342b 8836 0220 f236
00000040: 662e 7436 b27a 7d35 7c9e d134 4294 0f33
00000050: 0f93 2e3b 6930 3f3a c795 7e38 c27e bb37
00000060: cbc6 9e37 a6fe 1737 d533 6537 ab6f 5636
00000070: 0d06 3337 5222 0f37 4d4b 4b37 95a7 2837
00000080: d95a 0d37 deeb d336 c7fb e736 aadc cf36
00000090: 785a 8736 222d f435 59fc 1735 62d4 3633
000000a0: 8576 723a 154b a039 e1cc c237 9c42 3537
000000b0: a233 ca36 7549 ad36 c764 0e37 68e3 be35
000000c0: 0966 9a36 5643 bf36 d970 0637 8ed1 c336
000000d0: db6f aa36 5f3c 3736 8424 4a36 8dba a236
000000e0: 5469 5e36 5c81 7335 f832 ae34 cd78 1e33

exp_avg f4 [16, 3]
-0.0003800677 -0.0005197999 -0.00043473594 0.0010819355 0.00036608955 0.00023221511 9.606665e-05 0.00019791842
0.00013938658 0.00028255803 0.00026841921 0.00021528493 -0.00018251766 -0.00022343226 -0.00020286127 0.00043738857
-0.00015269937 5.2795695e-05 0.00012493308 5.421281e-05 0.00010344718 0.0005797731 0.0004727064 0.0004842279
-7.353974e-05 2.7478594e-05 -1.6974681e-06 0.00033268114 0.00062248093 0.00043684928 0.00032581054 0.00036773947
0.00043490523 -2.8858183e-05 0.00026597304 0.0005185305 0.0018282671 -0.0002491054 -0.00028902106 0.0006249996
-0.00024037196 -0.00018844729 -2.2869193e-05 -2.5823727e-05 -2.860502e-05 -0.0005062077 -0.00020510786 -0.00052443
00000000: d343 c7b9 2e43 08ba 45ed e3b9 bbcf 8d3a
00000010: b5ef bf39 c57e 7339 6477 c938 5288 4f39
00000020: 4d28 1239 4c24 9439 9eba 8c39 1cbe 6139
00000030: 3662 3fb9 2449 6ab9 28b7 54b9 4d51 e539
00000040: ed1d 20b9 f270 5d38 7800 0339 9062 6338
00000050: c8f1 d838 eafb 173a 94d5 f739 f8df fd39
00000060: 5939 9ab8 d581 e637 8fd4 e3b5 b56b ae39
00000070: fd2d 233a eb08 e539 8dd1 aa39 28cd c039
00000080: fe03 e439 7a14 f2b7 4c72 8b39 feed 073a
00000090: 77a2 ef3a 5c9a 82b9 c087 97b9 03d7 233a
000000a0: 5b0c 7cb9 ef99 45b9 38d7 bfb7 08a0 d8b7
000000b0: d0f4 efb7 06b3 04ba 3912 57b9 e779 09ba

exp_avg_sq f4 [16, 3]
4.6354958e-06 2.8359766e-06 1.756839e-06 1.9369241e-05 1.2104982e-05 6.492648e-06 3.26003e-05 1.5539845e-05
8.035969e-06 4.0394096e-07 2.6134353e-07 2.471306e-07 7.0501596e-06 2.7541707e-06 1.5895413e-06 6.0268154e-05
2.1038044e-05 9.455575e-06 3.3156173e-08 1.646986e-08 1.1621206e-08 1.2189008e-06 6.575468e-07 5.5237587e-07
1.4272248e-07 1.02801394e-07 4.421054e-08 1.9653888e-05 7.6140536e-06 4.286316e-06 9.637417e-07 4.4058157e-07
4.3494322e-07 9.516519e-06 7.5676726e-06 6.8978106e-06 0.00012291581 3.3048673e-05 3.1117004e-05 6.3671294e-05
1.8119626e-05 9.637081e-06 7.759593e-08 8.2794784e-08 3.520688e-08 2.1440173e-05 1.4668699e-05 8.597017e-06
00000000: 9b8a 9b36 b551 3e36 87cc eb35 217b a237
00000010: 8016 4b37 6cdb d936 4ebc 0838 905b 8237
00000020: 39d2 0637 39dd d834 c84e 8c34 5fad 8434
00000030: 6990 ec36 4bd4 3836 3958 d535 70c8 7c38
00000040: db7a b037 63a3 1e37 9967 0e33 9b79 8d32
00000050: 9ba6 4732 1d99 a335 4682 3035 fb46 1435
00000060: 423f 1934 aac3 dc33 01e2 3d33 67de a437
00000070: 397c ff36 2dd3 8f36 ea59 8135 1289 ec34
00000080: 2482 e934 23a9 1f37 d0ed fd36 be73 e736
00000090: f6e2 0039 be9d 0a38 a183 0238 4487 8538
000000a0: 9aff 9737 f3ae 2137 d0a2 a633 eacc b133
000000b0: 6036 1733 6cda b337 9519 7637 e83b 1037

exp_avg f4 [16]
-0.0002845823 -0.0020690619 4.814382e-05 0.00035086527 -0.00042193386 -0.0010125216 -7.0072456e-05 -0.0004559307
0.00021950371 0.0012257373 0.00031566274 0.0004001594 -0.0061358972 -0.001973571 -2.7865655e-05 0.0006026239
00000000: fd33 95b9 1999 07bb 08ee 4938 57f4 b739
00000010: 0137 ddb9 96b6 84ba ddf3 92b8 fc09 efb9
00000020: 942a 6639 eba8 a03a 897f a539 7ccc d139
00000030: a30f c9bb 0757 01bb 0ac1 e9b7 68f9 1d3a

exp_avg_sq f4 [16]
4.7281906e-06 7.806221e-05 0.00017332924 4.3366595e-06 7.554738e-06 0.00030150867 1.7381966e-07 5.5354412e-06
6.2674746e-07 0.000101879625 5.973987e-06 1.642229e-05 0.0005701323 0.00042212405 4.7900937e-08 9.969144e-05
00000000: d9a6 9e36 54b5 a338 b7bf 3539 9f83 9136
00000010: b57e fd36 cf13 9e39 2fa3 3a34 14bd b936
00000020: c23d 2835 35a8 d538 2874 c836 99c2 8937
00000030: ee74 153a 8850 dd39 a3bb 4d33 6f11 d138

exp_avg f4 [16, 16]
-3.4705496e-05 -2.0289142e-05 -0.00017517134 0.0001320353 -0.00013206508 0.00019478725 3.315278e-05 -0.00016157713
-0.00011496727 0.00018182292 0.0002111094 4.832242e-05 -0.00011312264 -0.00015963065 3.1080028e-05 3.1528587e-05
9.25909e-06 -7.478874e-05 -0.0001029094 0.00021368892 -0.00020088958 0.0001356805 0.00017446159 -0.0003196428
-0.00017696945 8.037157e-05 0.00016793329 -3.7748483e-05 -0.00021060488 -2.4026238e-05 0.000104812985 6.8208705e-05
-5.903873e-05 3.0064828e-05 -5.9585152e-05 0.00013656149 -0.00018310364 0.000112641115 8.88611e-05 -0.00011205284
-8.588823e-05 8.9021805e-06 0.00018151768 -1.9741015e-05 -0.00011531815 -1.2380579e-05 -3.968007e-05 -3.743273e-05
5.6414276e-05 0.00018248138 0.00025350132 0.00013353529 -0.0002645269 0.0002656424 0.00025250477 -0.00014218423
-0.00052787235 -0.00019075892 0.000531498 -5.555302e-05 -0.000108537526 0.00011335453 -0.0001595466 -0.00018269397
7.3872607e-06 -1.1926417e-05 -0.0001349744 0.00026033563 -0.00027634113 0.00029509692 0.00020552751 -0.000375534
-0.00033780606 0.00015746136 0.000398033 -5.608172e-06 -0.00024201284 -0.000114147595 4.9595397e-05 2.6742351e-05
-2.4832138e-05 -2.7863156e-05 0.00013779057 -0.0005791577 0.00066635077 -0.00056561787 -0.00055239745 0.00081993564
0.00077867904 -0.00015634809 -0.000863048 9.950994e-05 0.0005417073 6.760852e-05 -3.3706707e-05 7.871307e-06
-2.244967e-05 -5.7779085e-05 -0.00011035975 -1.1204953e-05 4.6166697e-05 1.9193689e-05 -9.045367e-05 3.145826e-05
8.473266e-05 0.000104136554 -5.3664506e-05 6.0632814e-05 1.4678681e-05 -0.00010368192 6.199311e-05 5.0553088e-05
5.6387027e-05 -0.0003670183 -0.000956576 0.0022713852 -0.0022195235 0.0016704903 0.0018988473 -0.002790636
-0.0017740573 0.0006723286 0.0026015688 3.2651067e-05 -0.0020993778 -0.0004109505 0.00063182326 -8.696771e-05
-2.7117653e-07 2.3259104e-06 1.535574e-06 2.5026097e-06 -3.5766673e-06 1.5269177e-07 4.2564525e-06 -2.3883351e-06
-1.5718626e-06 -2.5597965e-06 3.878044e-06 -1.784166e-06 -2.2933277e-06 2.4712272e-06 -2.4749272e-06 -2.7821447e-06
0.00026867774 0.00033720976 0.00050945114 -0.00014128913 5.06246e-05 4.6228008e-05 0.00031629956 -0.000106458094
-0.0005892614 -0.00021501894 0.000398007 -0.00014896342 0.0001034593 0.00023585728 -0.00030693496 -0.00021876518
0.0002201158 0.00020285668 -0.00050713617 0.0017017599 -0.001934277 0.0020308595 0.001693209 -0.0026641514
-0.0027651133 0.00085605145 0.0030296186 -0.0001968718 -0.0015969427 -0.00051911856 3.423951e-05 -9.004048e-06
5.3018026e-05 -3.235564e-05 -1.8147493e-05 2.134451e-05 -1.5291843e-06 0.00015609992 -1.1112705e-05 -3.4572295e-05
-0.00016791762 8.68016e-05 0.00016407164 9.696589e-05 -1.110416e-05 -0.000110972374 6.25518e-05 5.619214e-06
-0.00011475425 -0.0002903481 -0.00024774295 -6.733546e-05 0.00022762649 -0.0004008889 -0.00026126625 0.00024796897
0.00077796227 1.2846257e-05 -0.00070221437 8.340311e-05 5.745776e-05 -6.3148436e-06 0.00026562664 0.00014128136
4.7566748e-05 1.5967627e-05 8.742605e-05 -0.0002168625 0.00025268923 -8.292573e-05 -0.00019339133 0.00031002148
0.00012854814 -2.2814202e-05 -0.00013342235 0.00011722266 0.00021405185 -4.6449895e-05 -1.5826992e-05 -5.0066912e-05
7.280618e-06 2.0141239e-05 8.000767e-05 -0.00010039937 9.990395e-05 -0.00011046961 -5.8989917e-05 0.00013682619
9.912147e-05 -8.046825e-05 -0.00013103843 -8.310876e-06 9.220438e-05 6.181196e-05 -3.2616234e-05 -2.2706934e-05
-5.0385202e-05 -0.00010911845 -8.050345e-05 0.000117511736 -0.0001390626 8.06345e-05 1.8398747e-05 -0.00018374417
-0.00010966726 3.491262e-05 -2.6341742e-05 -7.091594e-05 -0.00012144878 5.0791014e-06 0.000116518415 0.00015946789
00000000: be90 11b8 9a32 aab7 33ae 37b9 f572 0a39
00000010: f37a 0ab9 ce3f 4c39 870d 0b38 086d 29b9
00000020: 951a f1b8 b8a7 3e39 405d 5d39 cead 4a38
00000030: 413c edb8 8762 27b9 ed5b 0238 903d 0438
00000040: 7d57 1b37 e6d7 9cb8 10d1 d7b8 af11 6039
00000050: e3a5 52b9 7545 0e39 adef 3639 bb95 a7b9
00000060: e090 39b9 288d a838 4017 3039 2054 1eb8
00000070: d1d5 5cb9 f48b c9b7 0bcf db38 450b 8f38
00000080: 5ba0 77b8 ba33 fc37 12eb 79b8 f231 0f39
00000090: 82ff 3fb9 bd39 ec38 f15a ba38 e9fd eab8
000000a0: e41e b4b8 935a 1537 c855 3e39 8299 a5b7
000000b0: f6d6 f1b8 2fb6 4fb7 276e 26b8 1601 1db8
000000c0: 5e9e 6c38 7958 3f39 5fe8 8439 9b05 0c39
000000d0: 33b0 8ab9 eb45 8b39 9e62 8439 4a17 15b9
000000e0: ea60 0aba 7506 48b9 3a54 0b3a 9a01 69b8
000000f0: a49e e3b8 c0b8 ed38 f74b 27b9 8a91 3fb9
00000100: 16e0 f736 9217 48b7 ea87 0db9 a87d 8839
00000110: e1e1 90b9 3db7 9a39 df82 5739 52e3 c4b9
00000120: 901b b1b9 361c 2539 16af d039 d52d bcb6
00000130: d4c4 7db9 8662 efb8 a704 5038 c354 e037
00000140: 9c4e d0b7 acbb e9b7 e07b 1039 9ed2 17ba
00000150: 0bae 2e3a f945 14ba c4ce 10ba f3f0 563a
00000160: 4420 4c3a 5ff1 23b9 2c3e 62ba feaf d038
00000170: 5d01 0e3a 0cc9 8d38 4d60 0db8 020f 0437
00000180: 4d52 bcb7 d257 72b8 f170 e7b8 e8fc 3bb7
00000190: 1da3 4138 2202 a137 f2b1 bdb8 0df2 0338
000001a0: 80b2 b138 e363 da38 d315 61b8 fd4f 7e38
000001b0: 7444 7637 cf6f d9b8 4c02 8238 f708 5438
000001c0: 1c81 6c38 5d6c c0b9 bbc2 7aba 85db 143b
000001d0: 6d75 11bb 5af4 da3a bee2 f83a 1ae3 36bb
000001e0: 7c87 e8ba 353f 303a 157f 2a3b d1f2 0838
000001f0: b795 09bb d874 d7b9 f1a0 253a 6f62 b6b8
00000200: 3896 91b4 d616 1c36 ec19 ce35 82f2 2736
00000210: ad06 70b6 98f3 2334 a6d2 8e36 4947 20b6
00000220: caf8 d2b5 f8c8 2bb6 2520 8236 7a77 efb5
00000230: 12e7 19b6 5cd7 2536 ed16 26b6 e2b4 3ab6
00000240: 51dd 8c39 87cb b039 b08c 053a 0327 14b9
00000250: c055 5438 f2e4 4138 02d5 a539 4142 dfb8
00000260: aa78 1aba b576 61b9 98ab d039 1033 1cb9
00000270: 4af8 d838 7550 7739 1dec a0b9 5564 65b9
00000280: e3ce 6639 edb5 5439 55f1 04ba 960d df3a
00000290: 9187 fdba 2b18 053b abee dd3a 0b99 2ebb
000002a0: e736 35bb a468 603a 918c 463b 5f6f 4eb9
000002b0: 8150 d1ba 7515 08ba 659c 0f38 1710 17b7
000002c0: ac5f 5e38 9bb5 07b8 723b 98b7 fc0c b337
000002d0: 5f3e cdb5 c1ae 2339 b470 3ab7 b801 11b8
000002e0: 0b13 30b9 4109 b638 a50a 2c39 2a5a cb38
000002f0: 014c 3ab7 d7b9 e8b8 3e2e 8338 ae8c bc36
00000300: 38a8 f0b8 dd39 98b9 7fe3 81b9 7336 8db8
00000310: 05af 6e39 662e d2b9 90fa 88b9 d501 8239
00000320: 2af0 4b3a 4186 5737 cf14 38ba b4e8 ae38
00000330: cdfe 7038 18e4 d3b6 ce43 8b39 ed24 1439
00000340: 6882 4738 38f2 8537 8158 b738 9665 63b9
00000350: 607b 8439 6ae8 adb8 17c9 4ab9 618a a239
00000360: e1ca 0639 2061 bfb7 4ae7 0bb9 70d5 f538
00000370: 1b73 6039 32d3 42b8 35c4 84b7 f0fe 51b8
00000380: 084c f436 fbf4 a837 cac9 a738 808d d2b8
00000390: 8683 d138 ecab e7b8 f16b 77b8 0079 0f39
000003a0: 6fdf cf38 10c1 a8b8 5c67 09b9 f16e 0bb7
000003b0: d95d c138 0ba1 8138 6acd 08b8 c57a beb7
000003c0: b354 53b8 86d6 e4b8 f6d3 a8b8 a270 f638
000003d0: 55d1 11b9 511a a938 0257 9a37 73ab 40b9
000003e0: 29fd e5b8 246f 1238 76f8 dcb7 b5b8 94b8
000003f0: 51b2 feb8 266d aa36 595b f438 d636 2739

exp_avg_sq f4 [16, 16]
5.483591e-08 4.4264383e-09 3.127768e-07 1.8547715e-07 3.2179472e-07 4.506303e-07 8.735739e-08 1.230318e-07
1.1801299e-07 2.887455e-07 4.0016494e-07 3.0635288e-08 2.1151301e-07 2.7863553e-07 1.5784108e-08 1.3776136e-08
5.114227e-08 2.1352263e-07 7.890732e-07 1.3463043e-06 1.3709143e-06 1.4044615e-06 4.8413756e-07 1.8290492e-06
4.5881882e-07 1.0071228e-06 7.920333e-07 7.97497e-08 1.8177982e-06 4.3382542e-07 1.5764857e-07 3.2974012e-07
1.2501895e-06 3.8579037e-07 2.573792e-06 6.6563774e-07 2.2232005e-06 1.2789777e-06 1.1732684e-06 4.2900757e-07
1.3241703e-06 1.2426341e-06 1.2302382e-06 7.074048e-08 6.397715e-07 1.1033702e-06 4.178284e-07 1.989017e-07
1.1722784e-08 2.4886058e-08 8.440688e-08 4.5051632e-07 6.9433236e-07 6.7714956e-07 4.5273083e-07 7.586126e-07
1.2673635e-06 7.79334e-08 1.5317011e-06 5.7559353e-09 3.986802e-07 5.3599884e-08 1.68281e-08 2.4866265e-08
3.496363e-07 1.02946245e-07 1.6734925e-06 7.7815985e-06 1.1246229e-05 1.0855186e-05 5.3948484e-06 6.5897716e-06
8.597248e-06 3.4749664e-06 1.3725123e-05 3.929223e-08 8.8996785e-06 2.3826094e-06 1.2607954e-07 3.2280911e-07
1.0441441e-06 5.278159e-07 1.668259e-06 6.978915e-06 1.0660629e-05 9.559783e-06 8.233085e-06 3.7070213e-06
8.178338e-06 2.5847874e-06 1.2657618e-05 1.0143378e-06 7.957885e-06 2.3457644e-06 1.2487372e-07 1.6680282e-07
1.2816382e-09 3.3657968e-09 1.9820787e-08 2.1767912e-08 2.67967e-08 2.7136888e-08 1.22111405e-08 2.4428669e-08
2.1665635e-08 1.7602911e-08 3.3744925e-08 1.0895455e-09 2.3512152e-08 1.2401195e-08 4.3060386e-09 3.2525598e-09
4.902782e-07 3.621642e-07 2.269479e-06 1.0598323e-05 1.5727104e-05 1.5119726e-05 8.667831e-06 1.1251315e-05
1.6459227e-05 3.9002075e-06 2.3093e-05 1.6424968e-07 1.1448135e-05 2.856193e-06 3.5801162e-07 4.301373e-07
6.1667538e-09 2.6224267e-09 3.97836e-08 1.4768887e-07 2.1175929e-07 2.1011289e-07 1.0221713e-07 1.4474874e-07
1.7635621e-07 6.673279e-08 2.838008e-07 1.0865792e-09 1.6579881e-07 4.8664923e-08 3.4477008e-09 6.6009584e-09
6.8084853e-07 2.3974692e-07 3.355304e-07 2.8148525e-06 4.421099e-06 3.77702e-06 2.753052e-06 1.7985661e-06
3.8334792e-06 1.3436525e-06 5.2348255e-06 6.889888e-08 3.1614748e-06 8.155409e-07 9.85722e-08 1.0367252e-07
1.5233744e-07 9.388452e-08 1.882256e-06 9.404499e-06 1.3697314e-05 1.350286e-05 7.8930125e-06 1.4631944e-05
1.8272887e-05 2.6149626e-06 2.5183213e-05 7.049607e-08 9.258301e-06 1.8880954e-06 1.6406358e-07 1.5742641e-07
1.0371279e-07 8.3040185e-08 4.106487e-07 3.8604784e-07 3.5252103e-07 1.6870389e-06 1.4003504e-07 1.1581124e-06
1.2846677e-06 1.0942289e-06 1.2205847e-06 5.3475482e-08 6.765967e-07 6.660027e-07 1.303457e-07 1.5749326e-07
1.1915e-06 2.6066882e-06 9.550856e-07 1.4107639e-05 1.9104838e-05 1.6586606e-05 1.17928075e-05 6.5003e-06
1.5979254e-05 4.0679593e-06 2.349804e-05 2.169567e-07 1.5509853e-05 3.1280197e-06 1.2560893e-06 5.818169e-07
3.762787e-07 2.738833e-07 9.97371e-07 1.8108411e-06 2.8988063e-06 3.7548846e-06 2.6245689e-06 6.7547916e-07
2.3821938e-06 1.2690963e-06 4.621552e-06 7.613512e-07 2.034328e-06 1.5227388e-06 6.815645e-08 6.741241e-08
2.0352055e-10 1.4248801e-09 1.3343615e-08 1.8294969e-08 2.113271e-08 2.3508562e-08 6.1213945e-09 2.7391085e-08
1.3935081e-08 1.3690823e-08 2.5073028e-08 1.3796082e-10 1.9349594e-08 8.358574e-09 1.9616557e-09 2.2936548e-09
3.251364e-07 1.0912566e-06 6.986384e-07 7.123584e-07 1.8229152e-06 1.0579085e-06 3.9325312e-07 2.6740731e-06
9.804982e-07 4.2373492e-07 6.0266996e-07 5.51735e-07 1.2598497e-06 3.5553402e-08 5.8694627e-07 2.214582e-06
00000000: b884 6b33 5d17 9831 b7eb a734 9227 4734
00000010: 21c3 ac34 28ee f134 3c99 bb33 b91a 0434
00000020: 546e fd33 e104 9b34 40d6 d634 db93 0333
00000030: 411c 6334 6097 9534 9f95 8732 16ac 6c32
00000040: 85a7 5b33 a744 6534 b3d0 5335 aab2 b435
00000050: 4200 b835 ee80 bc35 aef5 0135 a77d f535
00000060: 9453 f634 7a2c 8735 1d9c 5435 dc42 ab33
00000070: 12fb f335 83e8 e834 1c46 2934 2307 b134
00000080: 2fcc a735 a01e cf34 69b9 2c36 47ae 3235
00000090: 4b32 1536 57a9 ab35 3279 9d35 5a52 e634
000000a0: 25ba b135 95c8 a635 aa1e a535 fde9 9733
000000b0: c3bc 2b35 8317 9435 e651 e034 af91 5534
000000c0: 5965 4932 05c5 d532 2c43 b533 7ede f134
000000d0: 2862 3a35 5dc5 3535 da0e f334 76a3 4b35
000000e0: 471a aa35 575c a733 d994 cd35 bec5 c531
000000f0: 310a d634 b235 6633 628d 9032 7f99 d532
00000100: a6b5 bb34 4c13 dd33 c49c e035 b68d 0237
00000110: 30ae 3c37 ab1e 3637 6505 b536 b51d dd36
00000120: e63c 1037 7833 6936 f444 6637 44c2 2833
00000130: d44f 1537 ebe4 1f36 7b60 0734 8c4e ad34
00000140: 8524 8c35 3caf 0d35 f1e8 df35 6c2c ea36
00000150: 0edb 3237 f562 2037 d520 0a37 24c6 7836
00000160: b235 0937 4f76 2d36 0e5c 5437 6224 8835
00000170: db82 0537 ed6b 1d36 0715 0634 691a 3334
00000180: a325 b030 b94b 6731 5f42 aa32 25fc ba32
00000190: 912e e632 a61a e932 2ac9 5132 36d7 d132
000001a0: 3c1b ba32 3635 9732 f0ee 1033 f9be 9530
000001b0: c5f7 c932 080d 5532 51f4 9331 a383 5f31
000001c0: a99b 0335 786f c234 5a4d 1836 73cf 3137
000001d0: b3ed 8337 bbaa 7d37 0d6c 1137 08c4 3c37
000001e0: ec11 8a37 87de 8236 d7b7 c137 9c5c 3034
000001f0: 5e11 4037 06ad 3f36 be34 c034 9fed e634
00000200: 57e3 d331 3836 3431 88de 2a33 6894 1e34
00000210: f35f 6334 649b 6134 7682 db33 3b6c 1b34
00000220: 6d5c 3d34 bd4e 8f33 495d 9834 9b56 9530
00000230: 6e06 3234 a603 5133 98ec 6c31 a5ce e231
00000240: 8ec3 3635 91b6 8034 f222 b434 cce6 3c36
00000250: f458 9436 b678 7d36 13c1 3836 4366 f135
00000260: 56a1 8036 8c57 b435 cfa6 af36 8ff5 9333
00000270: b929 5436 8beb 5a35 a4ae d333 92a2 de33
00000280: 3292 2334 909d c933 d3a1 fc35 04c8 1d37
00000290: 84cd 6537 588a 6237 3b6c 0437 b97b 7537
000002a0: ba48 9937 b77c 2f36 8a40 d337 a063 9733
000002b0: 1a54 1b37 776a fd35 7429 3034 0b09 2934
000002c0: b6b8 de33 d353 b233 2177 dc34 0342 cf34
000002d0: 1f42 bd34 376e e235 8a5c 1634 7070 9b35
000002e0: d96c ac35 6bdd 9235 f9d2 a335 eaac 6533
000002f0: 5f9f 3535 5bc7 3235 27f5 0b34 6b1b 2934
00000300: a1eb 9f35 90ee 2e36 7e30 8035 d9af 6c37
00000310: 5443 a037 7723 8b37 b9d9 4537 271d da36
00000320: 300b 8637 817f 8836 a81d c537 9bf4 6834
00000330: 281b 8237 f8ea 5136 e696 a835 272e 1c35
00000340: 5a03 ca34 3c0a 9334 68dd 8535 070c f335
00000350: 1d89 4236 6dfc 7b36 c021 3036 9352 3535
00000360: c7dd 1f36 d155 aa35 d412 9b36 a85f 4c35
00000370: 7d85 0836 e860 cc35 685d 9233 5dc4 9033
00000380: f1c5 5f2f 83d5 c330 d73d 6532 1027 9d32
00000390: 5287 b532 e0ef c932 5b54 d231 a249 eb32
000003a0: 2267 6f32 e034 6b32 2c60 d732 85b0 172f
000003b0: 3536 a632 6699 0f32 d0cd 0631 679e 1d31
000003c0: 688e ae34 4b77 9235 118a 3b35 e638 3f35
000003d0: e4aa f435 76fd 8d35 4c20 d334 3a74 3336
000003e0: a999 8335 af7d e334 2ac7 2135 f11a 1435
000003f0: 1b18 a935 61b3 1833 a48e 1d35 3b9e 1436

exp_avg f4 [16]
-9.554648e-05 -9.0685084e-05 -1.8325396e-05 8.8173954e-05 -0.00011591943 0.00016818085 -4.6680616e-05 -0.0007823429
6.866665e-07 0.00014579095 -0.0006406281 -3.5101777e-05 -4.7229983e-05 5.8691927e-05 5.3878906e-05 -4.728473e-05
00000000: 2060 c8b8 2f2e beb8 7db9 99b7 08ea b838
00000010: c519 f3b8 b459 3039 eeca 43b8 2516 4dba
00000020: 5d53 3835 76df 1839 d3ef 27ba 3f3a 13b8
00000030: cf18 46b8 fa2b 7638 09fc 6138 9853 46b8

exp_avg_sq f4 [16]
1.449685e-07 1.5549714e-06 7.646732e-07 4.9437283e-08 2.0740488e-06 1.2628757e-06 9.003222e-09 2.2204083e-06
4.2601116e-08 8.023187e-07 1.7178864e-06 9.990594e-07 2.5274635e-06 5.887255e-07 9.72554e-09 1.0559038e-06
00000000: a3a8 1b34 69b4 d035 f143 4d35 de54 5433
00000010: e32f 0b36 1480 a935 97ac 1a32 5302 1536
00000020: 6cf8 3633 ec5e 5735 2192 e635 6b17 8635
00000030: 7e9d 2936 e908 1e35 6115 2732 94b8 8d35

exp_avg f4 [5, 16]
-0.0018960555 0.0007107975 0.0016031811 0.0008928331 0.00010688167 -0.0003104744 -0.00012471763 0.00052722095
0.00013054445 0.0013805476 0.0012169941 -0.0029016908 -0.0008692011 -0.0002152567 -5.3317694e-05 0.00048081376
0.00016211023 -0.00095098605 -0.00027530175 9.137794e-06 8.881561e-05 -0.00023072075 -7.554275e-05 -0.0010032523
-2.923155e-05 0.0003276088 0.0001394977 -0.00028956748 -0.0010599629 0.00028969906 8.689219e-06 -0.00012682671
0.0019827674 -0.0005374795 -0.001568374 -0.00087263435 -0.00017186823 0.00047885886 0.00011503036 -0.00033495543
-8.519222e-05 -0.0012671831 -0.0010588834 0.0021696042 0.0007826177 -1.2165273e-06 5.6282133e-05 -0.0008451256
-0.0006614474 0.0006668152 0.000504074 0.00010569243 -3.7620568e-05 0.00015790583 8.9596484e-05 0.0007028073
-4.217608e-06 -0.0003906233 -0.00028380676 0.0010742914 0.0010836787 -0.00020823917 -6.766855e-06 0.0004338807
0.00041262794 0.00011084893 -0.00026358475 -0.0001350308 1.3789754e-05 -9.556969e-05 -4.3666273e-06 0.00010817774
-1.1902233e-05 -5.034543e-05 -1.3799644e-05 -5.2638716e-05 6.2863975e-05 0.00013501692 -4.8865236e-06 5.724777e-05
00000000: 1185 f8ba d054 3a3a d521 d23a 040d 6a3a
00000010: a925 e038 2bc7 a2b9 a2c6 02b9 3335 0a3a
00000020: c2e2 0839 7ef3 b43a 8c83 9f3a 4b2a 3ebb
00000030: 19db 63ba 88b6 61b9 70a1 5fb8 bb15 fc39
00000040: 22fc 2939 984b 79ba 6056 90b9 874e 1937
00000050: 8442 ba38 a1ed 71b9 b56c 9eb8 907f 83ba
00000060: 4736 f5b7 e9c2 ab39 2146 1239 17d1 97b9
00000070: 74ee 8aba c0e2 9739 e9c7 1137 c9fc 04b9
00000080: 51f1 013b a3e5 0cba e691 cdba 80c1 64ba
00000090: 8737 34b9 590f fb39 743c f138 f59c afb9
000000a0: 3aa9 b2b8 9c17 a6ba 3bca 8aba eb2f 0e3b
000000b0: 9628 4d3a 8f47 a3b5 7b10 6c38 6b8b 5dba
000000c0: fc64 2dba 36cd 2e3a d523 043a 31a7 dd38
000000d0: c7ca 1db8 8693 2539 bfe5 bb38 993c 383a
000000e0: fa84 8db6 92cc ccb9 e6cb 94b9 3dcf 8c3a
000000f0: 390a 8e3a c75a 5ab9 d80e e3b6 7b7a e339
00000100: fc55 d839 9177 e838 bf31 8ab9 0e97 0db9
00000110: 8b5a 6737 966c c8b8 0b85 92b6 7bdd e238
00000120: b4af 47b7 fe29 53b8 0585 67b7 64c8 5cb8
00000130: d7d5 8338 5493 0d39 ebf6 a3b6 531d 7038

exp_avg_sq f4 [5, 16]
7.353854e-06 2.8696726e-05 8.372948e-06 5.7376195e-07 3.558993e-06 1.8778814e-05 1.8409324e-08 5.717139e-07
1.387458e-07 1.794034e-05 1.5841539e-06 1.0336935e-05 6.705056e-05 1.3160391e-05 2.347386e-07 3.2224777e-06
3.2972564e-06 2.3011962e-05 2.843186e-06 9.154844e-08 2.8876589e-06 2.9267116e-05 1.42628185e-08 1.7525149e-06
2.1131633e-07 1.3757275e-05 3.2731046e-07 3.0015349e-06 8.0143305e-05 1.6406982e-05 9.4885436e-08 3.4318425e-06
3.003135e-06 8.098162e-06 4.9741316e-06 5.150445e-07 2.403498e-06 1.981456e-05 1.3159507e-08 3.127341e-07
8.4033346e-08 7.963033e-06 8.362618e-07 1.1024077e-05 3.1816897e-05 7.1359054e-06 2.3331166e-08 4.1024137e-05
5.2590503e-06 1.1942839e-05 8.135649e-06 5.8258735e-08 2.6888113e-06 1.8075667e-05 9.481665e-09 4.5720762e-07
1.2865239e-07 1.0578761e-05 4.3890353e-07 1.9337094e-05 6.594236e-05 1.1084204e-05 5.4756725e-08 2.1391264e-05
5.2756295e-06 1.1036407e-05 2.8920134e-05 6.07915e-08 2.2477157e-06 2.1027714e-05 9.466557e-09 1.4483534e-07
8.668465e-08 6.678048e-06 1.9391182e-07 6.442703e-07 4.5391098e-05 1.5619438e-05 3.6686895e-08 3.2213331e-06
00000000: 20c1 f636 c0b9 f037 8a79 0c37 9f04 1a35
00000010: 09d7 6e36 3287 9d37 8822 9e32 e177 1935
00000020: 28fa 1434 967e 9637 1d9f d435 cc6c 2d37
00000030: 7f9d 8c38 73cb 5c37 740c 7c34 bf41 5836
00000040: 6f46 5d36 d009 c137 90cd 3e36 4a99 c433
00000050: 9ac9 4136 a782 f537 8a08 7532 f437 eb35
00000060: 31e6 6234 0ccf 6637 35b9 af34 fa6d 4936
00000070: 9c12 a838 baa1 8937 d2c3 cb33 9b4e 6636
00000080: 7789 4936 57dd 0737 77e7 a636 9741 0a35
00000090: c84b 2136 7237 a637 2014 6232 d9e5 a734
000000a0: d275 b433 f798 0537 797b 6035 0df4 3837
000000b0: 2273 0538 f670 ef36 c769 c832 5511 2c38
000000c0: e676 b036 1a5e 4837 597e 0837 2838 7a33
000000d0: 6d71 3436 33a1 9737 cee4 2232 2376 f534
000000e0: b323 0a34 6f7b 3137 71a2 eb34 1836 a237
000000f0: 894a 8a38 4bf6 3937 a82d 6b33 6471 b337
00000100: 5005 b136 0229 3937 8499 f237 7b8c 8233
00000110: 76d7 1636 ac64 b037 5ca2 2232 0984 1b34
00000120: 6427 ba33 ff13 e036 1336 5034 ebf1 2c35
00000130: 5262 3e38 7d06 8337 ab91 1d33 152e 5836

exp_avg f4 [5]
-1.3846728e-05 -0.00017143732 0.00014950887 6.7643276e-05 -3.1865096e-05
00000000: 3e4f 68b7 dbc3 33b9 7bc5 1c39 b5db 8d38
00000010: e3a6 05b8

exp_avg_sq f4 [5]
4.913264e-06 2.1383548e-06 3.91565e-06 2.2802815e-06 3.8228227e-06
00000000: 9edc a436 a880 0f36 2d63 8336 f006 1936
00000010: cc45 8036
