tests/results/over-squashing-spec/2025-05-06/14-49-44-276675-over-squashing-spec/17/ckpt/382.ckpt (torch, 237202 bytes, 31 tensors)

model.encoder.node_encoder.encoder.weight f4 [16, 5]
0	0x3c3a9ef9	0.011390441
1	0xbe4d5583	-0.20052151
2	0x3f1f00f7	0.6211085
3	0xbf53afe8	-0.82690287
4	0xbf79c652	-0.9756824
5	0xbd95395e	-0.072863325
6	0xbe851e87	-0.25999853
7	0x3e97fed8	0.29686618
8	0x3e512e25	0.20427759
9	0xbf6c3435	-0.9226716
10	0xbef119bd	-0.4708995
11	0xbde4c1b5	-0.11169759
12	0xbf8baddb	-1.0912431
13	0xbf4461cb	-0.7671172
14	0x3ee2f009	0.44323757
15	0xbf062a1c	-0.52408004
16	0xbf8941ff	-1.0723265
17	0xbf34dea2	-0.7065221
18	0x3f1e5500	0.6184845
19	0xbcd0feb0	-0.02551207
20	0xbf30923b	-0.6897313
21	0xbf938aa4	-1.1526685
22	0x3dbbe643	0.09174778
23	0xbfb6c70c	-1.4279494
24	0xbf1b5b66	-0.6068634
25	0x3f144ce7	0.57929844
26	0xbf174397	-0.5908751
27	0xbf6504e9	-0.8946062
28	0xbf7c28e4	-0.98499894
29	0x3f6b7464	0.91974473
30	0xbf7807da	-0.9688698
31	0x3f77c146	0.96779287
32	0xbf028369	-0.50981766
33	0xbef2d92a	-0.47431308
34	0x3f1b4de7	0.60665745
35	0x3e8a4c20	0.27011204
36	0x3f034452	0.51276124
37	0x3f858bd1	1.0433294
38	0x3f2b068a	0.6680685
39	0xbf6996c2	-0.91245663
40	0xbe044984	-0.12918669
41	0xbf3dee04	-0.7419131
42	0x3e3d8238	0.18506706
43	0xbecdc389	-0.40188244
44	0xbfc481f5	-1.535216
45	0x3f378adf	0.71696275
46	0x3f8fc7ed	1.1232888
47	0xbedf9e2e	-0.4367537
48	0xbf12f234	-0.5740082
49	0x3f26ff64	0.65233445
50	0x3f115326	0.567675
51	0x3f8bd798	1.0925169
52	0x3c53c509	0.012925395
53	0xbf076485	-0.52887756
54	0xbe2dc384	-0.16969115
55	0x3ec5b646	0.38615626
56	0x3f5f2302	0.8716279
57	0xbf8d978b	-1.1061872
58	0x3efe9606	0.49723834
59	0xbf5990f8	-0.8498683
60	0x3f79ee64	0.9762938
61	0xbe63d42b	-0.22248904
62	0x3f2694de	0.65070903
63	0xbf693231	-0.9109221
64	0xbe5005b8	-0.20314682
65	0xbf1e1747	-0.6175427
66	0xbf85477f	-1.0412444
67	0xbeb24b5e	-0.34823126
68	0xbebd7f61	-0.37011245
69	0xbf6a16db	-0.91441125
70	0x3f08fb34	0.53508306
71	0x3f402bf5	0.75067073
72	0xbf614e83	-0.88010424
73	0xbf819851	-1.0124608
74	0xbdfac67f	-0.122448914
75	0xbee6208c	-0.44946706
76	0x3f5c3bfd	0.86029035
77	0x3e1cf340	0.15327168
78	0xbf454631	-0.7706023
79	0xbf49719a	-0.7868897

model.encoder.node_encoder.encoder.bias f4 [16]
0	0xbfb2b6cd	-1.3962036
1	0x3f8ee178	1.1162558
2	0xbf8df7ce	-1.1091249
3	0x3f0570a7	0.5212502
4	0xbeed4231	-0.46339563
5	0xbf892d73	-1.0716995
6	0x3f04a8fa	0.5182034
7	0x3fb7e592	1.4366934
8	0xbff1d5a8	-1.8893328
9	0x3f97c25e	1.1856191
10	0xbed48054	-0.41504157
11	0x3e7fb1ff	0.24970244
12	0xbeee5ce8	-0.46555257
13	0xbf8c4616	-1.0958889
14	0xbfab2a71	-1.3372327
15	0xbf82dd25	-1.0223738

model.gnn_layers.0.factor_split f4 [16, 2]
0	0x3f800000	1.0
1	0x3f800000	1.0
2	0x3f800000	1.0
3	0x3f800000	1.0
4	0x3f800000	1.0
5	0x3f800000	1.0
6	0x3f800000	1.0
7	0x3f800000	1.0
8	0x3f800000	1.0
9	0x3f800000	1.0
10	0x3f800000	1.0
11	0x3f800000	1.0
12	0x3f800000	1.0
13	0x3f800000	1.0
14	0x3f800000	1.0
15	0x3f800000	1.0
16	0x3f800000	1.0
17	0x3f800000	1.0
18	0x3f800000	1.0
19	0x3f800000	1.0
20	0x3f800000	1.0
21	0x3f800000	1.0
22	0x3f800000	1.0
23	0x3f800000	1.0
24	0x3f800000	1.0
25	0x3f800000	1.0
26	0x3f800000	1.0
27	0x3f800000	1.0
28	0x3f800000	1.0
29	0x3f800000	1.0
30	0x3f800000	1.0
31	0x3f800000	1.0

model.gnn_layers.0.filter.filter.distance_expansion.offset f4 [20]
0	0x00000000	0.0
1	0x3f86bca2	1.0526316
2	0x4006bca2	2.1052632
3	0x404a1af3	3.1578948
4	0x4086bca2	4.2105265
5	0x40a86bca	5.263158
6	0x40ca1af3	6.3157897
7	0x40ebca1c	7.3684216
8	0x4106bca2	8.421053
9	0x41179436	9.473684
10	0x41286bca	10.526316
11	0x4139435e	11.578947
12	0x414a1af2	12.631578
13	0x415af286	13.68421
14	0x416bca1b	14.736842
15	0x417ca1af	15.789474
16	0x4186bca2	16.842106
17	0x418f286c	17.894737
18	0x41979436	18.947369
19	0x41a00000	20.0

model.gnn_layers.0.filter.filter.linear.0.weight f4 [3, 20]
0	0xbeced82c	-0.403993
1	0x3f6e1329	0.92997986
2	0x3f8cdbcf	1.100458
3	0xbfb649f8	-1.4241323
4	0xbdc9535f	-0.09830355
5	0x3f3cec7b	0.7379834
6	0x3ecf45d3	0.4048296
7	0xbf56d84e	-0.83923805
8	0xbebee032	-0.37280422
9	0x3f35e26c	0.7104862
10	0x3e8204ed	0.25394383
11	0xbe9912a3	-0.2989703
12	0xbdad987e	-0.08476351
13	0x3e85c946	0.26130122
14	0xbe62f454	-0.22163516
15	0xbf104515	-0.5635541
16	0xbf06bcde	-0.5263194
17	0xbf4fe43c	-0.81207633
18	0xbeb208d8	-0.34772372
19	0x3ea36143	0.31910142
20	0x3f354bc4	0.70818734
21	0xbfaedf3c	-1.3661876
22	0xbfad59c0	-1.3543015
23	0x3fae39ef	1.361143
24	0x3e872313	0.26393947
25	0xbf2c9a36	-0.6742281
26	0xbe90234c	-0.2815193
27	0x3ed943da	0.4243458
28	0x3ed02292	0.40651375
29	0xbec5d083	-0.38635644
30	0x3ddbdc9b	0.107354365
31	0x3eaa59c5	0.33271614
32	0x3c8af19d	0.016960913
33	0x3a55ca32	0.00081554346
34	0x3dd9c180	0.1063261
35	0x3e44cf88	0.19219792
36	0x3eeb3e68	0.4594605
37	0xbe8c21b3	-0.2736946
38	0xbd362039	-0.044464324
39	0x3dce7250	0.10080397
40	0xbf22b0b4	-0.6355088
41	0x3f9e4e88	1.2367716
42	0x3f9d13ff	1.2271727
43	0xbf80a389	-1.0049907
44	0xbce9ea3c	-0.028554074
45	0x3f18e617	0.5972609
46	0xbe6c1c65	-0.23057707
47	0xbf314814	-0.6925061
48	0xbeaa02ab	-0.3320516
49	0x3f25cfd6	0.6477026
50	0xbd40a446	-0.047031663
51	0xbe543ab0	-0.20725513
52	0x3de3df82	0.11126615
53	0x3e85ffaa	0.2617162
54	0x3d99ef69	0.07516367
55	0x3e4a0445	0.19728191
56	0x3ea927df	0.33038232
57	0x3f1c8baf	0.6115064
58	0x3d95243d	0.072823025
59	0x3d4142c9	0.047182832

model.gnn_layers.0.filter.filter.linear.1.weight f4 [16, 3]
0	0x3f245df5	0.6420587
1	0x3e8cb347	0.27480528
2	0x3e2f7726	0.17135295
3	0x3ecf953c	0.40543544
4	0xbe6f2793	-0.2335494
5	0xbf359414	-0.70929074
6	0xbf2ff4c8	-0.6873288
7	0x401f368f	2.487705
8	0xc00e8d59	-2.2273772
9	0x3d65e15d	0.056123126
10	0x3edda53f	0.43290135
11	0xbfb4d8f2	-1.4128706
12	0x3f1ec115	0.6201337
13	0xbfff01d3	-1.9922432
14	0x3fe46339	1.784278
15	0x3f3ca3be	0.7368735
16	0xbfbaf9c1	-1.4607469
17	0x3f517734	0.81822515
18	0x3f607dad	0.87691766
19	0xc006d858	-2.1069546
20	0x40048cde	2.0710979
21	0xbfc9feaf	-1.5780848
22	0x3fe8f3c6	1.8199394
23	0xbfc4b8cc	-1.5368896
24	0x3f4dd0c2	0.80396664
25	0xc00de3b1	-2.2170222
26	0x40199d8c	2.400241
27	0xbf365be5	-0.7123397
28	0x3fa2a9bb	1.2708048
29	0xbf540c39	-0.8283115
30	0x3e9824c4	0.2971555
31	0xbf82578e	-1.018297
32	0x3f240fb2	0.6408645
33	0x3fc2f3d4	1.523066
34	0xbfa9e3a5	-1.3272597
35	0x3ff28d39	1.8949348
36	0x3fd30439	1.6485664
37	0xbfb07aac	-1.3787436
38	0x3fafacb6	1.3724582
39	0xbdf5c0d5	-0.119996704
40	0x3d8cea4b	0.06880625
41	0x3f1e46cc	0.6182678
42	0x4005e7bf	2.0922697
43	0xbfed99bf	-1.8562545
44	0x40142cf7	2.3152444
45	0xbfb02002	-1.3759768
46	0x3f84aeac	1.0365806
47	0xbe150d81	-0.14555933

model.gnn_layers.0.filter.filter.linear.1.bias f4 [16]
0	0xbe4d106e	-0.20025799
1	0xbe59af86	-0.21258363
2	0xbda0d32d	-0.078527786
3	0x3e6a86f4	0.22903043
4	0xbbcad02f	-0.006189368
5	0x3e65f87d	0.22458072
6	0xbe2366e7	-0.15957223
7	0x3e32701d	0.1742558
8	0x3d03d24e	0.032182984
9	0xbe1197b5	-0.14218028
10	0xbd4877f5	-0.048942525
11	0xbe20d876	-0.15707573
12	0xbe7d3cb2	-0.24730185
13	0x3e524a1e	0.20536086
14	0xbe8713a2	-0.26382166
15	0x3e43a681	0.19106485

model.gnn_layers.0.feature_transform.layer_real.lin1.weight f4 [16, 16]
0	0xbe59e566	-0.21278915
1	0x3e015e79	0.12633695
2	0xbe0398a0	-0.1285119
3	0x3e99c498	0.30032802
4	0x3ce4dc0f	0.027936963
5	0xbe6768ab	-0.22598521
6	0x3eac861d	0.3369607
7	0xbe44c701	-0.19216539
8	0x3d2a3538	0.04155466
9	0xbe849a71	-0.2589908
10	0xbef6fab5	-0.4823815
11	0xbee5040e	-0.44729656
12	0xbecc27d2	-0.3987413
13	0xbe246089	-0.1605245
14	0x3da06523	0.0783179
15	0xbe6a2dac	-0.22868985
16	0xbef08f8e	-0.46984524
17	0x3f0fd39a	0.56182253
18	0xbe89562a	-0.2682355
19	0x3eb84c6b	0.35995802
20	0x3dd22a7a	0.10262008
21	0xbf4232e1	-0.75858885
22	0x3e82d7c4	0.2555524
23	0x3dee08a6	0.11622743
24	0xbee83382	-0.45351797
25	0xbe5e90fd	-0.21734996
26	0xbdf8c5f8	-0.121471345
27	0x3dd0d34a	0.1019655
28	0xbec83175	-0.39100233
29	0xbe4e0790	-0.20120072
30	0xbf1801c7	-0.5937771
31	0xbe601ee4	-0.21886784
32	0x3e8c40c5	0.27393165
33	0x3f1c4d33	0.61055297
34	0xbeed23b5	-0.46316305
35	0xbef73ee3	-0.48290166
36	0x3f22db2b	0.63615674
37	0xbf3a659d	-0.728113
38	0x3e9d94f9	0.3077772
39	0x3f0e0a32	0.55484307
40	0x3e3cba16	0.18430361
41	0xbde9ee99	-0.11422462
42	0xbf3691d5	-0.7131627
43	0xc01d7bee	-2.460689
44	0x3f71a2fb	0.94389313
45	0x3d5c9df6	0.05386158
46	0xbee7cdbc	-0.4527415
47	0x3ec0406e	0.37549156
48	0xbcdd9b1b	-0.0270515
49	0xbd0559f4	-0.03255649
50	0xbe20b0d8	-0.1569246
51	0xbe42ca14	-0.19022399
52	0x3e0ec220	0.1394124
53	0x3e4b7235	0.19867785
54	0xbec4cf25	-0.3843929
55	0x3d0f08c2	0.03492046
56	0xbd562b67	-0.052287485
57	0x3e01e1ea	0.12683836
58	0x3e30533c	0.17219251
59	0xbe7d5a85	-0.24741562
60	0xbd2903d2	-0.04126341
61	0x3e3d6f00	0.18499374
62	0x3e5bdbb4	0.21470529
63	0x3e68fe50	0.22753263
64	0xbe99d0c5	-0.3004209
65	0x3f6d5f0e	0.92723167
66	0xbe50dcde	-0.20396754
67	0x3f3e6a4f	0.74380964
68	0x3e3393c9	0.17536844
69	0xbee3e66e	-0.4451174
70	0xbe32b887	-0.17453204
71	0x3e4e2f32	0.20135191
72	0xbdc002dc	-0.093755454
73	0xbf17cc3a	-0.59296
74	0xbf6e1823	-0.9300558
75	0x3e85ab7e	0.261074
76	0xbfa94f67	-1.3227357
77	0x3e91a934	0.28449404
78	0xbf24a535	-0.64314586
79	0xbe569a1d	-0.20957227
80	0xbe06db15	-0.1316951
81	0x3e779ada	0.24180165
82	0x3e9222b0	0.2854209
83	0x3ec5ae37	0.38609478
84	0x3f0b7f69	0.5449129
85	0xbf070cd9	-0.5275398
86	0x3f0ec44b	0.5576827
87	0xbd28b7bd	-0.04119085
88	0x3e24243c	0.16029447
89	0xbeb2795a	-0.3485821
90	0xbe69f226	-0.22846279
91	0x3e83301b	0.2562264
92	0xbdae0d42	-0.084986225
93	0x3ea750b6	0.32678765
94	0x3d857fcb	0.06518515
95	0x3f067371	0.525199
96	0xbfa00ff0	-1.2504864
97	0x3f5a88e3	0.8536512
98	0xbe6c5a09	-0.2308122
99	0xbe666781	-0.22500421
100	0xbf08750e	-0.5330361
101	0xbfc3143b	-1.5240549
102	0x3fb23ca4	1.3924756
103	0x3fc39ea4	1.5282788
104	0xbfcffa42	-1.6248248
105	0x3fd62d46	1.6732566
106	0x3f8dcbbd	1.1077801
107	0x3fa89468	1.317029
108	0xbfbbeb5d	-1.4681202
109	0xbf6cefc6	-0.92553365
110	0x3de97322	0.11398913
111	0xbe1cf66a	-0.15328375
112	0xbb8dc727	-0.0043267193
113	0x3f97c516	1.1857021
114	0xbf12c787	-0.57335705
115	0x3f3aa949	0.7291456
116	0x3f33ed3c	0.70283866
117	0xbf1cdcf7	-0.61274666
118	0xbf65dbd6	-0.8978857
119	0x3f09aa6d	0.53775674
120	0xbe10c7d6	-0.14138731
121	0xbf5a3d0f	-0.8524942
122	0xbf941b91	-1.1570913
123	0xbf611d6b	-0.87935513
124	0xbe5e19bd	-0.21689506
125	0x3e66549f	0.22493218
126	0xbf67ea9c	-0.9059236
127	0xbf22af77	-0.6354899
128	0xbf1c421c	-0.61038375
129	0xbf8c8438	-1.097785
130	0x3f1377d5	0.57604724
131	0x3f177105	0.5915683
132	0x3ecedca0	0.404027
133	0x3f79da77	0.97598976
134	0x3fbb8b4d	1.4651886
135	0xbf50e3fa	-0.81597865
136	0xbf1caab9	-0.61198
137	0x3f0c2eee	0.5475911
138	0xbf496ee0	-0.78684807
139	0xbff435fe	-1.9078977
140	0xbf99f464	-1.2027707
141	0xbeb13d6a	-0.34617168
142	0xbe9a20f0	-0.30103254
143	0xbf443896	-0.76648843
144	0x3e5cbd86	0.21556672
145	0xbe55eba5	-0.20890673
146	0x3de8f28d	0.11374388
147	0xbdc9890b	-0.09840592
148	0x3e2341b2	0.1594303
149	0x3e5501ed	0.20801516
150	0x3c917787	0.01775719
151	0x3dd3cd09	0.10341842
152	0xbd7e0bff	-0.06202316
153	0xbea7025e	-0.32618994
154	0x3d504120	0.050843358
155	0x3e609e88	0.21935475
156	0x3c98eade	0.01866668
157	0x3e1b7c4b	0.15184133
158	0x3d8ed696	0.06974523
159	0x3e613f30	0.2199676
160	0xbef5cae3	-0.48006353
161	0x3e8edfb8	0.2790506
162	0xbe41bb60	-0.18919134
163	0x3f070dc7	0.527554
164	0x3bf00d2e	0.00732579
165	0x3d908171	0.07055939
166	0x3fa3522a	1.275945
167	0x3e0c3ab1	0.13694264
168	0xbf303cb6	-0.6884264
169	0x3edcce0f	0.4312596
170	0xbea1307d	-0.31482306
171	0x3f336fd8	0.70092535
172	0xbfa08802	-1.2541506
173	0xbeb46682	-0.35234457
174	0xbeda674b	-0.4265693
175	0xbe608104	-0.21924216
176	0xbfb3024d	-1.3985077
177	0x3fb11aa9	1.3836261
178	0xbfcab9e5	-1.583798
179	0xbf4937ec	-0.78600955
180	0xbfa90959	-1.3205978
181	0xbfd3aef2	-1.6537764
182	0x3fb96d39	1.4486457
183	0x3fa9ad2a	1.325597
184	0xbfd17317	-1.6363248
185	0x3fbadb80	1.4598236
186	0x3f240485	0.64069396
187	0x3f091819	0.53552395
188	0xbf804ab3	-1.0022796
189	0xbfbe10a8	-1.4848833
190	0xbfadfff8	-1.359374
191	0xbf82ea72	-1.0227797
192	0xbf9c4921	-1.2209817
193	0x3f764321	0.9619618
194	0xbf7dbfc1	-0.9912072
195	0x3f72e34d	0.94878083
196	0xbf936ea6	-1.1518142
197	0xbf7b7686	-0.9822773
198	0x3f3f5733	0.7474243
199	0x3f8b7c31	1.0897275
200	0xbf90d7e7	-1.1315888
201	0x3f89daf3	1.0769943
202	0xbf5ddd84	-0.8666613
203	0x3f944b2b	1.158544
204	0xbf622047	-0.883305
205	0xbf85d49c	-1.0455508
206	0xbfaccfda	-1.3500931
207	0xbfb4d81b	-1.412845
208	0x3d2d9a43	0.042383444
209	0xbe8e7e37	-0.2783067
210	0xbe332de3	-0.17497973
211	0xbe14ec91	-0.14543368
212	0xbe7a4390	-0.24439836
213	0xbe35c856	-0.17752203
214	0x3db8b85f	0.09019541
215	0x3da42935	0.08015672
216	0x3e52fc9e	0.20604178
217	0xbd49d883	-0.049278747
218	0x3eb9bf10	0.36278582
219	0x3e6b931f	0.23005341
220	0x3c95eca4	0.018301316
221	0x3cb370e5	0.021904418
222	0xbbe95cd3	-0.007121661
223	0x3e941137	0.28919384
224	0x3f14cfa4	0.58129334
225	0x3ff96a62	1.948559
226	0xbe1b7b8b	-0.15183847
227	0xbe8a156c	-0.2696947
228	0x3eedec4d	0.46469346
229	0xbef1db5d	-0.47237673
230	0xbeacf656	-0.3378169
231	0x3ea287bf	0.3174419
232	0x3e41ea9f	0.18937157
233	0x3e5e4fe9	0.21710171
234	0xbd4eb3c8	-0.05046442
235	0xc01a3a2e	-2.409801
236	0x3f8e5540	1.1119766
237	0xbe0648bb	-0.13113682
238	0xbee228d6	-0.4417178
239	0x3e8f6824	0.2800914
240	0x3e1597b6	0.14608654
241	0x3ddeda36	0.10881464
242	0xbd1c5f4b	-0.038176816
243	0x3e2cec13	0.1688693
244	0x3b836286	0.0040095476
245	0xbc03bb60	-0.008040279
246	0x3ebb203f	0.3654804
247	0xbe7b6147	-0.24548827
248	0x3ce7d0a3	0.028297728
249	0xbd599ae0	-0.053126216
250	0x3d5dead5	0.05417903
251	0x3eb780b7	0.3584039
252	0xbd38dc3a	-0.0451319
253	0x3eac1d02	0.3361588
254	0x3e89f1e6	0.26942366
255	0x3e991115	0.29895845

model.gnn_layers.0.feature_transform.layer_real.lin1.bias f4 [16]
0	0xbd7ed21f	-0.062212106
1	0x3ee78bbd	0.452238
2	0x3f056c30	0.52118206
3	0xbed74175	-0.42042127
4	0x3d281328	0.041033894
5	0x3d28ea31	0.041238967
6	0x3fac3a89	1.3455364
7	0x3f7fbc3b	0.9989659
8	0x3f0a06a8	0.53916407
9	0xbdfee357	-0.124457054
10	0x3ebcd746	0.3688299
11	0x3f83feb2	1.0312102
12	0x3f710e0d	0.94162065
13	0xbe7e6b90	-0.2484572
14	0x3ed238b6	0.41058892
15	0xbddcc616	-0.107799694

model.post_mp.mlp.1.weight f4 [5, 16]
0	0xbda66292	-0.081242695
1	0x3f3362fc	0.70072913
2	0x3f8e4113	1.1113609
3	0xbf381a35	-0.7191499
4	0xbf55add3	-0.8346836
5	0x3f8968c1	1.0735093
6	0x3fabfeb5	1.3437105
7	0xbe3ab10f	-0.18231605
8	0xbfa91127	-1.320836
9	0xbf6fd08b	-0.93677586
10	0x3e76e776	0.24111733
11	0xbf86a3bf	-1.0518721
12	0xbfb8e3a1	-1.4444467
13	0xbebf9f81	-0.3742638
14	0xbf17b3a5	-0.5925849
15	0x3f717bd1	0.94329554
16	0x3c8773e4	0.016534753
17	0x3b43fd86	0.002990575
18	0x3e8330e8	0.2562325
19	0x3f186f10	0.5954447
20	0xbf2be3fb	-0.67144746
21	0xbf44f081	-0.7692948
22	0xbfedc93a	-1.8577034
23	0xbfbeab9f	-1.4896125
24	0xbfbeb42a	-1.4898732
25	0xbf746d3f	-0.95479196
26	0xbf4949fb	-0.7862851
27	0xbfd4a152	-1.6611731
28	0x3de3cade	0.11122678
29	0x3df21bc6	0.118217036
30	0xbe637b32	-0.22214964
31	0xbf7528d0	-0.957654
32	0xbdcbadc6	-0.09945254
33	0xbecd1f96	-0.4006316
34	0xbfe63ed6	-1.7987926
35	0x3f337d16	0.7011274
36	0xbe337408	-0.17524731
37	0xbf3131ae	-0.6921643
38	0x3f10481d	0.56360036
39	0x3fc40cde	1.5316427
40	0xbfa23b5b	-1.2674364
41	0x3eeaeced	0.45883885
42	0xbeb319e5	-0.34980693
43	0x3fa18a6a	1.2620366
44	0xbf5fc27f	-0.8740615
45	0xbe06ee48	-0.13176835
46	0x3fd6c070	1.6777477
47	0xbf0bf14a	-0.5466505
48	0xbd86b280	-0.06577015
49	0xbe93a0ae	-0.28833526
50	0x3f8a7611	1.0817281
51	0xbdc30650	-0.095226884
52	0x3fd95135	1.6977907
53	0xbf67d07e	-0.9055251
54	0x3fa7ddff	1.3114623
55	0x3f90b9a6	1.1306655
56	0xbfc9391d	-1.5720555
57	0x3f887a09	1.0662242
58	0x3e91d3f5	0.28482023
59	0xbf5aa3c0	-0.8540611
60	0x3fab5404	1.3385015
61	0x3e2ee94a	0.1708118
62	0xbfd1d51e	-1.6393163
63	0x3ecd1e8f	0.40062377
64	0x3efc9dea	0.4933923
65	0xbea6ba3c	-0.3256396
66	0x3e9093b0	0.28237677
67	0x3c246cc9	0.010035702
68	0xbed55c95	-0.41672197
69	0x3f8ffbc7	1.1248711
70	0xbf5224d3	-0.8208744
71	0xbfa58a6c	-1.2932868
72	0x3fcf608f	1.6201342
73	0xbef229af	-0.47297427
74	0x3f1024f3	0.5630638
75	0x3fa2ecee	1.2728555
76	0x3f1a9fca	0.6040007
77	0xbd8489d1	-0.06471599
78	0xbf9b9eb7	-1.2157811
79	0x3f2ff455	0.68732196

model.post_mp.mlp.1.bias f4 [5]
0	0xbe1ab14b	-0.15106694
1	0xbe2813ee	-0.16413853
2	0x3d18f396	0.037341677
3	0xbcc58c44	-0.024114735
4	0x3e9243aa	0.2856725

exp_avg f4 [16, 5]
0	0xb9a64d98	-0.000317198
1	0xb94cecfc	-0.0001954324
2	0xba1082f6	-0.0005512679
3	0xb9614be8	-0.0002148595
4	0xb92d6cfc	-0.00016539166
5	0xba87c5c2	-0.0010358619
6	0xbab78d94	-0.0014003986
7	0xbae1e3db	-0.0017234044
8	0xbadf4662	-0.0017034526
9	0xba65b1fb	-0.0008762178
10	0x39c4f1f4	0.00037564302
11	0x3a0852d4	0.00052003306
12	0x3a92a461	0.0011187905
13	0x3a34b02a	0.00068927056
14	0x3989f8fa	0.00026316178
15	0x3a637eae	0.00086782395
16	0x3a81e161	0.0009909087
17	0x3a6a820e	0.0008945771
18	0x39c2b675	0.00037138505
19	0x3a374d65	0.00069924287
20	0x3a0315f4	0.00050005247
21	0x3a0b419f	0.00053122075
22	0x391bdc68	0.0001486406
23	0x3ac4b142	0.001500644
24	0x39aa411a	0.0003247343
25	0x3a30fddd	0.0006751696
26	0x3a8fa70f	0.0010959822
27	0x3a82f12e	0.000999009
28	0x3a8e497a	0.0010855638
29	0x3a088d7f	0.0005209073
30	0x39d04481	0.0003972389
31	0xbb809ec3	-0.003925176
32	0xba3603bf	-0.0006943307
33	0x3a864fb4	0.0010247142
34	0xbaefbda9	-0.0018290776
35	0xb975d1f9	-0.00023443242
36	0xba3483b1	-0.00068860786
37	0xba6c5ac8	-0.0009016213
38	0xbac6c768	-0.0015165629
39	0xb855c95d	-5.097069e-05
40	0xb9d7a82a	-0.00041133288
41	0xb95c6bbf	-0.00021020974
42	0xba136054	-0.0005621959
43	0xb9d4c16f	-0.0004057991
44	0x3a0c80b5	0.0005359755
45	0xb9c68195	-0.0003786205
46	0xba01b077	-0.0004947255
47	0xb8798244	-5.9487546e-05
48	0x3919ed64	0.00014679652
49	0xb9ceeb27	-0.00039466584
50	0xba994958	-0.0011694832
51	0xbace4ff6	-0.0015740383
52	0xba5aaa22	-0.0008341392
53	0xb9e7ad77	-0.00044188995
54	0xba561485	-0.000816651
55	0xbb1ab441	-0.0023605975
56	0xbb61b988	-0.003444286
57	0x39bccb9f	0.00036009864
58	0xbaf726dc	-0.0018856185
59	0x39b1dea9	0.00033925966
60	0x3bdba613	0.006703147
61	0x3c14d068	0.009082891
62	0x3c099b3d	0.008398828
63	0x3c430ff1	0.011905656
64	0x3c1fee67	0.009761429
65	0x3907ae0d	0.00012939442
66	0x39671960	0.0002203933
67	0xb7074c4a	-8.0643895e-06
68	0xb83dde52	-4.5268163e-05
69	0x3928daf1	0.0001610329
70	0xb9dc8fcd	-0.0004206881
71	0xb9b0d75f	-0.000337298
72	0x39fc383c	0.00048107083
73	0x3919efca	0.00014680545
74	0xb973e56c	-0.00023259752
75	0xba46c720	-0.00075827725
76	0xba585ddb	-0.00082537316
77	0xba627a07	-0.00086393993
78	0xba0266a2	-0.00049744
79	0xba1ba449	-0.0005937261

exp_avg_sq f4 [16, 5]
0	0x3701a222	7.726749e-06
1	0x37057ee4	7.956962e-06
2	0x37037d90	7.837443e-06
3	0x370ae61c	8.2790175e-06
4	0x370e4283	8.4793455e-06
5	0x39153a33	0.00014231428
6	0x3915aa9f	0.00014273309
7	0x39148b03	0.00014166166
8	0x391600b4	0.00014305377
9	0x3917abbb	0.00014464457
10	0x382cd486	4.1205923e-05
11	0x382ddb83	4.145085e-05
12	0x3831be29	4.237719e-05
13	0x383037ef	4.2013762e-05
14	0x3830fba9	4.2196047e-05
15	0x381165c4	3.466547e-05
16	0x38217517	3.849444e-05
17	0x381c6504	3.7287376e-05
18	0x381d6827	3.7528716e-05
19	0x381c5d0c	3.7279955e-05
20	0x3808b769	3.259574e-05
21	0x380f6ce0	3.4195255e-05
22	0x38080669	3.2430897e-05
23	0x38180004	3.623964e-05
24	0x380b017e	3.3141572e-05
25	0x3856208f	5.10519e-05
26	0x3859b9af	5.1909763e-05
27	0x3855ee84	5.1005292e-05
28	0x385aac21	5.2135558e-05
29	0x385f6275	5.325904e-05
30	0x3a6e793a	0.00090970437
31	0x3a71ee08	0.000922889
32	0x3a6ff4be	0.0009153596
33	0x3a77acb8	0.00094480393
34	0x3a71af7d	0.000921957
35	0x3900d8c0	0.00012287777
36	0x3903396b	0.00012514523
37	0x3909d5f5	0.00013145043
38	0x390fc6a0	0.00013711536
39	0x390b66e7	0.00013294407
40	0x36dc19da	6.5595204e-06
41	0x36e88381	6.929448e-06
42	0x36dbe6fb	6.5535983e-06
43	0x36e0156f	6.6782154e-06
44	0x37ce4d40	2.4593086e-05
45	0x389b69e9	7.410703e-05
46	0x38a3bb29	7.807307e-05
47	0x389d1f5e	7.492186e-05
48	0x389e6d24	7.554356e-05
49	0x38a1c6fe	7.7141434e-05
50	0x38c0426d	9.167646e-05
51	0x38d15b02	9.982848e-05
52	0x38c8c543	9.573486e-05
53	0x38cc259a	9.734482e-05
54	0x38ca75b6	9.654036e-05
55	0x3b4608fd	0.003021776
56	0x3b4b3e47	0.0031012462
57	0x3b4aba7d	0.003093391
58	0x3b4b3c0d	0.0031011135
59	0x3b4ba3cc	0.0031072972
60	0x3b0a70c6	0.0021124347
61	0x3b05e1f4	0.0020428868
62	0x3b07d128	0.0020724032
63	0x3b08a705	0.0020851505
64	0x3b060a5c	0.0020452952
65	0x37174c7c	9.018109e-06
66	0x371e6873	9.441853e-06
67	0x37194774	9.136147e-06
68	0x371a07d9	9.1809425e-06
69	0x371f251b	9.485778e-06
70	0x3880c479	6.1401115e-05
71	0x3884aec0	6.3268e-05
72	0x388546ff	6.355158e-05
73	0x3884ded5	6.335756e-05
74	0x3882ef3d	6.243445e-05
75	0x37cce2be	2.442428e-05
76	0x37e6b5c1	2.7502772e-05
77	0x37de5644	2.6504633e-05
78	0x37e544af	2.733091e-05
79	0x37e2798a	2.6997895e-05

exp_avg f4 [16]
0	0xb88551a2	-6.3571395e-05
1	0xbaa19851	-0.0012328719
2	0x3ab46b9b	0.0013764979
3	0x3a629f35	0.00086449395
4	0x3a793e1c	0.0009507851
5	0x3a9ff25b	0.0012202965
6	0xb98bfffd	-0.00026702872
7	0xbad66746	-0.0016357682
8	0x3a6758b7	0.000882517
9	0xba34f0f4	-0.000690236
10	0xba5dfa31	-0.00084677624
11	0x39d04fc9	0.00039732296
12	0x3b802fef	0.003911964
13	0x39c72f87	0.00037991648
14	0x3a5f57c4	0.0008519853
15	0xb9dd1aa1	-0.00042172245

exp_avg_sq f4 [16]
0	0x3701bd45	7.733067e-06
1	0x38854134	6.354079e-05
2	0x37dcabfa	2.6306127e-05
3	0x3795750c	1.7816688e-05
4	0x37d60457	2.5512809e-05
5	0x3804b64e	3.1641037e-05
6	0x39b8e185	0.0003526324
7	0x38b4c27f	8.6192966e-05
8	0x3830f503	4.2189855e-05
9	0x37fda48c	3.0236573e-05
10	0x383d711a	4.5166445e-05
11	0x3aaa7b7b	0.0013006771
12	0x3a1ef921	0.0006064345
13	0x37268a4e	9.926573e-06
14	0x382fdd14	4.1929146e-05
15	0x37aaf298	2.0378546e-05

exp_avg f4 [3, 20]
0	0xbb3a4108	-0.002842011
1	0xbbadd62c	-0.0053050723
2	0xba155893	-0.00056970975
3	0x3a38a04e	0.000704293
4	0xba115ba7	-0.00055449683
5	0x39d20ba1	0.00040062985
6	0x39092557	0.00013079248
7	0xb991228b	-0.00027682292
8	0x39972434	0.00028827938
9	0x39061da1	0.00012790273
10	0xb93dcad7	-0.00018100008
11	0xb93a8d97	-0.00017791089
12	0xb98614cd	-0.0002557397
13	0xb941de9b	-0.00018488841
14	0xb9629ce8	-0.00021611492
15	0xba122b7a	-0.00055759365
16	0xba1edbb5	-0.00060599606
17	0xb9737c08	-0.00023220491
18	0x384c34b1	4.8686463e-05
19	0x3876ed5c	5.887203e-05
20	0x3bf893a0	0.0075859576
21	0x3c169e33	0.009192991
22	0x3a608ed1	0.0008566203
23	0xba94c033	-0.0011348784
24	0x3a39fe9e	0.0007095131
25	0xba225a73	-0.00061932876
26	0xb9671e47	-0.00022041156
27	0x39bd3189	0.00036085796
28	0xb9e370ca	-0.00043380848
29	0xb94d499a	-0.00019577742
30	0x398e4c74	0.00027141313
31	0x399d81ae	0.00030041992
32	0x39c37e02	0.00037287181
33	0x39696ebd	0.00022261865
34	0x393b1692	0.00017842118
35	0x39ecf593	0.00045196395
36	0x3993c314	0.0002818337
37	0xb998464e	-0.0002904408
38	0xb9de778b	-0.00042432206
39	0xb94293b0	-0.000185563
40	0xbba74b7a	-0.005105433
41	0xbc05d126	-0.008167541
42	0xba582938	-0.0008245888
43	0x3a898e2a	0.0010494639
44	0xba4c48f2	-0.0007792852
45	0x3a2057ec	0.0006116617
46	0x394c421a	0.00019479581
47	0xb9ca172b	-0.00038545704
48	0x39d16586	0.00039939227
49	0x38eee33c	0.0001139105
50	0xb984407a	-0.0002522504
51	0xb91c1a60	-0.00014887145
52	0xb9824667	-0.00024847986
53	0xb8b8c453	-8.810372e-05
54	0x38312c7f	4.224153e-05
55	0xb9805f77	-0.0002448519
56	0xb9809fe9	-0.00024533205
57	0x38fc93ab	0.00012043802
58	0x39876a62	0.00025828468
59	0x38ff6873	0.00012178803

exp_avg_sq f4 [3, 20]
0	0x3b44bdc9	0.0030020347
1	0x3a47b7a7	0.0007618614
2	0x37fd2896	3.017885e-05
3	0x377f07f5	1.5201037e-05
4	0x37145ee5	8.843582e-06
5	0x36f15907	7.192724e-06
6	0x37109ea1	8.6200025e-06
7	0x3618b4c7	2.2754991e-06
8	0x36e465ec	6.8067948e-06
9	0x36f460b6	7.2830253e-06
10	0x36eed2d2	7.1174954e-06
11	0x36a7bbff	4.9988735e-06
12	0x364c7dc2	3.047157e-06
13	0x3648a824	2.9900193e-06
14	0x3618b7cb	2.2756747e-06
15	0x35f35509	1.8129659e-06
16	0x35c04d04	1.4327529e-06
17	0x357ee0b7	9.4949377e-07
18	0x34e67bcf	4.293092e-07
19	0x32e5b982	2.6743468e-08
20	0x3b90b9d6	0.0044166846
21	0x3a963473	0.0011459723
22	0x382e1a62	4.1509404e-05
23	0x37ba151f	2.2182763e-05
24	0x378f8694	1.7109596e-05
25	0x36bdfa60	5.6617864e-06
26	0x37026695	7.772488e-06
27	0x3641389b	2.879219e-06
28	0x3701e44c	7.742154e-06
29	0x37026b20	7.773546e-06
30	0x370173bd	7.715947e-06
31	0x36d28b7c	6.274726e-06
32	0x36a185c4	4.8137463e-06
33	0x365001a3	3.0995368e-06
34	0x363db537	2.8268676e-06
35	0x36363cbe	2.715547e-06
36	0x35d974b0	1.620172e-06
37	0x35861641	9.990255e-07
38	0x3507194d	5.0328237e-07
39	0x3324d8aa	3.838128e-08
40	0x3b80eb82	0.0039343247
41	0x3a85f718	0.0010220734
42	0x38136a33	3.5146437e-05
43	0x37bab9de	2.2259479e-05
44	0x376aa7bb	1.398654e-05
45	0x3697f610	4.528796e-06
46	0x37057cbf	7.9564625e-06
47	0x36a842ff	5.0145895e-06
48	0x36dd3434	6.5923905e-06
49	0x36cf506d	6.1784435e-06
50	0x36dc12c1	6.558694e-06
51	0x36f22513	7.216478e-06
52	0x36f4ae56	7.292062e-06
53	0x365128c2	3.116715e-06
54	0x3649509c	2.9998255e-06
55	0x362e7516	2.5996173e-06
56	0x36054e87	1.9864253e-06
57	0x35749fab	9.112943e-07
58	0x34b01b49	3.2802407e-07
59	0x32ecee77	2.7582457e-08

exp_avg f4 [16, 3]
0	0xb613ed85	-2.2042962e-06
1	0x37169073	8.974329e-06
2	0xb726dc92	-9.945727e-06
3	0x3921276d	0.00015368844
4	0xb7a7e89a	-2.0016265e-05
5	0xb993bd29	-0.0002817896
6	0x398a3a34	0.00026364776
7	0xb990c039	-0.00027609037
8	0x39888a7a	0.00026043114
9	0x38b3e82f	8.578633e-05
10	0xb7de9334	-2.6533009e-05
11	0xb81159f9	-3.4654488e-05
12	0xb9c6d2a9	-0.00037922457
13	0x39e6fae8	0.00044055958
14	0xb9b93e77	-0.0003533249
15	0x38238e70	3.8994884e-05
16	0x3640e421	2.8743018e-06
17	0xb8533eb3	-5.0364713e-05
18	0xba1d264f	-0.0005994783
19	0x3a7c0941	0.0009614416
20	0xba7eb96d	-0.00097169616
21	0x3a269bd7	0.00063556194
22	0xb9a300ab	-0.0003109028
23	0x396bbaaf	0.00022480891
24	0xb9ef4e00	-0.00045643747
25	0x39e0adab	0.00042854002
26	0xb9c9dff6	-0.0003850457
27	0x3669c2ce	3.4833097e-06
28	0xb79b1dca	-1.8491311e-05
29	0x373f8be8	1.1417062e-05
30	0xba7ba81c	-0.00095999404
31	0x3999cc34	0.00029334577
32	0x39939213	0.0002814686
33	0xb9b124ab	-0.0003378739
34	0x3a727783	0.0009249376
35	0xba7f164d	-0.0009730801
36	0xb992eeb0	-0.00028025126
37	0x3a8a622c	0.0010557822
38	0xbaafbae3	-0.0013407137
39	0xb8dc2bae	-0.000104985535
40	0x3830eee1	4.2184143e-05
41	0x3836f7a5	4.362282e-05
42	0xb94a007b	-0.000192644
43	0x39958bc8	0.0002852364
44	0xb9859efc	-0.0002548619
45	0x37d2dca4	2.5136695e-05
46	0xb713fb43	-8.820384e-06
47	0xb78742af	-1.6124306e-05

exp_avg_sq f4 [16, 3]
0	0x35d86d1c	1.6125009e-06
1	0x35b4867f	1.3450189e-06
2	0x35b1b4cd	1.3240148e-06
3	0x356a6b29	8.732773e-07
4	0x34a01ae2	2.9821882e-07
5	0x3551e4c3	7.819146e-07
6	0x351fda94	5.955019e-07
7	0x34f8ab67	4.631831e-07
8	0x34dcc300	4.1120074e-07
9	0x3323c979	3.8134633e-08
10	0x3241fce5	1.129158e-08
11	0x321eea96	9.250149e-09
12	0x35dee989	1.6608257e-06
13	0x354e67c9	7.689201e-07
14	0x3504e305	4.950419e-07
15	0x34872363	2.5171457e-07
16	0x348daa86	2.638737e-07
17	0x33d042ab	9.6978816e-08
18	0x3722b476	9.697969e-06
19	0x36fb31d8	7.4861855e-06
20	0x3684eb56	3.9613033e-06
21	0x3727cddb	1.0001905e-05
22	0x3767bd7f	1.3812793e-05
23	0x371595b9	8.915952e-06
24	0x36762863	3.6680365e-06
25	0x36ce80b5	6.154262e-06
26	0x36858415	3.9790852e-06
27	0x347858da	2.3129124e-07
28	0x344b0267	1.8906722e-07
29	0x335eea75	5.190164e-08
30	0x362dffa7	2.5927818e-06
31	0x357b579d	9.363228e-07
32	0x352f3847	6.5274475e-07
33	0x37e6e492	2.7524573e-05
34	0x382b832d	4.0891744e-05
35	0x379dc5d1	1.8807974e-05
36	0x37d1b622	2.4999554e-05
37	0x37e84b91	2.7691744e-05
38	0x374d6760	1.2243021e-05
39	0x36cb67dd	6.0619627e-06
40	0x36145ed7	2.2108923e-06
41	0x3637433e	2.7308265e-06
42	0x3505030c	4.9550795e-07
43	0x35236202	6.086485e-07
44	0x34e5cd44	4.2803924e-07
45	0x33c737f6	9.276839e-08
46	0x3402ed27	1.2193469e-07
47	0x336d0ffe	5.5195407e-08

exp_avg f4 [16]
0	0x37eacb5c	2.798967e-05
1	0xbab07e9c	-0.0013465467
2	0x3a4456c3	0.0007489735
3	0x381b7794	3.7066246e-05
4	0xb94be2aa	-0.00019444028
5	0xb89f1c37	-7.586966e-05
6	0x3a76cb01	0.0009414405
7	0x3b2a8bfa	0.0026023374
8	0xbae0c53a	-0.0017148622
9	0xb90c0b21	-0.00013355586
10	0xb9838c80	-0.00025090948
11	0x3a8e08fe	0.001083642
12	0x3a3894bf	0.0007041208
13	0x3872df92	5.7905512e-05
14	0xb9c5be3c	-0.00037716504
15	0xb8c06961	-9.174902e-05

exp_avg_sq f4 [16]
0	0x371880b9	9.089877e-06
1	0x37c7867c	2.3785273e-05
2	0x3745d9d2	1.179283e-05
3	0x33b0ffaf	8.242147e-08
4	0x3854ab6e	5.0704395e-05
5	0x34334cdc	1.6698635e-07
6	0x396c9dab	0.0002256545
7	0x3982adfd	0.00024925164
8	0x381d59e1	3.7515423e-05
9	0x358a9f06	1.0328083e-06
10	0x36f5e19d	7.327834e-06
11	0x38b5d310	8.670066e-05
12	0x3a1657a0	0.0005735103
13	0x37d58221	2.5452175e-05
14	0x36ff415d	7.6072015e-06
15	0x34c9f5d6	3.7618037e-07

exp_avg f4 [16, 16]
0	0x38473e4e	4.7503323e-05
1	0xb665b3d0	-3.4228324e-06
2	0x3848510a	4.775919e-05
3	0x379cdec5	1.8700384e-05
4	0x388ebc07	6.8061105e-05
5	0x37f530ad	2.9228942e-05
6	0xb6ac2120	-5.1298557e-06
7	0xb83d67d0	-4.5157794e-05
8	0x38a2ed75	7.768992e-05
9	0xb83f7e77	-4.5655728e-05
10	0xb7088910	-8.138144e-06
11	0x3619d63f	2.2923484e-06
12	0x36540913	3.1595744e-06
13	0x3898b38e	7.2813695e-05
14	0x380c4599	3.344342e-05
15	0x3811ebb7	3.479022e-05
16	0xb9070b56	-0.00012878826
17	0x391d4c37	0.00015001079
18	0xb8a60f44	-7.91834e-05
19	0x38dcd7d8	0.000105306215
20	0x382fa496	4.1876534e-05
21	0xb8d7a386	-0.000102824575
22	0x3895a9cc	7.136501e-05
23	0x390682cf	0.00012827966
24	0xb921bcd4	-0.000154245
25	0x38cfec2e	9.914521e-05
26	0xb89c4edf	-7.4533506e-05
27	0x380cd1db	3.3574044e-05
28	0xb8861b41	-6.394694e-05
29	0xb838b4d1	-4.4037417e-05
30	0xb9129e19	-0.00013982541
31	0xb8c5046c	-9.394516e-05
32	0x3a8f1b0b	0.0010918094
33	0xb9c24ed6	-0.000370613
34	0x3ab840ac	0.001405736
35	0x39dddaca	0.00042315415
36	0x3abffb1e	0.0014646982
37	0x3a8aa233	0.0010576904
38	0xb90f5519	-0.00013669244
39	0xbabd41a7	-0.0014439122
40	0x3af48ad6	0.0018657099
41	0xba89187e	-0.001045957
42	0xb8db133c	-0.000104463164
43	0x3926773f	0.00015875416
44	0x3894f630	7.103046e-05
45	0x3ae3686d	0.0017349847
46	0x3a90c51f	0.0011045075
47	0x3a53e693	0.00080833695
48	0xb7c3fe72	-2.3364297e-05
49	0x36711c04	3.5928106e-06
50	0xb7dcbd5e	-2.6314225e-05
51	0xb71d6429	-9.38125e-06
52	0xb812e03f	-3.5017958e-05
53	0xb79152b6	-1.7323862e-05
54	0x358482c9	9.87283e-07
55	0x37d6f13a	2.5623118e-05
56	0xb81f02bd	-3.7911104e-05
57	0x37ba30e7	2.21957e-05
58	0x368ad0db	4.1370345e-06
59	0x341e1332	1.472188e-07
60	0xb5becbc8	-1.4215411e-06
61	0xb81923b7	-3.6511305e-05
62	0xb796e65f	-1.7988668e-05
63	0xb791aee7	-1.7366792e-05
64	0x38c13c93	9.21424e-05
65	0xb8e3e4ce	-0.00010866822
66	0x37b473c7	2.1511585e-05
67	0xb9b85635	-0.00035159444
68	0x370f0be1	8.52623e-06
69	0x396381e9	0.00021696802
70	0x389081e6	6.8906505e-05
71	0xb7913667	-1.731068e-05
72	0xb9128b0d	-0.00013975445
73	0x39c91c65	0.00038358863
74	0x399a9ad4	0.00029488525
75	0xb8567ff4	-5.114074e-05
76	0x39a8e494	0.0003221376
77	0xb9716c45	-0.00023023885
78	0x3998ff12	0.0002918174
79	0x38f7a4fc	0.000118086085
80	0x37ce858f	2.4619307e-05
81	0xb7621110	-1.3474622e-05
82	0x37b15f63	2.1144462e-05
83	0xb4f9a8f9	-4.6502808e-07
84	0x377bd205	1.5009665e-05
85	0x37a04376	1.91049e-05
86	0xb749ff3a	-1.2039958e-05
87	0xb7d51733	-2.5402382e-05
88	0x3823d3c7	3.905946e-05
89	0xb7cac519	-2.4172057e-05
90	0x363bbbcd	2.7974486e-06
91	0x35bb61f3	1.3961093e-06
92	0x36cc2097	6.0834677e-06
93	0x37e73c95	2.7565557e-05
94	0x37bdfeb4	2.2649161e-05
95	0x37852e40	1.5876372e-05
96	0x39a89d90	0.0003216085
97	0xb8e93d78	-0.00011121755
98	0x39666024	0.00021970324
99	0x38f4428f	0.00011647224
100	0x39af7365	0.00033464577
101	0x3975323b	0.00023383733
102	0xb9805a08	-0.0002448114
103	0xb9a7171f	-0.0003186995
104	0x3a0bd414	0.00053340313
105	0xb9efcc1b	-0.00045737703
106	0xb90775f0	-0.00012918538
107	0xb9312dce	-0.00016897099
108	0x38bbfa6b	8.963499e-05
109	0x39e614e1	0.00043884575
110	0x38c93c96	9.595712e-05
111	0x38b04777	8.405645e-05
112	0xba811fb8	-0.0009851372
113	0xb8c72dc5	-9.497585e-05
114	0xba83ea36	-0.0010064307
115	0xba3922cf	-0.0007062377
116	0xbad7633d	-0.0016432774
117	0xb9defef7	-0.00042533103
118	0x38d544e4	0.00010169463
119	0x3a72903e	0.0009253061
120	0xbae9ab8b	-0.0017827613
121	0x3aa7fb40	0.0012815967
122	0x39eeb85d	0.0004553226
123	0x362f230c	2.6097432e-06
124	0x3931fee1	0.00016974985
125	0xbaebcd8a	-0.0017990333
126	0xb9db2b63	-0.0004180326
127	0xba31e44d	-0.00067860336
128	0xbaab0db8	-0.0013050353
129	0x3974c6ef	0.00023343762
130	0xbaffa8ec	-0.0019505299
131	0xba6a5365	-0.00089388184
132	0xbb2e44de	-0.002659134
133	0xbabca118	-0.0014391271
134	0xb9273569	-0.00015946258
135	0x3b00ae2d	0.0019635067
136	0xbb0f2d3f	-0.0021847037
137	0x3aad708d	0.0013232395
138	0x3a08a7fb	0.00052130193
139	0x39963610	0.0002865051
140	0xb8101d4b	-3.4359557e-05
141	0xbb20aee5	-0.0024518308
142	0xba891458	-0.0010458333
143	0xba677cc5	-0.0008830543
144	0xb883ddd7	-6.287888e-05
145	0xb68ef29f	-4.2601746e-06
146	0xb8a107f7	-7.678562e-05
147	0xb80fd757	-3.4294408e-05
148	0xb8f5b1c5	-0.000117156225
149	0xb8627bbc	-5.3997835e-05
150	0xb6055a4b	-1.9871102e-06
151	0x388fd788	6.858917e-05
152	0xb8d85815	-0.00010316089
153	0x3844bb42	4.690444e-05
154	0x374b4a35	1.2117021e-05
155	0xb7164e20	-8.958887e-06
156	0xb7183726	-9.072746e-06
157	0xb8e1f801	-0.000107750304
158	0xb865a432	-5.4750773e-05
159	0xb842a31b	-4.6405108e-05
160	0x38cb1b1e	9.684845e-05
161	0xb7a45021	-1.9587636e-05
162	0x38a84b22	8.024859e-05
163	0x37a9df00	2.0250212e-05
164	0x38fc97bc	0.00012044559
165	0x38934f65	7.0242946e-05
166	0xb807bf32	-3.2364573e-05
167	0xb8b9c77f	-8.8586465e-05
168	0x3918cb87	0.0001457167
169	0xb8ba4aef	-8.8831286e-05
170	0xb75020e4	-1.2405424e-05
171	0xb7ad67ab	-2.0671481e-05
172	0x37f860e0	2.9609015e-05
173	0x390380b7	0.00012541084
174	0x387f0968	6.0805498e-05
175	0x3862ebc5	5.4102176e-05
176	0x396a5f11	0.00022351394
177	0xb8f1fb46	-0.00011538579
178	0x3948b404	0.00019140547
179	0x37ead53f	2.7994274e-05
180	0x393bda70	0.00017915084
181	0x393959a5	0.0001767637
182	0xb8f7ab36	-0.00011809768
183	0xb97e43e6	-0.00024248622
184	0x39bc0350	0.00035860622
185	0xb9878a6c	-0.0002585234
186	0xb7a19905	-1.926395e-05
187	0xb83b07cc	-4.4591536e-05
188	0x385786f4	5.138568e-05
189	0x398fe4ec	0.00027445646
190	0x39257a43	0.00015781172
191	0x38f776a1	0.00011799974
192	0x39aa1f47	0.0003244823
193	0xb8a12984	-7.684811e-05
194	0x39ab134b	0.00032630036
195	0xb72fb333	-1.0472536e-05
196	0x39f5c5df	0.00046877467
197	0x39710ee3	0.00022989097
198	0x389e87ca	7.55932e-05
199	0xb9a07244	-0.00030602713
200	0x39d12bbf	0.0003989618
201	0xb9330664	-0.00017073151
202	0x37d9db24	2.5970461e-05
203	0xb8ba87bc	-8.894454e-05
204	0x38c07e8e	9.178846e-05
205	0x39c28985	0.00037105024
206	0x398a3877	0.0002636348
207	0x39955a95	0.00028486984
208	0xb99b7618	-0.0002965189
209	0x380806a5	3.2431115e-05
210	0xb9b0503c	-0.00033629115
211	0xb90bdb87	-0.00013337853
212	0xb9f3b3a4	-0.00046482414
213	0xb962b473	-0.00021620262
214	0x3710e03f	8.63528e-06
215	0x39a97e1e	0.00032328157
216	0xb9fea7b8	-0.00048571615
217	0x3995ef04	0.00028597575
218	0x3884058b	6.295283e-05
219	0x36084e65	2.031121e-06
220	0xb764e9f3	-1.364433e-05
221	0xb9f9f7d0	-0.00047677616
222	0xb966da9e	-0.0002201595
223	0xb96579bb	-0.0002188449
224	0x39ac91b3	0.0003291495
225	0xb99cc909	-0.00029904422
226	0x3a1c7e18	0.0005969717
227	0x390dda54	0.00013528141
228	0x39a50e99	0.00031482129
229	0x39fda32d	0.00048377496
230	0xb8772104	-5.8920137e-05
231	0xba2e2dd7	-0.0006644404
232	0x3a2977fb	0.0006464717
233	0xb9ca73ba	-0.00038614665
234	0x36ebdc18	7.029168e-06
235	0x3914a4f9	0.00014175837
236	0xb839f4b6	-4.4335342e-05
237	0x3a167957	0.0005740127
238	0x3a05fd49	0.000511129
239	0x398def07	0.00027071705
240	0xb8c90498	-9.5852825e-05
241	0x36e669bc	6.8668433e-06
242	0xb8ef2af9	-0.00011404412
243	0xb851586d	-4.9911836e-05
244	0xb92786e8	-0.00015976618
245	0xb8a61b04	-7.920529e-05
246	0x36c06a74	5.7344387e-06
247	0x38e5da0c	0.00010960185
248	0xb9286fc1	-0.0001606336
249	0x38bbabfc	8.9488894e-05
250	0x37bab815	2.2258648e-05
251	0xb69376c6	-4.3947684e-06
252	0xb6fd2f6d	-7.5455087e-06
253	0xb928d2f2	-0.00016100312
254	0xb89fc5fd	-7.618589e-05
255	0xb88d0c5a	-6.7257046e-05

exp_avg_sq f4 [16, 16]
0	0x34d18d90	3.9032284e-07
1	0x3212be24	8.5415515e-09
2	0x3559d8ef	8.115448e-07
3	0x344993d9	1.877337e-07
4	0x35d31b34	1.5728642e-06
5	0x34a16b2c	3.0066565e-07
6	0x3315b4de	3.4856264e-08
7	0x352b6ee0	6.386381e-07
8	0x357e8c79	9.482679e-07
9	0x34ea1f11	4.36085e-07
10	0x332fdc01	4.0945455e-08
11	0x3157b1ed	3.1387757e-09
12	0x326ac528	1.3665421e-08
13	0x35e104d0	1.6765207e-06
14	0x349db827	2.9377517e-07
15	0x34e23404	4.2133627e-07
16	0x340f31f6	1.3336089e-07
17	0x344f5ad4	1.931142e-07
18	0x337ca941	5.8827258e-08
19	0x33ea7c69	1.0919104e-07
20	0x339069d0	6.72477e-08
21	0x33c1eba1	9.0301235e-08
22	0x33821d08	6.0588775e-08
23	0x341f2d88	1.4824593e-07
24	0x34586405	2.0152955e-07
25	0x33c269f7	9.053104e-08
26	0x3363b551	5.3017462e-08
27	0x3286bc8b	1.5685393e-08
28	0x335ec5b0	5.18682e-08
29	0x3370d5d6	5.6073837e-08
30	0x3417a9e2	1.4124774e-07
31	0x33a53208	7.692512e-08
32	0x37ebc0c9	2.8103956e-05
33	0x354d628e	7.6511867e-07
34	0x381bd0a4	3.714919e-05
35	0x36e0aafe	6.6956263e-06
36	0x389c32c5	7.448116e-05
37	0x3790227d	1.7182198e-05
38	0x34f4539f	4.5509384e-07
39	0x3816daa8	3.5966426e-05
40	0x389fdd4f	7.622933e-05
41	0x37e72b75	2.7557582e-05
42	0x35c835b1	1.4916787e-06
43	0x34c6fd0d	3.7064493e-07
44	0x350b3502	5.185867e-07
45	0x38a53e0a	7.879369e-05
46	0x378bd234	1.6667975e-05
47	0x378bc716	1.6662798e-05
48	0x324ebbc5	1.2033472e-08
49	0x300b174a	5.0601e-10
50	0x328676c0	1.5653654e-08
51	0x311b252d	2.25766e-09
52	0x32edb84b	2.7674238e-08
53	0x31f502d8	7.1307618e-09
54	0x2f59daa8	1.9813717e-10
55	0x3283fde5	1.5365865e-08
56	0x330968ad	3.1993e-08
57	0x32473f68	1.1597741e-08
58	0x30039d38	4.7880944e-10
59	0x2e83b792	5.989799e-11
60	0x2f4551dd	1.7946129e-10
61	0x3303de17	3.0702804e-08
62	0x31fab2e4	7.296295e-09
63	0x31ec906e	6.8849237e-09
64	0x37e18ef6	2.6888662e-05
65	0x3499b546	2.8630365e-07
66	0x382675cb	3.9687187e-05
67	0x36e79511	6.90169e-06
68	0x38a4131a	7.823687e-05
69	0x3795b82a	1.7847942e-05
70	0x34b96c4d	3.4537734e-07
71	0x38206b10	3.8246682e-05
72	0x389c61bc	7.456864e-05
73	0x37f58e85	2.9272642e-05
74	0x35cbcc84	1.51842e-06
75	0x334c2c19	4.7537558e-08
76	0x34ce80c0	3.8464168e-07
77	0x38b211b6	8.491e-05
78	0x378f136e	1.7055976e-05
79	0x379e14e1	1.884479e-05
80	0x33e81219	1.0806634e-07
81	0x33914eab	6.766398e-08
82	0x33a58b00	7.708695e-08
83	0x329d7ad2	1.8333058e-08
84	0x332e65cb	4.0605112e-08
85	0x33a82723	7.8302286e-08
86	0x32f4420e	2.8435377e-08
87	0x341025b9	1.3424768e-07
88	0x345ab3e1	2.0368272e-07
89	0x33c42aae	9.1347246e-08
90	0x32369cd8	1.0629456e-08
91	0x322e9ac3	1.0163322e-08
92	0x32f43720	2.8430406e-08
93	0x33d7f056	1.00554345e-07
94	0x33cdf4a2	9.590555e-08
95	0x33975f30	7.0488e-08
96	0x351055b1	5.376888e-07
97	0x3512d4d4	5.4698944e-07
98	0x35582e1f	8.0533385e-07
99	0x35727043	9.031539e-07
100	0x363a656b	2.7775193e-06
101	0x34b7496f	3.4139836e-07
102	0x3593161f	1.0958792e-06
103	0x3570b85b	8.967524e-07
104	0x35e11a22	1.6771412e-06
105	0x35f74a48	1.8424553e-06
106	0x34c9e80c	3.7608004e-07
107	0x34f768c0	4.608355e-07
108	0x34eedab6	4.4490088e-07
109	0x3628ff55	2.5182574e-06
110	0x3428d558	1.5723833e-07
111	0x34aa791e	3.1753092e-07
112	0x394286d1	0.00018551505
113	0x3697ab26	4.520075e-06
114	0x39b8a760	0.0003521992
115	0x38c8da27	9.577377e-05
116	0x3a4e52a8	0.0007870593
117	0x39150820	0.00014212774
118	0x362b2174	2.5500458e-06
119	0x399b9f48	0.00029682578
120	0x3a0d0a4c	0.00053802575
121	0x396b6289	0.00022448054
122	0x37bf7d3a	2.2827287e-05
123	0x34c86ba8	3.7331233e-07
124	0x36023519	1.9402416e-06
125	0x3a515731	0.000798571
126	0x3906093a	0.00012782673
127	0x392b32ed	0.00016326802
128	0x38035623	3.1313055e-05
129	0x359269fc	1.0908693e-06
130	0x38829db6	6.228259e-05
131	0x37991e2b	1.825307e-05
132	0x3910c67a	0.00013806848
133	0x37ca0e67	2.4086983e-05
134	0x35aa45a1	1.2686252e-06
135	0x3855dc01	5.0988052e-05
136	0x38bb72e6	8.938256e-05
137	0x381ec459	3.7853e-05
138	0x369ace66	4.6135856e-06
139	0x359a6d6d	1.1505741e-06
140	0x3463bd47	2.1209881e-07
141	0x3911b01f	0.00013893888
142	0x37af5456	2.0900898e-05
143	0x37f3c829	2.9061064e-05
144	0x348ea4b0	2.6569387e-07
145	0x31b4396c	5.2452176e-09
146	0x34f5ffb0	4.5820843e-07
147	0x33bf3444	8.903638e-08
148	0x357546f3	9.1372857e-07
149	0x345591e2	1.9890243e-07
150	0x321743d3	8.804778e-09
151	0x34e14136	4.1956963e-07
152	0x35447705	7.3188886e-07
153	0x34acbde9	3.2175674e-07
154	0x329be551	1.8148656e-08
155	0x3157778a	3.1354568e-09
156	0x31cb82c7	5.9229452e-09
157	0x3584c525	9.892143e-07
158	0x34476faf	1.857395e-07
159	0x347ba797	2.3437165e-07
160	0x34455bf5	1.8380508e-07
161	0x32256309	9.626782e-09
162	0x346c0310	2.1980327e-07
163	0x32de843f	2.590434e-08
164	0x34cdc779	3.832936e-07
165	0x33e956ab	1.0865673e-07
166	0x3234ced2	1.05244045e-08
167	0x346d6c6f	2.2111793e-07
168	0x34fa9bda	4.6679526e-07
169	0x3439216c	1.7241626e-07
170	0x31bf7911	5.5725953e-09
171	0x3119061c	2.2267903e-09
172	0x3202e174	7.618258e-09
173	0x34ee2d12	4.4363748e-07
174	0x33f87d0a	1.15711444e-07
175	0x33f2e7c4	1.1311161e-07
176	0x35d00a2c	1.5500168e-06
177	0x35a234e5	1.2085335e-06
178	0x35f5ea79	1.8322163e-06
179	0x34c4a822	3.6630178e-07
180	0x35b1a391	1.3235132e-06
181	0x35dd3f5f	1.6484227e-06
182	0x35a62541	1.2378806e-06
183	0x36859e40	3.9821316e-06
184	0x3688b360	4.073998e-06
185	0x364da12b	3.0641193e-06
186	0x340df023	1.321901e-07
187	0x3506ed89	5.026455e-07
188	0x354e040b	7.6746863e-07
189	0x364f768b	3.0914405e-06
190	0x3598193f	1.133223e-06
191	0x3563c1ae	8.484593e-07
192	0x367e526e	3.789693e-06
193	0x35ccf594	1.5270657e-06
194	0x35e8fc16	1.7358714e-06
195	0x364026f1	2.8632896e-06
196	0x369e2a6b	4.713705e-06
197	0x35e827b5	1.7296903e-06
198	0x359411ef	1.1032079e-06
199	0x359fd85e	1.1909394e-06
200	0x368115d0	3.847039e-06
201	0x34f33e01	4.530739e-07
202	0x35b4c1cc	1.3467447e-06
203	0x3585bd5b	9.964382e-07
204	0x364d2e32	3.057427e-06
205	0x3660cabc	3.3496608e-06
206	0x365a6007	3.2540427e-06
207	0x361cb045	2.3348414e-06
208	0x35eb1579	1.7515114e-06
209	0x331d5e62	3.664025e-08
210	0x3631c3af	2.6488958e-06
211	0x34d7faec	4.022944e-07
212	0x36a8aae9	5.0266867e-06
213	0x35a46e00	1.2250966e-06
214	0x334c24d6	4.7530953e-08
215	0x362da033	2.5872257e-06
216	0x369ebe82	4.730945e-06
217	0x36022a62	1.939618e-06
218	0x33a90989	7.87141e-08
219	0x32332815	1.0428285e-08
220	0x331dfb9d	3.6783252e-08
221	0x36bc9926	5.6206654e-06
222	0x359ddd04	1.1761736e-06
223	0x35b62616	1.3571141e-06
224	0x378b414a	1.6600494e-05
225	0x3590a5c8	1.0777085e-06
226	0x37f0ec86	2.872037e-05
227	0x37204626	9.553076e-06
228	0x3893c427	7.0460424e-05
229	0x3739fdc6	1.10859455e-05
230	0x34d663a8	3.9933116e-07
231	0x37ca251d	2.4097559e-05
232	0x384da9e5	4.9034035e-05
233	0x3799fdc9	1.83572e-05
234	0x362a8e50	2.541481e-06
235	0x34b6492a	3.3953376e-07
236	0x34aea239	3.2528058e-07
237	0x388b2272	6.6344524e-05
238	0x3721a10e	9.633846e-06
239	0x37472295	1.1869376e-05
240	0x34e26f4c	4.217676e-07
241	0x3361163b	5.2407113e-08
242	0x35067211	5.008488e-07
243	0x3317bb8d	3.5328004e-08
244	0x354b3ca7	7.5711654e-07
245	0x349d8db7	2.934664e-07
246	0x33368a5b	4.250101e-08
247	0x351888c3	5.6823427e-07
248	0x3586d006	1.0044321e-06
249	0x34e52c6e	4.26869e-07
250	0x31eb2239	6.843291e-09
251	0x3258e344	1.2624529e-08
252	0x332c2058	4.0076287e-08
253	0x35810f76	9.615749e-07
254	0x34a370ed	3.044328e-07
255	0x34a70a24	3.1113552e-07

exp_avg f4 [16]
0	0xb78b8b43	-1.663494e-05
1	0x38f52002	0.00011688472
2	0xba0a75d8	-0.00052818423
3	0x37120ae1	8.704811e-06
4	0x376180c2	1.3441024e-05
5	0xb7833639	-1.5641666e-05
6	0xb939848c	-0.00017692352
7	0x39a59394	0.00031581207
8	0x39e1a6d2	0.00043039635
9	0x3766f13e	1.3765237e-05
10	0xb81f99e3	-3.8051872e-05
11	0xb910b9fb	-0.00013802193
12	0xb8caf487	-9.677657e-05
13	0x38d9a613	0.000103783
14	0xb9900029	-0.0002746594
15	0x3802c0ff	3.1174157e-05

exp_avg_sq f4 [16]
0	0x33ed7faf	1.1059398e-07
1	0x34145a5b	1.3816445e-07
2	0x369107a9	4.3222285e-06
3	0x311ad7fb	2.253272e-09
4	0x369f3d1d	4.745684e-06
5	0x33a9314f	7.878645e-08
6	0x3578d6d3	9.269981e-07
7	0x3800f15c	3.074236e-05
8	0x369bd047	4.6436066e-06
9	0x33911d4a	6.757416e-08
10	0x333237ab	4.1494484e-08
11	0x3689f8aa	4.1118665e-06
12	0x3684e81d	3.960928e-06
13	0x34d57085	3.975621e-07
14	0x360d2d03	2.1036838e-06
15	0x3439892a	1.7279368e-07

exp_avg f4 [5, 16]
0	0xb826b432	-3.9745304e-05
1	0x3a25fe40	0.00063321367
2	0xb9d0df7a	-0.00039839355
3	0xb82c74b9	-4.1116702e-05
4	0x39dd017b	0.00042153508
5	0xb6fa9987	-7.4684535e-06
6	0xba8f8aa9	-0.0010951358
7	0x3a0c9057	0.00053620845
8	0x3a61d7e4	0.0008615239
9	0xb7187dee	-9.089226e-06
10	0xb991927e	-0.000277657
11	0x3999f205	0.00029362753
12	0x3ac6af18	0.0015158383
13	0xb8ab9a18	-8.1826176e-05
14	0x36322baa	2.6549483e-06
15	0xb81ebece	-3.7847836e-05
16	0x3807bcc1	3.23623e-05
17	0xb9a2d772	-0.00031059567
18	0x389a734c	7.364768e-05
19	0x3772c78c	1.4470785e-05
20	0x395176ca	0.00019976046
21	0x36eb5bcc	7.0142323e-06
22	0x3abe270f	0.001450749
23	0x38bcfb90	9.011396e-05
24	0xb9232f51	-0.00015562518
25	0x379668a4	1.793012e-05
26	0x39bf14f2	0.00036445964
27	0x3a83db3e	0.0010059846
28	0xba06defe	-0.0005144923
29	0x38abdb7b	8.194797e-05
30	0x38f90d80	0.0001187576
31	0x37c906c9	2.3964227e-05
32	0x37b673a7	2.1749946e-05
33	0xb93c6bf6	-0.00017969296
34	0x3a09dcf8	0.0005259062
35	0x37ac0af9	2.0509107e-05
36	0x37438022	1.1652739e-05
37	0x3727e5a7	1.0007446e-05
38	0x38179a69	3.614501e-05
39	0xb9c60c10	-0.0003777449
40	0x3874fa4d	5.8407244e-05
41	0x3781a96d	1.5456893e-05
42	0xb6b662bc	-5.435517e-06
43	0xb9e78040	-0.00044155307
44	0x390d51d1	0.00013477287
45	0xb86641fd	-5.489773e-05
46	0xba013415	-0.00049287203
47	0x369334c3	4.3870837e-06
48	0x35bdb876	1.4135283e-06
49	0xb9733929	-0.0002319558
50	0xb8d1e148	-0.000100078585
51	0x377d399f	1.5093391e-05
52	0xba3be954	-0.00071682525
53	0x35a71016	1.2447151e-06
54	0xb9da2834	-0.00041610154
55	0xb9cf5e26	-0.00039552263
56	0x37c964af	2.4007952e-05
57	0xb78f1d2a	-1.7060509e-05
58	0xb824facc	-3.933422e-05
59	0x387a9c5f	5.9750277e-05
60	0xba9c492f	-0.0011923666
61	0x3838a177	4.4019394e-05
62	0x39901cea	0.00027487363
63	0x377b4f8d	1.4979288e-05
64	0xb7846004	-1.5780337e-05
65	0x38bab547	8.902937e-05
66	0xb8d3fb68	-0.00010108092
67	0xb7164470	-8.956631e-06
68	0x38afe698	8.387602e-05
69	0xb73528cc	-1.07979395e-05
70	0x37cc38f5	2.4345218e-05
71	0x391a1517	0.00014694441
72	0xba4ea6f6	-0.00078831555
73	0xb6f2d758	-7.2372313e-06
74	0xb8304a06	-4.203061e-05
75	0xba70993b	-0.00091781066
76	0x386be9d2	5.624613e-05
77	0x373477ad	1.07567e-05
78	0x38ca8e4c	9.6586155e-05
79	0xb6b7f7ff	-5.4826955e-06

exp_avg_sq f4 [5, 16]
0	0x35a87437	1.2550798e-06
1	0x36348e2a	2.690484e-06
2	0x361a02a4	2.2949325e-06
3	0x32e65071	2.6812105e-08
4	0x365c8b38	3.286359e-06
5	0x3435200b	1.6868596e-07
6	0x37065907	8.007751e-06
7	0x371f65ce	9.500842e-06
8	0x371bfd9f	9.297771e-06
9	0x3426d216	1.5536384e-07
10	0x361d200f	2.3413484e-06
11	0x37cb6280	2.4245353e-05
12	0x37e4158e	2.7189755e-05
13	0x366ea71d	3.5562036e-06
14	0x35a747e0	1.2463388e-06
15	0x33ec4863	1.10027734e-07
16	0x3580cf08	9.596997e-07
17	0x3598e5b3	1.1391734e-06
18	0x35c2b41c	1.4506545e-06
19	0x3267fa97	1.3502947e-08
20	0x36473043	2.9681403e-06
21	0x32d04ef6	2.4250294e-08
22	0x373b3852	1.1159182e-05
23	0x3790ccec	1.7261562e-05
24	0x3703999d	7.843974e-06
25	0x33db4ea6	1.0212288e-07
26	0x35eeac31	1.7782496e-06
27	0x37e2f3e4	2.705487e-05
28	0x369686e9	4.486054e-06
29	0x3681f24f	3.872708e-06
30	0x351eeaa9	5.920106e-07
31	0x340204b5	1.2108906e-07
32	0x35730357	9.0529414e-07
33	0x358460e1	9.862962e-07
34	0x35e5a2ac	1.7109173e-06
35	0x32507449	1.2133634e-08
36	0x358e0dd7	1.0583852e-06
37	0x3464f1fc	2.1322188e-07
38	0x36c1e6ce	5.7787174e-06
39	0x37bbe288	2.2397624e-05
40	0x368e27c9	4.2365614e-06
41	0x34380b27	1.7140393e-07
42	0x35374d55	6.8285345e-07
43	0x3808d8a1	3.2626678e-05
44	0x37b3cbbb	2.1433332e-05
45	0x364f95a7	3.0932513e-06
46	0x364f3d00	3.088091e-06
47	0x33d8f050	1.01019964e-07
48	0x360028f5	1.9097326e-06
49	0x354de77f	7.670532e-07
50	0x35022952	4.8488903e-07
51	0x3280e71b	1.5006256e-08
52	0x35d0b921	1.5551087e-06
53	0x33dbb690	1.023119e-07
54	0x36ba3bf1	5.55021e-06
55	0x36977bdc	4.51457e-06
56	0x35cd49bf	1.5295153e-06
57	0x34046915	1.2331687e-07
58	0x358f7f93	1.0691459e-06
59	0x370465d1	7.891519e-06
60	0x3887a08d	6.4672065e-05
61	0x36c83bd7	5.9674308e-06
62	0x35353be4	6.7514907e-07
63	0x3373e02d	5.6781733e-08
64	0x35e99ab0	1.7404873e-06
65	0x34b37a03	3.3430123e-07
66	0x3549e5b3	7.521259e-07
67	0x32357c02	1.0563783e-08
68	0x35391e32	6.896181e-07
69	0x343356e3	1.6702283e-07
70	0x369a7933	4.603667e-06
71	0x3725e1ab	9.887309e-06
72	0x37905474	1.7205464e-05
73	0x337cfc5c	5.890284e-08
74	0x3516c192	5.6161036e-07
75	0x37dd26be	2.6363294e-05
76	0x3601c3d3	1.9336483e-06
77	0x363ac2c4	2.7829528e-06
78	0x35139031	5.4971593e-07
79	0x3407f100	1.266053e-07

exp_avg f4 [5]
0	0xb9603915	-0.0002138357
1	0xb7972026	-1.8015573e-05
2	0x3990a36a	0.00027587573
3	0x384ef001	4.933775e-05
4	0xb8c3cb27	-9.336165e-05

exp_avg_sq f4 [5]
0	0x36e2b51e	6.7564097e-06
1	0x370f9057	8.557071e-06
2	0x36e5dd00	6.8504596e-06
3	0x36866599	4.0053387e-06
4	0x370f688e	8.547808e-06
